code/lightning_logs/content/lightning_logs/MetaGATr/version_1/checkpoints/MetaGATr.ckpt (torch, 94040 bytes, 28 tensors)

metagatr.enter_equilinear.weights f4 [12, 4, 9]
00000000: 6e6d 743e 481c 633f 2f23 633f ba3d 153e
00000010: de2d 553f 9837 543f cb71 c03e db48 033f
00000020: fdb8 383d 5acf 2f3f 3dd8 223e 4243 db3e
00000030: 22a1 403d 3075 e53e bad5 0a3f d2c5 7b3f
00000040: b25e 2e3d 9079 083f 8691 f23d e2d9 523e
00000050: cc51 473f 3c92 e73e cbc6 363f 4a4b 693f
00000060: 0b67 443d 2783 a73e aaba cb3e b3c8 293f
00000070: 089d 483e 538c c33b 31e2 4b3f 71c8 083f
00000080: 718c 7d3f c3e3 573f 250c 533e ee2b 7c3f
00000090: 248c 3b3f dec7 b93d 3ea6 3f3f dd7d 073f
000000a0: 9399 193d 985d 7b3f d097 443f f6f6 9a3e
000000b0: 1cd4 473f cf05 d43e 9815 22bd 1ce1 543b
000000c0: 0b6d 333f a2e5 273e c2b5 443f 3b0c a13e
000000d0: 8622 783f faae 3c3f a819 c43e f3a2 343c
000000e0: 2db0 7d3e b864 763c 9189 443e 821f 613e
000000f0: 6634 cd3e 505b 513f 0fd8 713f 0990 413f
00000100: d4a4 af3d c865 293f 9996 023f f76c 1f3f
00000110: 9864 533e e6fa 8f3e d355 4d3e 9e01 5d3f
00000120: 5a58 623f f1e0 8c3e 3c8b 663e 837a 6b3d
00000130: 7ea0 f43c 2549 373f d404 e63e 8824 6b3f
00000140: acdf 1c3f 4198 8b3e 2310 a1bd 0dfd 2c3f
00000150: 95d2 603f dde2 2d3f 5333 af3e af10 1b3f
00000160: 1775 1d3f 013c a43e 064a e53e a337 353f
00000170: de0d 483f c849 013e eadb 3e3f 5f45 803e
00000180: 9350 023f 5232 6f3f 42a5 093f 29db 183f
00000190: 7881 c93e e637 c43e a4b8 583c 5273 333e
000001a0: f896 513f e403 d33e 96ab fb3d d1ef 183e
000001b0: b4dc 013f eb53 6e3f 3c07 373d d4e5 513f
000001c0: d646 793f 41cc 5b3f 4b9d 113f d20d 833f
000001d0: 1896 8e3e 253b 6a3f 1f47 8c3a c905 d23d
000001e0: 36ce 9e3e 16a6 9f3e 163f 1c3f 7497 f33e
000001f0: f1f3 173f 1938 883c 069d 343f c40b 3c3f
00000200: 2632 723f 5a1a 1f3f f5dd 4f3f 1997 2a3f
00000210: 5bd1 a13d 7e3e ff3e 6a99 8a3e dd27 7d3f
00000220: e2e1 f73e c6df 363e 2403 753f f818 2b3f
00000230: 7e4f ee3e f9ad 653e d502 6a3f b2af 623f
00000240: 535d 0b3e 7348 033f 4663 a83e 3423 143c
00000250: 17bc 363f f25f 4b3f e7ba cf3e 4ae2 533f
00000260: 3b65 8d3e 5f9c f03e 49ca 6bb8 9ac7 533f
00000270: 70aa 013e 0a31 643f 3d5b 0f3f c38b 5c3f
00000280: 77a2 273f d3f9 cf3d 722b cf3e 41b2 253e
00000290: 8d8d 623f e700 533f 10b4 843e 95fc 633f
000002a0: 6a2f 143a d009 a03e 6a47 4d3e 0151 5d3f
000002b0: 586d bf3e e4cf dc3e 4127 733e c990 103f
000002c0: 93dd f23e 485f b13e fcf4 603f 06e9 023c
000002d0: eb78 5f3e 83e8 7a3f 5068 963e c67c b43c
000002e0: 6a7b 123e 9563 383f deb3 023f 6001 2b3f
000002f0: a541 503c c031 ab3e 4982 5aba b39f 4a3e
00000300: 9de2 de3e 9b02 753e 546a 373f ba70 293f
00000310: 849c 773e dfa3 343e 0187 253f 1314 6f3f
00000320: c004 293f 65c9 e93e 959a d63e e7dd 283f
00000330: 2584 4a3c 3e7e ce3b 4acd 613c 7797 303f
00000340: 7c80 373d fa2f 5f3f 78b6 733f 6162 ba3e
00000350: dd19 ef3e 12ef d43e 7d72 4b3f f623 6f3f
00000360: 3d78 4d3f b157 7a3f 536a 613f 9a1a 663d
00000370: 71ac 453f 9f32 563f c64d eb3e 25b1 db3e
00000380: dff1 db3e e1ed 253f d750 05bd 3572 603f
00000390: 9211 7f3b 9b0d c93e eefd a83e d505 f03e
000003a0: e4cf da3e 6122 633e 8a7b 163e f158 963e
000003b0: fb88 4d3f f519 ab3e 18d2 223f d189 2c3e
000003c0: 74b4 d73e fead 5c3f 9dac 3d3d 3d0a 013e
000003d0: 808c 333d 4388 1b3e 1d7b 4c3e a967 e33e
000003e0: 01db c33e 6bbe 763e 2072 c43e 00bf 313f
000003f0: efce 813e 075e 243f b5e6 353f 2cdb 333f
0.23869869 0.8871503 0.8872556 0.14574328 0.8327311 0.8289733 0.37586817 0.51283044
0.045098294 0.6867577 0.15902801 0.4282475 0.04702867 0.4481597 0.5423237 0.98348725
0.042570777 0.5331049 0.11844163 0.20590928 0.7785919 0.45228755 0.71397084 0.91130507
0.047949832 0.3271725 0.3979085 0.6632187 0.19591153 0.0059676557 0.79642016 0.5343085
0.9904242 0.8433191 0.20610102 0.9850453 0.7326071 0.09071325 0.7486304 0.5292643
0.037499975 0.9818969 0.7679415 0.3026654 0.7805803 0.41410682 -0.039571375 0.0032482808
0.7008826 0.16396192 0.7683984 0.31454644 0.9692768 0.73704493 0.38300824 0.011025178
0.24774237 0.015038662 0.19193102 0.21984676 0.4007904 0.81779957 0.94470304 0.75610405
0.0857636 0.6617093 0.51011044 0.6227564 0.20643842 0.28121108 0.2005227 0.8633059
0.88416064 0.27515367 0.22514051 0.057489883 0.029861685 0.71595985 0.4492556 0.9185262
0.61278796 0.27264598 -0.07864406 0.67573625 0.8782132 0.6792429 0.34218845 0.6057233
0.6150679 0.3207703 0.44783038 0.7078802 0.7814616 0.12625802 0.7455431 0.25052926
0.50904197 0.9343616 0.5376779 0.5970941 0.3935659 0.38323897 0.0132276155 0.1752446
0.81870985 0.41213906 0.12288587 0.14935233 0.5072739 0.930968 0.044684634 0.81991315
0.9737371 0.8585854 0.56880635 1.0238593 0.27848887 0.914965 0.0010702348 0.1025501
0.310167 0.311814 0.6103376 0.47576487 0.593566 0.016628312 0.705521 0.7345545
0.9460777 0.62149584 0.81198055 0.66636807 0.079012595 0.49852365 0.2707017 0.9888895
0.48414522 0.178588 0.9570792 0.66834974 0.46545023 0.22429647 0.9141057 0.8854934
0.13609819 0.51282424 0.3288824 0.009041596 0.7138075 0.79443276 0.40572283 0.82767165
0.27616295 0.46994302 -5.621676e-05 0.8272644 0.12662673 0.8913733 0.55998594 0.8615076
0.65482277 0.10155072 0.40462834 0.1618128 0.8849724 0.8242325 0.25918627 0.89057285
0.0005652817 0.31257486 0.20046774 0.8645173 0.3738811 0.43127358 0.23745443 0.56470925
0.47434673 0.34643006 0.87873816 0.007990127 0.2182347 0.98011035 0.2937646 0.022032153
0.14304891 0.7202695 0.51055706 0.66798973 0.012710963 0.33436394 -0.0008335454 0.19787483
0.43532267 0.23926775 0.7164662 0.6618763 0.241808 0.17640637 0.64659125 0.93390006
0.6602287 0.45661464 0.41914812 0.65963596 0.012360607 0.0063016703 0.013781855 0.68981117
0.044800267 0.8718258 0.952003 0.36403182 0.4669942 0.41588646 0.7947157 0.9341425
0.80261594 0.97790056 0.8805286 0.056177713 0.7721625 0.8367099 0.45957774 0.42908588
0.4295797 0.648161 -0.032547798 0.87674266 0.0038920385 0.39268193 0.33006233 0.4687945
0.42736733 0.22181083 0.14695564 0.29364732 0.8028714 0.3341824 0.6360183 0.16849448
0.42129862 0.8620299 0.046307195 0.12601562 0.043835163 0.15188698 0.19968839 0.44415024
0.38253024 0.24096076 0.3836832 0.6943207 0.2535319 0.64205974 0.71055156 0.70256305

metagatr.geometric_attention.output_projection.weights f4 [12, 12, 9]
00000000: f5e7 a53f 5236 073f 306b 6a3f 4c78 e83d
00000010: b9c6 693e e4b3 4c3f f397 3d3f 861a 233f
00000020: a2d6 3e3f f36e 5e3f ea13 813f 437a 773e
00000030: 63e1 253f 60a9 e73e aa54 2a3f 5789 6a3f
00000040: 5ff5 5d3f 32b5 c43e 5153 543f 0352 6a3f
00000050: 26a9 3b3f 0f99 a23e 8b10 253f 58c0 b13e
00000060: 4339 453e 0612 2d3f a48b 233f 05e3 9a3f
00000070: d00d 053f 3c1c 943e 2723 653f c1a4 353d
00000080: 5b8f ea3e 4174 503f 44dd 2c3f 019f fb3d
00000090: 6486 b03f 5163 473f a384 f43c 3e0c 583e
000000a0: fbc5 643e 0cf1 093f 1afc 143f 41c1 2a3f
000000b0: 0284 6a3f a536 983f 312c 413f 3b98 793f
000000c0: 3140 3b3e 4f17 003f f5be 833e e5eb 473f
000000d0: 1687 863e 50dd 0f3f b941 563f 5ad3 803e
000000e0: 000d 3c3d 5a96 713e 33d2 503d 14d8 623f
000000f0: 3c95 be3e 7cf6 ed3e 0239 023f cc0b 203f
00000100: 2e32 6c3d 5d15 f83e 6307 db3d 4f63 dd3e
00000110: 033d 793f 8ca5 1e3f 1b92 723f 600e 653b
00000120: ccb0 793f 5a2e ae3d dfc6 583f ae94 6a3f
00000130: d52c 4a3f c87a 163f de7e 503f c9ce 953e
00000140: d0bf 6b3f 2b6d 2c3f 5b41 153f dd74 6c3f
00000150: daa6 4d3f c9a5 3f3f 6dba d63c db90 763f
00000160: 4012 b23e 0413 dd3d 1348 563f 00ae 153d
00000170: 818e 153f bd6e 103f 3d4d 393f 9a9a 743f
00000180: 4d4d 423f 6dd5 583f 01b5 3e3e aeea 2b3f
00000190: ae6b 593f 28ab ba3e af85 0e3e fe09 7a3c
000001a0: 74ee 513f e5cd 993d 136f 123f 7673 113f
000001b0: b663 7e3f e392 093f 5872 6f3f 929f 0f3e
000001c0: 8cf5 053f 8a95 113f d77d 1e3f 3fef 6d3f
000001d0: 2dff 653f a98a 713f a585 693d e85f 0d3f
000001e0: 0b49 713f c224 b93e 31ee 6e3f 1285 053f
000001f0: a975 bf3d fec0 433f b75b 253f 22eb f73c
00000200: b8c5 353e 5c1a 1d3f 9346 0c3e d90a 3d3e
00000210: 04a8 e03e ebe7 c13e 8960 483c 1439 173f
00000220: bec3 473f d37a 123f 7f0c 383f 6570 273f
00000230: df48 9c3e c51a c83d 4071 5e3f 11c7 013d
00000240: f65b be3f 824c 223f ad91 c33e 2a26 b53d
00000250: 2bc3 d43d 0ba6 ec3d 3a59 363f 250c 183f
00000260: a9a4 1b3e 02dc ad3f 4743 763f 328c 413e
00000270: df0c 683e 605b 513f a39d 583e bc5a 383e
00000280: 2db7 073f 1b86 713f de6f 863f e103 2f3f
00000290: 52e8 743e 0ebf 023f 6270 113e 5b54 ee3e
000002a0: 50e0 073f 7428 bf3d dc83 7d3f cd04 343f
000002b0: 25aa 3e3f 0195 7d3f 3003 443e e3a8 243e
000002c0: 79d0 593f eb9e 813e 69fb eb3e d92b f03e
000002d0: 7cb3 643f 6a6c eb3e f3ed 893e c9ce 433f
000002e0: 2412 c83d b399 fd3e f19e 373e 5a7f aa3e
000002f0: bbbd c13d 5fa1 903f bc26 b33e 2872 183f
00000300: 522d 1d3f ef1d 2a3f f551 0c3f 7455 043e
00000310: bf7c f53d bda2 ae3e 819b a13f 095d e13e
00000320: a6bb 663f 3715 643f 1624 523f b1be 493f
00000330: 4c8a 493f 1c28 773e 3be9 ea3e a446 c03f
00000340: 68d7 d53e b12b 5f3f 0dd2 f13e 8ce6 b33c
00000350: 4d01 173f bc11 573f bee3 113f 582e 7c3e
00000360: 4fb5 9b3f b89e e03e cc73 ef3e 5afa a23e
00000370: 2c40 7b3f b9e4 b63d 6419 753f 2a82 703f
00000380: 0981 783e 7e75 403f 27d3 6f3f 813d 263f
00000390: 6203 123f e67a 693e 3442 683f 0b76 643e
000003a0: e3d3 633e ad06 453e 0505 cf3f f54d 813e
000003b0: a2ab 763e 301b de3e 5533 8c3e 7a52 dc3e
000003c0: c344 0b3f 2a42 7c3f 4f56 683f 242a a43f
000003d0: de7b 783f 7561 873d f544 6d3e 2f4b 9b3e
000003e0: 1c75 7f3f 9846 563e b898 5c3f 2d8d 0f3f
000003f0: ed33 773f d651 d63e efdb 7d3e 6c3f db3d
1.2961413 0.5281726 0.91569805 0.1135107 0.22829713 0.7996199 0.7405998 0.63712347
0.74546254 0.86888045 1.0084202 0.24167733 0.6479704 0.4524641 0.6653544 0.91615814
0.8670253 0.3841949 0.8293963 0.9153139 0.73304975 0.317574 0.6447837 0.3471706
0.19260125 0.67605627 0.6388495 1.2100531 0.519742 0.2892779 0.89506763 0.044346575
0.45812497 0.8142739 0.67525125 0.12286187 1.3791013 0.7788592 0.029848402 0.2109842
0.22341149 0.53883433 0.58197176 0.6670113 0.9160768 1.1891676 0.75458056 0.9749791
0.18286206 0.50035566 0.25731626 0.7809432 0.26274937 0.5619707 0.83694035 0.25161248
0.045910835 0.23592511 0.05098171 0.8861096 0.37223232 0.46477115 0.50868237 0.62518
0.057665043 0.484538 0.10694768 0.4323983 0.9735872 0.61971354 0.9475419 0.0034951195
0.97535396 0.085049346 0.84678453 0.9163312 0.7897466 0.587811 0.81443584 0.29259327
0.9208956 0.6735408 0.5830285 0.9236582 0.8033272 0.74862343 0.026211942 0.9631478
0.3477955 0.107946426 0.83703727 0.036542892 0.5842057 0.56418973 0.7238348 0.95548403
0.758992 0.8470066 0.18623735 0.6715497 0.8492993 0.36458707 0.13918184 0.015261171
0.82004476 0.075099744 0.57200736 0.56816804 0.99370897 0.53739756 0.9353385 0.14025715
0.523278 0.56868804 0.61910766 0.92943186 0.8984249 0.94352204 0.05701222 0.55224466
0.9425208 0.36160856 0.933322 0.52156174 0.09348614 0.7646636 0.6459307 0.030263487
0.17751205 0.61368346 0.13698797 0.1846117 0.43878186 0.37872252 0.012230047 0.5907147
0.78033054 0.57218665 0.7189407 0.65405875 0.30524346 0.09770731 0.86891556 0.031683985
1.4871814 0.6339799 0.3819708 0.0884517 0.10388788 0.11555108 0.712299 0.5939353
0.15199532 1.3582766 0.9619641 0.18901137 0.2266116 0.8178005 0.21153884 0.18003362
0.5301388 0.94345254 1.0502889 0.68365294 0.23916748 0.51072776 0.14203027 0.46548733
0.5307665 0.09333888 0.99029326 0.70319825 0.7447837 0.99055487 0.19141841 0.1608005
0.8508373 0.25316557 0.46090248 0.46908453 0.8933637 0.4598115 0.26939353 0.76487404
0.09769085 0.49531326 0.17931725 0.33300287 0.09460016 1.1299247 0.3499049 0.5954919
0.6139728 0.66451925 0.54812557 0.12923223 0.11986684 0.34108534 1.2625581 0.44016293
0.9013008 0.8909487 0.8208631 0.78806597 0.7872665 0.24136394 0.45881066 1.5021558
0.41765904 0.8717604 0.4723057 0.02196052 0.5898636 0.84011436 0.5698813 0.24627054
1.2164706 0.43871093 0.46768034 0.31831628 0.98144794 0.08930344 0.9574187 0.93948615
0.24267973 0.7517928 0.9368157 0.649376 0.5703641 0.22800788 0.9072602 0.22310655
0.22248797 0.19240828 1.6173407 0.2525479 0.2408891 0.43380117 0.27382913 0.43031675
0.544018 0.9853846 0.90756696 1.282536 0.97064006 0.06610385 0.23170836 0.30330798
0.9978807 0.20925367 0.8617053 0.5607479 0.9656361 0.4185931 0.2479093 0.10705456

metagatr.geometric_bilinear.geom_linear_1.weights f4 [6, 12, 9]
00000000: 92c8 ef3e c36f dd3e 5c5c aebc cc3e 603d
00000010: c2dc 013f 0bfd a63e a831 f93e 63b3 713f
00000020: 466a ce3e b9ec 263e 1a6d 823f 6014 bb3d
00000030: f0e7 b13e 6d35 ee3e b13e d13e 4cef 5e3f
00000040: a6f7 2d3e 768a 673e a79f 473e 7d06 8b3e
00000050: 400a 0c3e 0f95 933e 4896 183f 038c 7c3f
00000060: 251e 3d3f e986 f83e c0ca 4d3f 9a72 923d
00000070: 1d56 2d3f 15fd 743f 4ce5 773e 8145 5a3e
00000080: a0b5 443f 531f 363f 4e25 d23d bbcc 643f
00000090: e2d3 103f 4d60 3e3f a716 21bc 97a1 f73c
000000a0: 1e28 a43e fce7 143f c1f9 473e ad4e 3a3f
000000b0: db61 dd3e 417b ee3e 8fca 083d aa21 2e3f
000000c0: fcea 723f 6a73 773e 86ef 793f bce4 4b3d
000000d0: 54e4 f13e 2fa7 d03c 9924 473f e9ee 813f
000000e0: 873f 143f 46a4 493f 6a3f 313f a26b 143d
000000f0: cd82 f83e 6740 d13e c60d 223f 61c5 1c3e
00000100: 1822 b83e f0e9 f73d b60b 063f 5181 233f
00000110: 760e 2b3f a86e 133e 68e2 4b3e 3f5c c93e
00000120: b3a2 673f 8cc1 573f aafd c93e 6b15 79bb
00000130: b161 6a3f 6898 d23e 6d8f e03e ba28 083e
00000140: 0c4e 853e 99b5 713f cd5b 963e cb8a 0c3e
00000150: 9296 723e f91c 663f 8f0c 2e3f 0c94 273e
00000160: 705f 393f 7933 343f 00d1 e03e ac51 1d3f
00000170: aab7 b13d d366 073f 632e 703e 00a9 383f
00000180: 1527 b23e 7541 043f b801 d53e f70c 053e
00000190: 22ec 023f d011 2f3e c0fc 443f 5c75 503f
000001a0: 5908 543d 1834 423e 6d5c 803d 54ce 413e
000001b0: a878 933e 1368 5f3f 5584 5e3f 90f5 513f
000001c0: 8efb 753f ee6a 9d3e 1696 533f a89a 163f
000001d0: f97b 763f a8e3 033f 438b ac3d 8a91 7b3f
000001e0: 7bb6 623f 1a7f 8f3e 2e89 3d3f a1e6 6e3f
000001f0: 0464 183e b047 073f 2e95 f93e bf1b eb3e
00000200: d5e3 1d3f 9a45 723e 2518 313e 0554 713f
00000210: ac55 033f fcb4 013f 1cca 0b3f 3635 393f
00000220: 334d 083e e99e b03d a034 423e 3457 523f
00000230: 5c8f ef3e bdca 8c3e 528b 313f a1a3 133f
00000240: b2bc 0a3f c202 b43e 6d34 243f 0bd4 0b3f
00000250: c5ac 703f 6654 3b3f 4d19 703f f595 423f
00000260: a1bc ff3c 49e8 243f 47ef 333f c510 033f
00000270: f8d2 5d3f d0af 0c3f 7e90 313f 0ec3 f83e
00000280: 29ac 493f 7723 f13e 9818 683e 50a5 2e3f
00000290: 3e2b e43b ac7e 313f 4b78 5f3f 40d7 e53e
000002a0: 1307 013e d147 783f 7346 313f b6fc f83c
000002b0: 3b14 bb3c 5fba 5c3e 91b2 493f ebd9 963e
000002c0: 55d9 9a3e eee5 2b3f 1e0a 163f f0f1 8c3e
000002d0: 6168 5d3f d588 e03e 44b3 bd3e bff1 173f
000002e0: 956b 7f3f 3add 0b3f 1ffc bf3e 4c9c 8c3e
000002f0: 7efe ca3e 2b74 1b3d 2d6e 3b3e df89 3d3d
00000300: 8cd0 3f3f af5f 903e 92c3 303f 125f 173f
00000310: e063 473f 828c 923b e72c 013f e293 f53e
00000320: b545 c83e 260b 443e b702 073f 79ff d53e
00000330: 7528 7f3f df11 0e3e 07b2 553f 1f18 633e
00000340: d02b d33d 60a1 4f3e 603f b43e 4739 0a3e
00000350: 270e cf3d 54cc 5d3f ed80 bf3e e0c7 ca3e
00000360: 6b6b 473e 054a bc3e d447 9d3e 76e5 403f
00000370: 5ca6 123f eb7f 593f 96b3 ec3e 20b8 213f
00000380: 7407 ae3d f880 433f 671d 6f3f 60b5 363d
00000390: 3072 9b3e 07fc 5c3f 8584 123f 61a7 1f3f
000003a0: 1ed6 563f f22c 243f 5387 9f3e 00fe 2e3f
000003b0: e4b9 28bd 46fb dc3e e9a5 ec3e dd2d 7a3f
000003c0: 21a1 983e cd90 693f 28d7 1b3f 5ab0 3e3f
000003d0: caef 8d3e 8cfd 1b3f 331e 783e ce2d 0a3f
000003e0: 8d17 713e 320a 143f 3797 793f 4f6a a43d
000003f0: 3f3a e43e 50db ce3e 5844 383f 3d71 433e
0.4683271 0.4324933 -0.021284275 0.054747388 0.50727475 0.3261493 0.48670697 0.9441435
0.40315455 0.1630124 1.0189545 0.091347456 0.34747267 0.46525136 0.40868142 0.8708389
0.16989002 0.22611412 0.19494496 0.27153388 0.13675785 0.2882466 0.5960431 0.9865114
0.7387412 0.48540428 0.80387497 0.07150765 0.67709523 0.9569867 0.24208564 0.21315576
0.7683964 0.71141547 0.102610216 0.89374894 0.5657331 0.74365693 -0.009832061 0.03022842
0.32061857 0.5816648 0.19528867 0.727763 0.4323872 0.4657841 0.0333963 0.6802012
0.9488981 0.2416512 0.9763111 0.049778685 0.47244513 0.025470344 0.7779022 1.0151035
0.57909435 0.78766286 0.6923739 0.03623546 0.48537293 0.40869448 0.63302267 0.15309669
0.3596351 0.12105167 0.5236162 0.63869196 0.6681894 0.14397681 0.19910586 0.3932819
0.90482634 0.84279704 0.39451343 -0.003800715 0.91555315 0.41131902 0.43859425 0.13296786
0.26036108 0.9441772 0.29366913 0.1372482 0.2369025 0.8988796 0.6798791 0.16365069
0.7241125 0.7039104 0.43909454 0.61452746 0.08677609 0.5289127 0.23455195 0.72132874
0.34795442 0.5166238 0.41602874 0.12993227 0.5114156 0.17096639 0.76948166 0.81429076
0.051765773 0.18965185 0.06267629 0.18926364 0.2880299 0.8726818 0.8692067 0.82015324
0.96086967 0.30745643 0.8265089 0.58829737 0.9628292 0.5151925 0.084249996 0.9826895
0.88559693 0.28026658 0.74037445 0.9332066 0.14881903 0.5284376 0.48746628 0.45919606
0.6167577 0.23659363 0.17294367 0.9426883 0.513026 0.50666785 0.5460527 0.7234682
0.13310699 0.0862406 0.18965387 0.8216431 0.46789062 0.27498427 0.6935321 0.5767155
0.54194176 0.35158354 0.64142495 0.54620427 0.94013625 0.73175657 0.93788606 0.76010066
0.031217875 0.6441694 0.70286983 0.51197463 0.8665004 0.5495577 0.693611 0.48586315
0.7877832 0.4709737 0.22665632 0.68220997 0.0069631627 0.6933391 0.8729293 0.44890785
0.12600355 0.96984583 0.6924812 0.03039394 0.022836795 0.2155547 0.78788096 0.29463133
0.30243936 0.6714772 0.5860919 0.27528334 0.86487395 0.43854395 0.3705083 0.5935325
0.9977353 0.5463444 0.3749704 0.27462995 0.39647287 0.037952583 0.18303747 0.046274062
0.7492759 0.28198 0.69048417 0.5912944 0.7788677 0.0044723162 0.5045914 0.47964388
0.39115682 0.19144878 0.5273852 0.41796473 0.9967111 0.13874005 0.83474773 0.2217717
0.10311091 0.20276403 0.352046 0.13498412 0.10110121 0.86639905 0.3740305 0.39605618
0.1947457 0.36775222 0.30718863 0.7535013 0.57285094 0.8496081 0.46230763 0.6317158
0.08497515 0.76368666 0.9340424 0.044606566 0.30360556 0.86322063 0.5723346 0.62364775
0.83920467 0.6413108 0.31157932 0.68356323 -0.041192904 0.43160456 0.4622033 0.9772623
0.29810432 0.91236573 0.6087518 0.7448784 0.27722007 0.60933757 0.2423027 0.5397614
0.2354414 0.57828057 0.9749636 0.08028089 0.44575688 0.40401697 0.71979284 0.19086166

metagatr.geometric_bilinear.geom_linear_2.weights f4 [6, 12, 9]
00000000: 5a17 793f 88ab 813f f2a4 7d3f 4a36 4c3f
00000010: fec0 013e 18d6 a73e c131 d03d bc8c f13e
00000020: 2b23 7d3f e354 f83e 633b c13c 2ffc 183f
00000030: 5ae8 473f b744 7b3f 4108 0d3f 2259 6d3f
00000040: 9a96 0a3f dd09 223f f087 3f3e c686 6d3f
00000050: 4070 bb3e a00c 593f c929 5b3e c0e9 a83e
00000060: 86b2 723f 5389 5c3e 5945 9a3e d2fa 443f
00000070: 5434 033f c0c5 e33e 4aa4 4b3f c6ff ed3c
00000080: 2e38 6d3f 0777 f03e c83c 363f 3ae2 fd3e
00000090: f5ff 743d b3a1 0f3e fc5e 743f c90b b13d
000000a0: ad57 643f 1e63 e53e 914a 963c c8c1 073f
000000b0: ba65 ed3e b37c e73d 62c2 c9bb 3bd8 313f
000000c0: 346a df3e 904c 073f 3b37 1e3f c90a 123f
000000d0: a2a2 1f3f 1feb 353e a1bc 1d3f 3702 4d3e
000000e0: 26fe 123f d4d5 063f 6564 0b3f e14c 203f
000000f0: 840f 563f 4941 173f 8369 343f f76d d13e
00000100: 598d 2e3f edc3 973e 1e02 0c3c 5b47 143f
00000110: 2c14 ac3e c28c 163d 7184 5c3f b428 183e
00000120: 3490 813e 2644 fd3e 356f 0d3e 0846 603f
00000130: bd94 b03e 0c5d 9c3e 0383 5f3f 42b0 213f
00000140: ba2e 953e 4dc0 bc3e 57f2 3d3f 9463 003f
00000150: 3a1c 2b3f 0d95 5f3f f2b2 063f 6d7e a33e
00000160: 90b3 f73e 5a9d 743f a488 193f cbb7 5b3f
00000170: 4fa5 9f3e 6407 6b3f 6cdd 093e 2919 683f
00000180: d9ef 6e3f a857 6c3f 78fc 163f 8a66 5b3f
00000190: e91d 013f aa59 413f 34e6 233f a44e 5c3f
000001a0: e7b1 363f a8b6 d23d 7a2d 013d 88de c73e
000001b0: dad3 d13c dd8b 7f3f 6614 373f 58a3 b23e
000001c0: d848 473f 9dc0 563e 2176 c33e a908 dc3e
000001d0: b08f 643f 704f 283f 55db 103e d391 113f
000001e0: 2938 643f d58a f03e d8c0 073f 3357 d13e
000001f0: b4b7 093f df67 473f b340 4b3f 7a51 ea3e
00000200: 63a8 333e 91c8 c33c 5f54 403f 3af0 093f
00000210: ebb7 683e 9276 783f 1453 743f 8e3f 483e
00000220: fdf0 393f c28c d03e 5e23 593d 429c 6f3e
00000230: be83 a23e 930b 7a3e 1048 f53e f1ae 0b3f
00000240: 547f 6d3f b652 6c3f c777 1b3f 4eb3 003f
00000250: c073 d13e f2a0 123f 601d 543f 2180 2a3f
00000260: 843c 373f 834e 6f3f f034 353f 6ee1 a03e
00000270: ecc3 713f d43c 463f 77b1 1a3f 7108 093f
00000280: df2b 483f e26e d03e fabc 6e3f b347 813d
00000290: 4dbb 433f 7d1b 8d3e 9718 1f3f cc0c 123f
000002a0: 7d48 e73c 0d37 6a3f b8b3 2b3e 7078 e93e
000002b0: 7d3b b73e 4c91 873e bccf ab3c f482 eb3e
000002c0: 7617 703f faad d13e cab2 0b3f c731 d33e
000002d0: becf 7b3f b111 5c3f 41aa 803e f0d9 833e
000002e0: 9047 853e 2d4c 573d 7344 133f 5525 da3e
000002f0: 9cff ee3e 47e9 2e3e e668 963e a5a7 f33e
00000300: d5b7 dc3d a3b2 643f 02bd 7d3e 926c 4a3f
00000310: a042 3a3f 0dee 0e3e 11cd 433f 8214 3a3f
00000320: 8496 483f e88e 503e 109a 033f a175 183e
00000330: 483f 873e 31c9 1e3d 4c98 173f 1ed3 5b3f
00000340: 9111 233e f6dd b2bb c00d 7b3f 39b3 803e
00000350: ba71 3f3e e722 313f 9443 843e c744 043f
00000360: 9adf d23d c607 893d 6637 ac3e 0a6a ff3e
00000370: 7ec4 7f3f 8a8b 513f a857 7abb b1c3 a23d
00000380: 1b73 703f 6123 5b3f 13ef 9b3e 5c51 ef3d
00000390: d223 123f b6dd 6d3f c778 343f 1680 273f
000003a0: 81a0 dd3e 2406 153f b384 5b3f 42e2 73bd
000003b0: 9ec1 563f 8ce9 133f 9ba2 613e ac8d 353f
000003c0: 9cf8 483f 011d 3d3f 618f 6e3f ca2c 6a3f
000003d0: 80f7 7d3e aab1 7b3f 8e43 b53e 7aa5 3a3f
000003e0: 4095 823e 41b6 a33e ab4b 3e3f 3f2b 8c3e
000003f0: 1842 b03e 73f2 f93e 060f 853f 80a8 313e
0.97301257 1.0130472 0.9907981 0.7977034 0.12671277 0.32780528 0.1016574 0.47177684
0.9888179 0.48502263 0.023587888 0.597598 0.78088915 0.98151726 0.5509072 0.9271413
0.5413605 0.632963 0.187042 0.9278377 0.36609077 0.8478489 0.21402659 0.32990837
0.94803655 0.2153676 0.30131033 0.7694522 0.5125172 0.4448681 0.7954756 0.029052626
0.9266385 0.4696581 0.71186495 0.4958666 0.059814412 0.14026527 0.95457435 0.08644826
0.8919628 0.44802183 0.018346103 0.5303006 0.46366674 0.11303081 -0.0061572054 0.69470567
0.43635714 0.528512 0.61803025 0.57047707 0.6235753 0.17765473 0.6161595 0.20020376
0.5741905 0.52670026 0.54450065 0.6261731 0.83617425 0.5908399 0.704735 0.4090421
0.6818443 0.29641667 0.008545427 0.5792138 0.3360914 0.03675533 0.8613959 0.14859277
0.2530533 0.49466056 0.13811953 0.8760686 0.34488478 0.3053974 0.87309283 0.63159573
0.29137212 0.36865464 0.74197906 0.50151944 0.66839945 0.8733681 0.526168 0.31932393
0.48379183 0.955526 0.5997412 0.8582732 0.31180808 0.9180815 0.13463372 0.9066339
0.9333473 0.9232125 0.58978987 0.8570334 0.50436264 0.7552744 0.6402314 0.86057496
0.7136521 0.10288745 0.03153751 0.39036965 0.025613714 0.9982279 0.715155 0.34890246
0.77845526 0.20971914 0.38176063 0.42975357 0.8928175 0.6574621 0.14146169 0.56863135
0.89148194 0.4698092 0.5302863 0.4088684 0.53795934 0.7789287 0.793956 0.45765287
0.17544703 0.023899348 0.7512874 0.5388218 0.22726409 0.97055924 0.9543927 0.19555494
0.72633344 0.4073239 0.053012244 0.23399451 0.31741136 0.24418478 0.47906542 0.54563814
0.9277241 0.92313707 0.6072964 0.502736 0.40908623 0.57276833 0.8285732 0.6660176
0.71576715 0.93479174 0.707839 0.3142199 0.9443958 0.77436566 0.6042704 0.53528506
0.7819194 0.40709597 0.93257105 0.06312504 0.76457673 0.27560034 0.62146896 0.57050776
0.028232807 0.9149025 0.16767776 0.455997 0.35787573 0.2647804 0.020973079 0.45998347
0.937858 0.40953046 0.54569685 0.41248915 0.98363864 0.85964495 0.25129893 0.2575221
0.2603116 0.05256288 0.5752632 0.42606607 0.4667939 0.17081176 0.29376906 0.4758884
0.10777251 0.8933508 0.24779132 0.79071915 0.7275791 0.13957997 0.7648478 0.7268754
0.7835467 0.20367014 0.51406956 0.14888622 0.26415467 0.03876609 0.5921676 0.85869014
0.1592467 -0.0054585887 0.98067856 0.25136736 0.18695727 0.6919388 0.25832808 0.51667446
0.10296555 0.06690936 0.33636016 0.4988559 0.999092 0.81853545 -0.003819922 0.079474814
0.93925637 0.8560086 0.30455837 0.1168544 0.5708591 0.9291643 0.7049679 0.6542982
0.43286517 0.58212495 0.8574936 -0.05954195 0.83889186 0.5777824 0.22034685 0.709193
0.7850435 0.7387238 0.9318753 0.9147459 0.24801445 0.9831797 0.35403103 0.7290875
0.25504494 0.31974986 0.7433421 0.27376744 0.34425426 0.48817787 1.039521 0.17349434

metagatr.geometric_bilinear.join_linear_1.weights f4 [6, 12, 9]
00000000: bb0a 4b3f d0cd a83d 8c4a af3e 0537 623f
00000010: aef4 153f a01d 113d 1119 083f a665 ea3e
00000020: 3f8f 0e3f ad85 103f 42a9 ab3e 3483 e23e
00000030: 2e53 f83e c6c9 413f 26c1 fc3e fab2 323f
00000040: 3138 883e eb87 4c3f 4d9e 0d3f d62d 823e
00000050: 254f 313c e84f 413f 09e0 743f 20f2 7c3e
00000060: 60eb 6d3e d98f 6e3f fef5 253f cd4e 043f
00000070: c8de bc3e c897 8e3d 277c 2c3e 1727 353f
00000080: 7ca8 0f3f 18a8 253f e032 9c3e dcfa 933e
00000090: 16e9 013f 38f2 2c3f 6898 fe3d 9990 b03e
000000a0: d012 753f c21f 823e b0ed 063e 3eed 2f3f
000000b0: 9dab 6a3f 8682 203f 2e34 083f da6f 5d3f
000000c0: b7d6 013f e5c3 6c3f 3e38 643e 3a94 883e
000000d0: d425 323f e41d 283e a12a 293e a1ef f53d
000000e0: 42f9 9f3e e101 703f 21b4 cd3e 1892 683f
000000f0: ab35 ac3e 14da 2a3e 8421 a93e 4d81 683f
00000100: 4721 943e 7939 983e 949f eb3b c376 dd3e
00000110: c0ce de3e f7ea c23e 76cf 503f c4de 3a3d
00000120: 40fe e23d f40b 133f 9f2f ed3e 7c0d 1f3f
00000130: a62d da3e 88a8 5b3f 1755 793f 1d24 9d3e
00000140: 3c4d d93d aee4 3a3f 7e4d 0b3f 3248 603f
00000150: 7791 503f c22a 313e 8b60 3e3c 61d0 f43c
00000160: c268 0c3f a7fd 963e 5972 e23e 7122 3d3d
00000170: 7d95 3d3f b02e 343f 4f5e 183e e5ef 293f
00000180: 5596 533f c643 ce3e 2c41 413f 108e 143f
00000190: 5059 253f c483 163e 161b 023f c036 393f
000001a0: e4c0 773f c64f 0d3b 08a0 0a3e 94d4 033f
000001b0: fc6c ec3e a255 1b3f 136c f83d 2f2d 2a3d
000001c0: 791a 603f f2b5 9c3e 349e f53e 1b3f 493f
000001d0: 2de0 4a3f faf8 ac3d 258b 033f 78b2 6a3f
000001e0: cb9d 223d 498c 6c3c e965 d13e 35b1 353e
000001f0: eb76 4e3e 2b61 763f c01b 8c37 418b b33b
00000200: dc16 c73e 4ae0 4b3f d100 353e 92e0 963d
00000210: f9e9 b13a 8145 003f d477 053f 679a 173f
00000220: d164 673e 7b14 f63d 78a8 2a3f 72e3 683f
00000230: a92b 7b3f 6a36 263e f2bc 433f 610f f23c
00000240: b9ce 623e 93ac 6d3e 0fd2 cb3e 7a0f 133e
00000250: cc13 743f b30c 7d3f c7b6 a93d 555b 133f
00000260: 69b9 1d3f 7c0b 493f c7bb 803e bc85 573f
00000270: c26b d73e 6c53 ab3d a09e 393b dee4 f63e
00000280: 4939 5a3f 6607 5d3f d312 463e f794 423f
00000290: 3f48 693e cc0d dd3e 48cb 093d a4c6 013f
000002a0: 33e8 653f 0b7e 723f 13f9 413f d8fd ed3e
000002b0: 247d c53e 7774 e13e 5c47 773f 7386 1c3e
000002c0: 0557 bd3e 8281 8a3e 7022 313f 8150 aa3e
000002d0: a643 6c3f 35da 873e ea8e 163f c11a 003e
000002e0: 1f3e 0d3f ea66 003f ee4d 4e3f 1ea9 283f
000002f0: cf2a b43d 3067 e83e 40ca 203e 2c54 f03d
00000300: 3247 2a3e 55b3 003f f7d8 293e 9031 a13e
00000310: f173 303f df35 303f 844f e43b 1186 7f3f
00000320: 2f01 d73c 3ff6 ef3e 46ed f23e a18e 053f
00000330: 0e3d b13d fa13 533f 8608 353f 3b64 033f
00000340: 98e4 753f 4b2a 053f 115c 043f 833e 533e
00000350: 9cb0 853e 526d 4a3f 870d 363f 48c2 4a3f
00000360: 0968 763f aad8 3b3f c5ed 013f b589 0e3f
00000370: fb61 383f d79a 493f 33bd 4f3d d029 323f
00000380: 0c8c 503d b67d 6c3e d391 013f 9b0b 523f
00000390: a4b9 033f 91d5 df3e fabd 6d3e 1f5e ba3d
000003a0: 296e dc3c 7263 c63e 8e3f 433f ad82 1a3f
000003b0: a04d 9b3e 47d7 283f 6ead 0c3f 3a3a 653f
000003c0: 25bd bb3d 003c 6d3f 9cf7 093e 82c5 313d
000003d0: 62bb d13e 3b40 843e 8925 f93d 20ca 1b3f
000003e0: 3fa2 d43e 05fc b73d eff6 283f 771f 1e3f
000003f0: 31e2 033e 98be 5e3f afb2 6b3f 4061 743e
0.7931325 0.082423806 0.34236562 0.88365203 0.58576477 0.035428643 0.5316325 0.45780677
0.55687326 0.56453973 0.3352757 0.44240725 0.4850096 0.75698507 0.4936611 0.69804347
0.2660537 0.79894894 0.5531967 0.25425595 0.010822092 0.7551255 0.9565435 0.24701738
0.2323432 0.93188244 0.6482848 0.5168274 0.3688872 0.06962544 0.16844235 0.7076277
0.5611646 0.64709616 0.30507565 0.28902328 0.50746286 0.67557096 0.12431413 0.3448532
0.9573183 0.25414854 0.13176608 0.6872138 0.9166811 0.6269916 0.5320462 0.86498797
0.50718254 0.9248641 0.2228708 0.26675588 0.6958897 0.16417652 0.16520168 0.12008596
0.31244856 0.93752867 0.4017649 0.9084792 0.33634695 0.16684753 0.33033383 0.908223
0.2893164 0.29731348 0.007190654 0.4325467 0.43517113 0.3806989 0.8156656 0.045622602
0.110836506 0.57440114 0.46325395 0.6212995 0.42612952 0.85804033 0.9739546 0.30691615
0.106104344 0.7300519 0.5441512 0.8761016 0.8147196 0.17301467 0.011619697 0.029884519
0.5484735 0.29490396 0.44227865 0.046175424 0.74056226 0.7038374 0.14879726 0.66381675
0.82651263 0.40286082 0.7549007 0.5802927 0.64589405 0.14698702 0.5082258 0.72349167
0.967787 0.0021562441 0.1353761 0.51496243 0.46176898 0.6067754 0.121299885 0.041546997
0.87540394 0.30607563 0.47972262 0.78611916 0.79248315 0.08445926 0.5138419 0.9167857
0.039701264 0.014437743 0.40898064 0.1774338 0.20162551 0.96242017 1.6702223e-05 0.005479247
0.38884628 0.7963911 0.17676093 0.07367052 0.0013573758 0.50106055 0.5213597 0.59219974
0.22597052 0.12015625 0.6666331 0.90972054 0.98113495 0.16231695 0.7646018 0.029548349
0.22149171 0.23210363 0.398087 0.14361373 0.9534271 0.988475 0.08286815 0.57561237
0.6161104 0.7853315 0.25143263 0.8418844 0.420744 0.08365521 0.0028323308 0.48221487
0.8524366 0.86339414 0.19343118 0.7600855 0.22781466 0.4317459 0.03364113 0.50693727
0.8980743 0.94723576 0.7577068 0.4648273 0.38572037 0.44034168 0.9659326 0.15285663
0.36980453 0.27051932 0.6919317 0.33264545 0.92290723 0.26533666 0.5881182 0.12510206
0.55172914 0.50157034 0.8058766 0.6588305 0.087972276 0.45391226 0.15702152 0.117348045
0.16628721 0.5027364 0.16586672 0.31483126 0.6892691 0.688322 0.006967487 0.99813944
0.026245682 0.46867558 0.4744665 0.5217076 0.086542234 0.82452357 0.7071613 0.51324815
0.9605193 0.5201766 0.5170298 0.20629315 0.26111305 0.7907306 0.7111439 0.792027
0.96252495 0.7337748 0.5075343 0.55678874 0.72024506 0.7875189 0.050717544 0.6959505
0.05091481 0.2309483 0.50613135 0.8204896 0.5145514 0.43717626 0.23217002 0.090999834
0.026907997 0.38747746 0.7626885 0.60355645 0.3033266 0.6595349 0.5495213 0.8954197
0.09166936 0.9266968 0.13473362 0.04340125 0.40963274 0.25830254 0.121653624 0.60855293
0.41530034 0.08983616 0.6600179 0.6176676 0.12879254 0.87009573 0.92069525 0.23865223

metagatr.geometric_bilinear.join_linear_2.weights f4 [6, 12, 9]
00000000: eee0 733f 91af 253f 5c99 923e 25c2 ee3e
00000010: 1918 dd3d 464a 353f 36e3 403d 6109 4e3f
00000020: 686d 303f 2ff1 6f3f 51e6 373f 5121 cd3d
00000030: 7a9a 573f 6ebd d73e 96d9 c63e 4559 2e3f
00000040: a916 9e3e ee6c cb3e a5e9 043f 41fb 173f
00000050: d706 fa3b 90bf 2b3f 4814 313f 8b09 da3e
00000060: 3a4d 163f 4bef ac3e 880e 7b3f ee2d 513f
00000070: 2b8c 2b3f 38a8 653f 198d 463f 9cd8 283b
00000080: d134 913e c361 6e3f 59f2 5f3f 6732 c33e
00000090: c2b1 323f 1d72 423e 2138 dd3e f118 0e3f
000000a0: 5458 593f 72c5 b73b 3ab3 673e 201c 743f
000000b0: 7829 a13d e3a4 4c3f 6fba e13d 12e6 173f
000000c0: 7307 743d 9ead 323f afd3 6c3f c2c0 553f
000000d0: b61a 683f 3403 3a3f a5f3 063e 477c 223e
000000e0: a200 c33e 0b89 4f3f 0146 9e3e 916b eb3e
000000f0: ed8f c13d d903 ec3e 0c2b 9f3e b51d 7a3f
00000100: cfcd 2a3f b3e7 553e 8773 e23e d5a6 6d3e
00000110: bd6f 1b3f 5f84 143f 611a 823e 54d1 743f
00000120: 1181 083f ea60 7b3c a5eb 343f 97c6 ee3e
00000130: 8a3c 8e3e 5305 523f 039a 153f 9a39 833e
00000140: 9f68 a73e 9205 5c3f e9b4 a03e dccd 4a3f
00000150: a22c 723f 1b6e 153e 1edb 623f 7fd1 bd3e
00000160: 5a25 1c3f a19a f93e 6adf 563f ebe4 203f
00000170: 5646 f63e 5ef6 043f affc 3b3f 480a 903e
00000180: d438 493d 5325 e53e 9565 a13e 8a1a 0d3f
00000190: 6a07 513f e8f1 1b3e 4044 483f 5723 d13e
000001a0: 7a3b 823e 0849 193f e9bb 623f e034 683f
000001b0: b03e cc3e 3e39 ad3e d1ef 563e b4f8 1c3f
000001c0: 1c84 703f 2e7e 073f 27cd 553f 0e95 d13e
000001d0: 4f23 4f3f 0ade 123f d4fa 703f 32a5 6a3f
000001e0: 4fe5 613f 9fa6 1e3f 8290 763f 7f49 0a3f
000001f0: 521c 2d3f 8618 9b3d 0cfb 713f 6e74 363f
00000200: 60fb 493f 3011 823e a55f 7d3f 167d d63e
00000210: ba49 f13e 0870 bb3e 121e 4a3f 366e f93e
00000220: 6cf8 5e3f 910f 0f3f 6aa6 4b3f 77f1 c53e
00000230: dbcd 4f3f 5d26 253e c508 223f 6f76 5f3f
00000240: 9549 873e 2730 533f 2029 433e 254d 5f3e
00000250: ccce c53d ea8d 3c3f 6e6c 583f acbc 763e
00000260: f19b 233f 0399 6e3f 0b83 623f d938 833e
00000270: 8a05 9d3e 9175 113e 8e92 433e 4bf1 253f
00000280: e9a5 6d3f 0153 153f 9a25 3e3f 4e38 6f3f
00000290: 93e2 913e fdab 7a3d 92be 7f3f f68a c03d
000002a0: 21b1 0d3f 210a 8d3e 2128 283f a314 0b3f
000002b0: ca0e 143f 5081 be3e c892 633f 8785 c33e
000002c0: e7d2 413e 0dfc ab3e a346 d53c e994 8b3e
000002d0: fbf7 203f 0524 503f 81de 793e eedc f23e
000002e0: 1690 5d3e 0fea 6b3f dfa1 443d c1a4 633d
000002f0: ada7 793f 3494 0d3f 0e65 cd3e c97b 423e
00000300: 4e8d 783f c7e6 2b3e 5632 1e3d 7058 223f
00000310: 78d4 143f 6cda 3d3f 478f 4c3f 8e80 823e
00000320: 5997 6d3f b5d4 063f 27ef 483f 625a ae3c
00000330: 05f9 9a3e 7e1e 273f 6b01 773f 98da e73e
00000340: 6c1d 6d3f 1d00 1c3f 4aae 5b3f f828 123e
00000350: 8f06 993d 357f 663f e933 683f 5e40 533e
00000360: d972 ac3c 0f3f d23e 8e9a ab3e 6ca0 233f
00000370: baa4 d33e c24e 753f a2f5 bb3d 2f74 6b3f
00000380: 1154 273f c0fc 203d 378a 2d3f 875f 503f
00000390: 6e46 473f 4c7e 143f 2ec2 7b3f 4c38 a33d
000003a0: 628e 2f3f 1fa3 283c d7fd 5a3f 7409 503e
000003b0: 3932 043f 000a 343e 706b 263f 7419 ce3e
000003c0: fda3 a33e f077 b63e dcf1 c43e f577 123f
000003d0: 339d 273f d611 053f b7a8 3a3f b6cf 693f
000003e0: e122 733f 70e3 3b3d 9c26 4b3f d863 b73e
000003f0: 8a19 093f 1001 773e 2b39 a13d c646 c03e
0.9526509 0.6472102 0.2863263 0.46632496 0.10795612 0.7081646 0.047091685 0.8048306
0.6891694 0.9372739 0.7183581 0.1001612 0.8422009 0.4213671 0.3883788 0.68104964
0.30876663 0.39731544 0.51919013 0.5936776 0.00763021 0.67089176 0.6917157 0.42585406
0.5871159 0.33776316 0.9806905 0.8171071 0.67010754 0.89709806 0.7755905 0.0025763875
0.28360608 0.9311792 0.8747917 0.3812439 0.69802487 0.18988843 0.43206885 0.5550681
0.84900403 0.005608254 0.22626963 0.95355415 0.07869238 0.799391 0.110218875 0.59335434
0.059577417 0.6979617 0.92510504 0.8349725 0.9066576 0.7266114 0.1317888 0.1586772
0.3808642 0.81068486 0.30912784 0.45980504 0.0945128 0.46096686 0.3108753 0.9770158
0.6672029 0.20889167 0.44228765 0.23208173 0.60717374 0.5801448 0.2541075 0.9563191
0.5332194 0.01534293 0.70672065 0.46635887 0.27780563 0.82039374 0.5843813 0.25629884
0.32697007 0.85946 0.31388023 0.79220366 0.94599354 0.14592783 0.88615596 0.37073895
0.60994494 0.48750785 0.8393465 0.628493 0.48100537 0.51938426 0.7343244 0.28132844
0.04912646 0.4475504 0.31522813 0.5511862 0.8165194 0.15228999 0.7822914 0.40847275
0.25436002 0.5987706 0.8856798 0.9070568 0.39891577 0.33832735 0.2098992 0.6131699
0.9395158 0.5292691 0.8351616 0.40934032 0.8091325 0.57370055 0.94132733 0.9165832
0.8824052 0.61972994 0.9631425 0.54018396 0.6762134 0.07573037 0.9452369 0.7127141
0.7889919 0.25403738 0.98974067 0.41892308 0.4712656 0.3660891 0.78952134 0.48716897
0.8709781 0.5588313 0.795508 0.38660786 0.81173486 0.16127916 0.6329463 0.8729009
0.26423326 0.8249535 0.19058657 0.21806772 0.09658584 0.73654044 0.8454045 0.2409541
0.6390982 0.9320223 0.88481206 0.2562931 0.30668288 0.14205004 0.19098875 0.6482131
0.92831284 0.5832978 0.74276125 0.9344529 0.28493175 0.061199177 0.9990016 0.09401505
0.553484 0.2754679 0.6568623 0.54328364 0.57835066 0.37208033 0.88895845 0.3818781
0.18928109 0.33590737 0.026034659 0.27262047 0.6287839 0.8130496 0.24401285 0.4743418
0.21636996 0.9215402 0.048005935 0.055577043 0.9752148 0.55304265 0.4011616 0.18992533
0.97090614 0.16787253 0.038622223 0.63416195 0.581367 0.7416141 0.79906124 0.25488704
0.92809063 0.52668315 0.7848992 0.021283332 0.30268112 0.652809 0.9648654 0.4528396
0.9262302 0.6093767 0.8581282 0.14273441 0.07471954 0.9003785 0.9070421 0.20630023
0.021050857 0.41063735 0.33516353 0.6391666 0.41336614 0.958233 0.0917771 0.9197416
0.6536265 0.03930354 0.67789024 0.81395763 0.7784184 0.58005214 0.9834317 0.07969722
0.68576634 0.010292797 0.8554358 0.20316106 0.51639134 0.1758194 0.65007687 0.40253794
0.3196105 0.3563838 0.38465774 0.5721429 0.6547424 0.5198034 0.7291369 0.91332567
0.94975096 0.0458712 0.7935579 0.35818362 0.53554595 0.24121499 0.07872232 0.37553996

metagatr.gelu_equilinear.weights f4 [12, 12, 9]
00000000: 72da 7c3f 01d0 3f3f 8de0 723f 716e 693d
00000010: 8b55 383f 29eb 4a3e b9e3 053f 9dae 503f
00000020: e2ed 453f 52ec 803f 4c93 fe3e 51c3 363f
00000030: 2766 503f 39cf 063f ba34 703f 9ee0 4e3f
00000040: ba0a 293f ef30 2e3f ec5c 583f dd22 7a3f
00000050: 83c1 6e3f a893 7b3f 9184 993e 7773 683f
00000060: 9a4e 333e 65da 6b3f ea78 823e 89fa 4b3e
00000070: 4ebd 523f 7315 123e cff5 6e3e 5d5b 4c3e
00000080: 8b4c 2b3e 905c 323e d4bb 5f3f e7a1 373e
00000090: 10cf fc3e 758b 6c3f e35b 4d3f ed43 513f
000000a0: 6ae4 ac3e 2f50 8b3e ceb7 3d3f 9214 5f3e
000000b0: c671 283f 0e4f 083f 4ddb 1c3e 5504 543e
000000c0: 8a7e 9c3e f641 a23d 18ed 413f aa75 3f3f
000000d0: 45b8 9f3e 2c1e 253f c4f4 ce3e bbd9 c63e
000000e0: 9e18 a33e 1822 8b3e 3091 db3b 4ce7 653f
000000f0: 3a43 753f 5de4 383f b1d8 743e a2c9 f73e
00000100: aa37 6f3d 984c ab3e 86cf 2c3f b3fd ca3e
00000110: 2075 8d3b 84fb 783f f09e 6e3e db0c 343f
00000120: a9e2 cb3e 62a6 533f 4c98 2d3f 691a 723e
00000130: 5c33 f53d 88b7 193f 97cc 9d3e b2b0 9a3e
00000140: 48d6 2c3f d86b 6f3f 067a c83e 5960 533f
00000150: 6142 153f 3792 d43e 0fce d13e 4d9f 013e
00000160: 5161 093f ca48 ba3e 25f9 1c3e 26d6 413e
00000170: 5619 003c 3de8 193f c6ef 3b3d 716a 373e
00000180: 1a1a 8e3d 6573 ea3d 7904 133f 207b 003e
00000190: eeb0 103f 6016 883d a442 393f d627 0a3f
000001a0: 88d5 043f b453 d63e b6af 443f 2d78 593f
000001b0: e4a1 313f 03c7 093f 919a c33e ae28 193e
000001c0: 45e3 b93d b6be 7f3f cbaa 603e 3da1 d83e
000001d0: cd90 333e 7256 aa3d df31 1a3f a2fb 123f
000001e0: 084f d93e 32db b33e 345b c33e d07b 8a3e
000001f0: 1828 153d d73a ce3d 8e0e 05bd ec02 1b3f
00000200: 2b28 263f 6491 863e 2032 583f fd73 f63c
00000210: b1b1 9c3e fa09 023d 44fb 423f 3183 bf3e
00000220: 35b6 1e3f e797 ff3e e2c4 543f 80f6 903b
00000230: c935 44bd d93a b63e 6116 c83e 627b 623f
00000240: 3da6 283f 0020 753f eccf 2e3f 68c5 423e
00000250: 7110 553f c144 e53e cf7f fb3d 3380 b43e
00000260: 753e 673e e874 483f 47c0 2b3f 5bfe 213e
00000270: 7988 4d3f a309 723f db6c 573f 732c 703f
00000280: ad0f bc3d 57fd ef3e 0ce2 3d3f b983 303f
00000290: 5309 293e 5c6d 8f3d 5524 4c3f ef18 693f
000002a0: bed6 923e 3f71 a73e d86e d63e 3a9b 3d3f
000002b0: 1585 723e bc9a 883e 1553 a63d 3a01 3c3e
000002c0: 9b1f 1c3e 13ad e73c eab0 543f 9b0e e83e
000002d0: 8e07 243f d023 163f f255 773f f927 f23e
000002e0: a4bf e73d 0501 7a3d e59f 4d3f 7b1c 323f
000002f0: c293 763f 9fe6 d23e e069 bb3e 18c9 463d
00000300: 6204 763f 04f1 7e3f 6340 003e db30 083f
00000310: 9bb3 183f e904 c23e 47e5 4d3f 1723 0c3f
00000320: 0bf2 6f3e c72c 5b3f 9e00 873d 1f3e 7f3f
00000330: 8864 4f3f 35bf 0b3f 6a34 db3e ebc7 ff3d
00000340: 06fc 303f 4fde 843e f09c 363f d223 963d
00000350: 1ba0 073f b463 5f3f 2e3e 273f 6858 883b
00000360: 3844 6d3f 9836 513f 613e f33e 1ab7 4a3f
00000370: 6ebc a93d d11c 383f c69b dc3d e486 b23e
00000380: 0ff0 323f 3d79 303f c5a7 e53e 0e6c 3a3f
00000390: 0f5d ce3e b3cc 583f e80b 783f cd22 a73e
000003a0: 23ab 6d3f a850 293f 0f58 583e 0011 6f3f
000003b0: 2d0a 663e c8ed 5f3f d36d 113f 303c a73e
000003c0: b7eb 763f 38ef 703f cc13 3d3f eebf f73e
000003d0: 3443 383f c47d bf3c 17b9 5c3f e04b e13e
000003e0: 964f 403f 6a7e 533f 6058 213f b603 1e3f
000003f0: 23c5 b53d 6e8d a13e e1ec dd3d 35ca 803d
0.9877082 0.74926764 0.9487389 0.05699009 0.7200553 0.19816269 0.523006 0.8151644
0.77316105 1.0072119 0.49721754 0.7139178 0.8140587 0.52659947 0.93830454 0.8081149
0.6603199 0.68043417 0.8451679 0.9770945 0.93264025 0.9827218 0.29983953 0.90801185
0.17510453 0.9213012 0.25482875 0.1991979 0.82320106 0.14265995 0.23335956 0.19956727
0.16728418 0.17418122 0.8739598 0.17932855 0.49376726 0.92400295 0.80218333 0.8174427
0.33768016 0.27209613 0.7410859 0.2178519 0.65798604 0.5324563 0.15318032 0.20704778
0.30565292 0.07922737 0.757524 0.74788916 0.31195274 0.64499164 0.40421116 0.3883799
0.3185472 0.2717445 0.0067006573 0.89806056 0.95805705 0.72223455 0.23910786 0.4839602
0.058402695 0.33456874 0.67504156 0.39646682 0.004316941 0.9725878 0.23302817 0.70332116
0.39821365 0.82675755 0.6781051 0.23642887 0.11972687 0.6004567 0.30820152 0.30212933
0.6751447 0.9352393 0.39155596 0.8256889 0.5830441 0.41517803 0.40977523 0.12658425
0.5366412 0.3638366 0.15329416 0.18929347 0.007818541 0.6011999 0.045882963 0.17911698
0.06938572 0.11447791 0.574287 0.12546968 0.56519973 0.06644893 0.7236731 0.53967035
0.5188832 0.41860735 0.76830614 0.84949 0.6938765 0.5381929 0.38203862 0.14956924
0.09076551 0.99900377 0.21940152 0.42310515 0.17535706 0.083172694 0.6023235 0.5741521
0.4244311 0.3512817 0.3815552 0.27047586 0.03641519 0.100698166 -0.032484584 0.60551333
0.6490504 0.262828 0.84451485 0.030084604 0.30604318 0.031747796 0.7616465 0.3740478
0.61996776 0.4992058 0.8311292 0.0044239163 -0.047902856 0.35591772 0.39079574 0.8846952
0.6587866 0.95751953 0.68286014 0.19020617 0.8322821 0.44779018 0.12280237 0.35254058
0.22582419 0.78303385 0.67090267 0.15819685 0.80286366 0.94545954 0.84150475 0.93817824
0.091826774 0.4687297 0.74173045 0.6895099 0.16507463 0.070032805 0.7974294 0.9105367
0.2867946 0.32703587 0.41881442 0.7406498 0.2368358 0.26680553 0.081213154 0.18359843
0.15246432 0.02828077 0.8308245 0.45323643 0.6407403 0.58648396 0.9661552 0.47296122
0.113158494 0.06103613 0.80322105 0.6957471 0.9631921 0.41191575 0.36604214 0.04853162
0.9610044 0.9958651 0.12524562 0.5319955 0.59649056 0.3789437 0.80427974 0.5474104
0.23432176 0.856152 0.065919146 0.99704164 0.81012774 0.54588634 0.42813426 0.12489303
0.6913456 0.25950858 0.7133322 0.07331051 0.52978677 0.8726151 0.65329254 0.0041609295
0.9268222 0.8172393 0.4750853 0.7918564 0.08287893 0.7191897 0.10771899 0.34868538
0.6989755 0.68934995 0.4485456 0.7282113 0.40305373 0.84687346 0.9689317 0.32643738
0.9283926 0.66138697 0.21127342 0.93385315 0.22464819 0.874722 0.56808203 0.32663107
0.9645342 0.9411502 0.7385833 0.48388618 0.71977544 0.0233754 0.86219925 0.440032
0.7512144 0.8261477 0.63025475 0.6172441 0.088754915 0.31553215 0.10836197 0.06288568

metagatr.final_equilinear.weights f4 [1, 12, 9]
00000000: fa69 8b3f c90f 5d3e c0c5 6d3f 9b95 b53e
00000010: 1f5a 203f 0a01 753f f5c0 183f fcea 103f
00000020: 6d07 353f d38c 583f 755a ec3e e9f6 703f
00000030: a045 253f 895a da3e 744a 3e3f 06d0 033d
00000040: 2d65 ba3d d81f 483e 9741 283f 9663 273f
00000050: 97a2 be3e 93fb 303f 1660 1d3f 4f2a 0d3f
00000060: 9dc0 993e 1b80 0b3e 1407 793f abbb 5a3f
00000070: 3487 463f 6e0d 173e a682 323f 05c0 f63c
00000080: d263 b03e 8ced 7f3f cb6e 3d3f 9bc0 de3e
00000090: 0fda 833f 09ff 143f 0ab5 a23c b112 fd3e
000000a0: 4cf9 e93e 75ff bd3e 6c87 433f aefc 6f3f
000000b0: 3358 583f 26c9 673f 971e 783f 1998 a93d
000000c0: a252 7e3f 271b 023f 4639 773f 7a78 213d
000000d0: 92b6 6b3f f0ef 113f 6e7a ab3f 9715 3b3f
000000e0: 5838 433f 41dd 003f eaca 2e3f 40ef db3d
000000f0: 30df 673f 88e7 7b3f 8317 173e cac4 8c3e
00000100: 69d3 c13e 87d5 203f 3e54 763f 771e f43e
00000110: 022b cc3d b8d4 9f3e b5bf 4e3f 9475 973d
00000120: 6297 4d3f b9fe 8f3e ad91 fe3e 0aea 7e3f
00000130: 7f8d 023f 3ff4 893d a604 153e ee98 0f3d
00000140: d7a2 033f 9470 9d3f f579 273f 1f9c 7d3f
00000150: e7a2 2d3f 6e49 783e cc26 133f 01a8 733f
00000160: 820f 583f 6d6a 883e 68c6 793e c551 703f
00000170: fd81 2b3f 0639 5d3f 804f 8a3e 4d6e 043f
00000180: 183a 0f3f ef7f 303f 6230 503f bb2e b73e
00000190: 293f fa3d ebb3 e33d f0da 693f 001b 383f
000001a0: c342 1a3f 332e 383f 927a a73e 3680 013f
1.0891716 0.21588053 0.9287987 0.35465702 0.62637514 0.9570471 0.5966943 0.5660856
0.70714456 0.8458988 0.46162763 0.94126755 0.64559364 0.42647198 0.74332356 0.03218081
0.09101329 0.19543397 0.6572508 0.6538633 0.3723342 0.6913387 0.6147474 0.5514268
0.30029765 0.13623087 0.97276425 0.8544261 0.77550054 0.14751217 0.69730604 0.030120859
0.34451157 0.9997184 0.7399718 0.4350632 1.0300921 0.5820165 0.019861717 0.49428323
0.4569801 0.3710896 0.7637851 0.93744934 0.8450958 0.90541303 0.96921676 0.082809635
0.9934484 0.5082268 0.9657177 0.039421536 0.92075455 0.5700674 1.3396738 0.7307982
0.7625785 0.50337607 0.6827837 0.10738993 0.9057493 0.98400164 0.14755063 0.27493888
0.37856606 0.62825817 0.96222293 0.47679493 0.099691406 0.3121698 0.8076127 0.07395473
0.80309117 0.28124025 0.49720517 0.99575865 0.50997156 0.06736039 0.14552554 0.035057954
0.5142035 1.2299981 0.65420467 0.99066347 0.67826694 0.24246761 0.57481074 0.9517823
0.84398663 0.26643696 0.24392092 0.9387477 0.6699522 0.86415136 0.2701378 0.51730806
0.5594802 0.6894521 0.81323826 0.3577784 0.12219078 0.11118301 0.913497 0.719162
0.6025812 0.71945494 0.327107 0.5058626

metagatr.vectorizer.weight f4 [1, 50]
00000000: 448a 323e a3b7 953e 4417 f9bd 958e 2d3e
00000010: 879d 4d3e 1f9c 983d 2e3f 813d 999b 2c3e
00000020: 0804 263e 888e 493d 7792 b1bd aaeb bc3d
00000030: 7992 17be 84aa 613d 605a 97bd 595b bc3c
00000040: a4ab a83d f19e 5d3d db49 923d 1d23 3fbe
00000050: 6482 13bd 97ca 833d e816 c1bd a78c 0cbe
00000060: ab84 c8bd 8954 bfbd a34d f4bc fb24 db3c
00000070: 3455 563d 7b5e 5abd 8ebd 7e3d 97de 2bbc
00000080: f38d 26be 8c9c fcbd 8e49 023d f27c 9ebd
00000090: 9074 423c 46a8 39be d4f6 79bd 1026 63be
000000a0: c8ee 37be 52a2 0fbe 2e60 dd3c 872a 26bd
000000b0: a503 cdbd e5ba 4cbe b49b 363d 3963 0bbe
000000c0: 40b9 21be 3146 28be
0.17435557 0.29241666 -0.12162641 0.16948922 0.20079623 0.07451653 0.06310879 0.16856231
0.16212475 0.049208194 -0.08670514 0.09224637 -0.14801969 0.055094257 -0.073902845 0.022992777
0.08235863 0.054106656 0.07142993 -0.18665738 -0.036013022 0.06435125 -0.09428197 -0.1372553
-0.097909294 -0.09342296 -0.029822176 0.026751032 0.05232735 -0.05331276 0.062192492 -0.010490081
-0.16265087 -0.123345464 0.03180843 -0.07738675 0.011868611 -0.18130597 -0.06102641 -0.22182488
-0.17962182 -0.14026764 0.027023401 -0.0405679 -0.10010461 -0.1999317 0.044582084 -0.13612069
-0.15793324 -0.16433026

exp_avg f4 [12, 4, 9]
00000000: 0000 0000 0000 0000 0000 0000 11e2 fa36
00000010: 0000 0000 0000 0000 0000 0000 d915 2938
00000020: 0000 0000 0000 0000 c5e9 fcbb 0000 0000
00000030: 0000 0000 0000 0000 0000 0000 0000 0000
00000040: 0000 0000 0000 0000 d3d3 8138 0000 0000
00000050: 90c7 9daf 0000 0000 0000 0000 0000 0000
00000060: 048e 533a 0000 0000 0000 0000 0aa2 0837
00000070: 0000 0000 0000 0000 0000 0000 0000 0000
00000080: 0000 0000 0000 0000 0000 0000 0000 0000
00000090: 0000 0000 0000 0000 0000 0000 d13c e237
000000a0: 0000 0000 0000 0000 0000 0000 331a c837
000000b0: 0000 0000 0000 0000 0668 403b 0000 0000
000000c0: 0000 0000 0000 0000 0000 0000 0000 0000
000000d0: 0000 0000 0000 0000 d3c4 27b9 0000 0000
000000e0: 09db 45b0 0000 0000 0000 0000 0000 0000
000000f0: b6ed 453b 0000 0000 0000 0000 f6b9 b3b7
00000100: 0000 0000 0000 0000 0000 0000 0000 0000
00000110: 0000 0000 0000 0000 0000 0000 0000 0000
00000120: 0000 0000 0000 0000 0000 0000 b7ad 4736
00000130: 0000 0000 0000 0000 0000 0000 4927 9738
00000140: 0000 0000 0000 0000 9296 a93b 0000 0000
00000150: 0000 0000 0000 0000 0000 0000 0000 0000
00000160: 0000 0000 0000 0000 386d 62b9 0000 0000
00000170: bf1c 9aaf 0000 0000 0000 0000 0000 0000
00000180: f6ef 753b 0000 0000 0000 0000 1b26 f2b7
00000190: 0000 0000 0000 0000 0000 0000 0000 0000
000001a0: 0000 0000 0000 0000 0000 0000 0000 0000
000001b0: 0000 0000 0000 0000 0000 0000 540b 2f38
000001c0: 0000 0000 0000 0000 0000 0000 5272 a838
000001d0: 0000 0000 0000 0000 f785 3239 0000 0000
000001e0: 0000 0000 0000 0000 0000 0000 0000 0000
000001f0: 0000 0000 0000 0000 6d51 e8b8 0000 0000
00000200: 57e8 a8af 0000 0000 0000 0000 0000 0000
00000210: 92b4 253a 0000 0000 0000 0000 797c 79b7
00000220: 0000 0000 0000 0000 0000 0000 0000 0000
00000230: 0000 0000 0000 0000 0000 0000 0000 0000
00000240: 0000 0000 0000 0000 0000 0000 1a21 0035
00000250: 0000 0000 0000 0000 0000 0000 b53c 8838
00000260: 0000 0000 0000 0000 a637 9c36 0000 0000
00000270: 0000 0000 0000 0000 0000 0000 0000 0000
00000280: 0000 0000 0000 0000 a5c4 a0b8 0000 0000
00000290: 3136 a5ae 0000 0000 0000 0000 0000 0000
000002a0: 6606 a336 0000 0000 0000 0000 3558 2db7
000002b0: 0000 0000 0000 0000 0000 0000 0000 0000
000002c0: 0000 0000 0000 0000 0000 0000 0000 0000
000002d0: 0000 0000 0000 0000 0000 0000 3cb0 9a35
000002e0: 0000 0000 0000 0000 0000 0000 200a 5c38
000002f0: 0000 0000 0000 0000 45fc 6638 0000 0000
00000300: 0000 0000 0000 0000 0000 0000 0000 0000
00000310: 0000 0000 0000 0000 ce13 dab8 0000 0000
00000320: 3297 b7af 0000 0000 0000 0000 0000 0000
00000330: 0934 df38 0000 0000 0000 0000 4d58 6ab7
00000340: 0000 0000 0000 0000 0000 0000 0000 0000
00000350: 0000 0000 0000 0000 0000 0000 0000 0000
00000360: 0000 0000 0000 0000 0000 0000 422b 4336
00000370: 0000 0000 0000 0000 0000 0000 9994 0d38
00000380: 0000 0000 0000 0000 03c7 2d3b 0000 0000
00000390: 0000 0000 0000 0000 0000 0000 0000 0000
000003a0: 0000 0000 0000 0000 1d26 4c38 0000 0000
000003b0: 6d1e f6af 0000 0000 0000 0000 0000 0000
000003c0: aba2 513b 0000 0000 0000 0000 1847 d536
000003d0: 0000 0000 0000 0000 0000 0000 0000 0000
000003e0: 0000 0000 0000 0000 0000 0000 0000 0000
000003f0: 0000 0000 0000 0000 0000 0000 e20a 1638
0.0 0.0 0.0 7.476898e-06 0.0 0.0 0.0 4.0313087e-05
0.0 0.0 -0.007718297 0.0 0.0 0.0 0.0 0.0
0.0 0.0 6.190655e-05 0.0 -2.869993e-10 0.0 0.0 0.0
0.0008070173 0.0 0.0 8.143959e-06 0.0 0.0 0.0 0.0
0.0 0.0 0.0 0.0 0.0 0.0 0.0 2.696962e-05
0.0 0.0 0.0 2.3854058e-05 0.0 0.0 0.0029358878 0.0
0.0 0.0 0.0 0.0 0.0 0.0 -0.00015999684 0.0
-7.197945e-10 0.0 0.0 0.0 0.0030201501 0.0 0.0 -2.1425058e-05
0.0 0.0 0.0 0.0 0.0 0.0 0.0 0.0
0.0 0.0 0.0 2.9754426e-06 0.0 0.0 0.0 7.2075585e-05
0.0 0.0 0.00517542 0.0 0.0 0.0 0.0 0.0
0.0 0.0 -0.00021593727 0.0 -2.8032862e-10 0.0 0.0 0.0
0.003752706 0.0 0.0 -2.8866392e-05 0.0 0.0 0.0 0.0
0.0 0.0 0.0 0.0 0.0 0.0 0.0 4.17338e-05
0.0 0.0 0.0 8.032158e-05 0.0 0.0 0.00017025309 0.0
0.0 0.0 0.0 0.0 0.0 0.0 -0.00011077789 0.0
-3.072411e-10 0.0 0.0 0.0 0.00063211576 0.0 0.0 -1.4870538e-05
0.0 0.0 0.0 0.0 0.0 0.0 0.0 0.0
0.0 0.0 0.0 4.7731885e-07 0.0 0.0 0.0 6.496293e-05
0.0 0.0 4.6556406e-06 0.0 0.0 0.0 0.0 0.0
0.0 0.0 -7.6660224e-05 0.0 -7.5129576e-11 0.0 0.0 0.0
4.8585234e-06 0.0 0.0 -1.0332141e-05 0.0 0.0 0.0 0.0
0.0 0.0 0.0 0.0 0.0 0.0 0.0 1.1525185e-06
0.0 0.0 0.0 5.2461517e-05 0.0 0.0 5.5071218e-05 0.0
0.0 0.0 0.0 0.0 0.0 0.0 -0.00010398739 0.0
-3.3394937e-10 0.0 0.0 0.0 0.00010643161 0.0 0.0 -1.3968046e-05
0.0 0.0 0.0 0.0 0.0 0.0 0.0 0.0
0.0 0.0 0.0 2.9082444e-06 0.0 0.0 0.0 3.3755412e-05
0.0 0.0 0.0026516325 0.0 0.0 0.0 0.0 0.0
0.0 0.0 4.8672886e-05 0.0 -4.4768758e-10 0.0 0.0 0.0
0.0031987827 0.0 0.0 6.356171e-06 0.0 0.0 0.0 0.0
0.0 0.0 0.0 0.0 0.0 0.0 0.0 3.5772922e-05
