code/lightning_logs/GATr/version_2/checkpoints/GATr.ckpt (torch, 237492 bytes, 37 tensors)

gatr.enter_equilinear.weights f4 [12, 4, 9]
00000000: 1ce6 203f f4da 253f 525a 9b3d bc23 8d3f
00000010: f1b9 c13b dbba b13e b66b 413f 50db 833f
00000020: 40eb 1f3f 9caa c23e b2d8 5b3f b1d6 253e
00000030: 7806 3d3f 3a46 b73e 5b16 683f 0939 ea3e
00000040: d405 243f 5ca3 643f 55d1 533f 8090 293f
00000050: 922d 103f a2b1 5a3e dcf1 133d 374d 233f
00000060: 5c3b 6c3d 7e53 d13c df9c 0b3f 8aef 473f
00000070: 1fd9 453e b253 8d3d c758 c33e 61f4 883e
00000080: 648b 4f3f 7f53 383d 86b4 2b3f e581 8c3e
00000090: 32f7 fd3e 6087 ee3d aad1 543f a1db ca3e
000000a0: bb82 1f3f a374 8b3e 2c7a 773e fc2b 943f
000000b0: d185 623f 046f 253f 0a79 3f3f 6d47 0b3f
000000c0: ff9a ed3d c907 cf3e 3dfe 793f fb8e 573f
000000d0: 10ef f83d 3682 5d3f b6a6 393f 0c5b 2e3f
000000e0: 5ecb 553f 5dbf 273f d6ee 763f 3b29 1a3f
000000f0: ff47 2f3c 3502 243e 7cc9 c13e c86e b73e
00000100: d6a9 6d3f cdfa 7c3d e5de f93e 358c 603f
00000110: 8701 2b3f 2504 f83e 98b0 243e ff1d 0f3f
00000120: 7930 7c3f 694e b43e bd28 0b3f 27e0 2d3f
00000130: 7ba9 4a3e f05b 3d3e 93e2 df3e e023 3f3f
00000140: 3777 e33e 1d63 483e ecc1 5f3f 1858 083f
00000150: d045 bf3e ce44 ac3d 94f5 2e3f 13b1 5f3e
00000160: d482 323d 75a2 763f 842b 2b3f 904c 153d
00000170: 0cb6 df3e 7114 7f3f 04ff c43e 2484 c83e
00000180: 242e 293f 9d45 953e 9a20 c63e c566 f43d
00000190: cf73 443f 354b 6a3f c068 713e 41b4 633e
000001a0: 6c49 693f 9319 ab3e 5064 383f 2232 1a3e
000001b0: 620c 4f3f c1da 1e3f 94a6 383f 1052 d83e
000001c0: d82c 9c3d a4e8 673f e12d 343f 3f6e 4e3f
000001d0: ece9 603f 00cb 4f3e 69a6 353f 306b 913e
000001e0: d945 5a3f 9949 d83d f7d4 563f 2280 e13e
000001f0: 345e 2c3f 8c58 143f 83b7 333f 6534 9d3e
00000200: f29e 843e dad1 4c3f 3174 093f 1ace 8e3e
00000210: 7f4e ba3d e0a5 9d3e 61f8 203f a6a0 453f
00000220: dc38 c13e af48 003f 96e3 073f 0b5d 813e
00000230: fdac 3a3d b569 b23d 7568 1c3d aa15 403d
00000240: 1c84 7b3f 66a0 b43d a4d9 a63d 0b0a 3e3f
00000250: cd32 1f3f dbaf 173f 7c87 c83e ab30 263f
00000260: a228 563f 7a16 b33e e546 4f3e ca10 4b3f
00000270: 30a3 713e 34c2 583f 4a8b c73d f2da 133e
00000280: 0cf9 683e 77a9 fe3e 1a5f 733f dcc1 a93e
00000290: da45 033f 24af 343f 6fa9 a23e 0a36 a33e
000002a0: 6ef3 233f 91fb bb3d 8eb6 063f 5496 593f
000002b0: 62c3 c33e c05b b03e 5069 183e ba41 653e
000002c0: 15b1 b93e 8fc2 993d 3924 0d3e 13d2 793f
000002d0: 7e28 443f aaa0 f73e db9d 683f 0c0c d23e
000002e0: b1f2 113f 2ab1 693f 02d8 483e 2d28 cd3e
000002f0: c5f7 c13e 36c3 2d3f 6daf 693f 0a81 383f
00000300: 83fd ff3e c5a8 5b3f 533e 453f 1b78 073f
00000310: 64b4 b63e 9472 b53e 15c6 933e 58fa e63d
00000320: aefa f33d d5d1 5e3f 1c36 213e 59fa 073f
00000330: 5699 f8bc 69dc 873e 1a2e 373f 6b0e 8d3e
00000340: c74f fc3d 6799 223f 3378 ef3e a91e 0f3d
00000350: 26a5 783e 6252 d23d fa4a 5b3f cd1e f23e
00000360: b3e0 083f 203d d23e 3636 4c3f 14e8 953f
00000370: 7420 b43c b2a2 1e3e e1f9 923e d6f3 d83e
00000380: 4711 503e 6de2 0a3f af35 923f 40d3 763f
00000390: beff ce3d 229a 183f 683b 093e 8751 843e
000003a0: 596b ca3e 8ea1 103f 4a8f 653f 140d 603f
000003b0: ba17 3f3f d627 cb3c 46a7 4b3f 8181 533f
000003c0: f373 193f 7295 293f febc 283f 63ab c23e
000003d0: e136 573f 2895 e93e 7428 4a3f 3c46 5a3e
000003e0: 61ef a93c 9794 fe3d 2dad 733f 6fa5 6a3f
000003f0: 6da9 133f bf02 4e3d 4fa2 123e 7d12 ca3e
0.6285112 0.6478722 0.075855866 1.102653 0.0059120585 0.34712872 0.7555498 1.0301304
0.6246834 0.3802079 0.85877526 0.1619518 0.73837996 0.35795766 0.9065911 0.4574664
0.64071393 0.89311767 0.8274129 0.66236115 0.56319535 0.21356824 0.036119327 0.63789696
0.057673797 0.025552507 0.5453624 0.7809988 0.19321106 0.06900729 0.3815367 0.26748946
0.8107207 0.045001503 0.6707233 0.27442852 0.49602658 0.116469145 0.8313242 0.3962069
0.62308854 0.27237424 0.24167699 1.1575923 0.8848544 0.6462252 0.74794066 0.5440586
0.11601829 0.40435627 0.9765356 0.84202546 0.121549726 0.8652681 0.72520006 0.68107677
0.8351344 0.6552637 0.96458185 0.6021916 0.010698318 0.16016467 0.37849033 0.35826707
0.92837274 0.06176262 0.48802868 0.8771394 0.66799206 0.48440662 0.1608299 0.55905145
0.98511463 0.35216072 0.54359037 0.67920154 0.19791214 0.18492103 0.4372755 0.74664116
0.4442689 0.19569059 0.87405276 0.5325942 0.3735795 0.08411561 0.6834347 0.21844892
0.0435818 0.9634164 0.66863275 0.03644997 0.43693578 0.99640566 0.3847581 0.39163315
0.6608603 0.29154673 0.38696748 0.11933664 0.7673921 0.91521007 0.23575115 0.2223673
0.9112766 0.3341795 0.72028065 0.15058187 0.8087827 0.6205254 0.7212918 0.4225011
0.07625741 0.90589356 0.70382506 0.8063697 0.87856936 0.20292282 0.70957047 0.2840209
0.8526283 0.10560913 0.8391871 0.4404307 0.6733124 0.5794761 0.7020189 0.30704036
0.25902516 0.8000771 0.5369292 0.27891618 0.09097003 0.30790615 0.62878996 0.77198255
0.37738693 0.50110906 0.53081644 0.252663 0.04557513 0.08711568 0.038185555 0.04689566
0.9824846 0.08819656 0.081469804 0.74234074 0.6218689 0.5925271 0.39165866 0.6491801
0.8365575 0.34978086 0.20241888 0.79322493 0.23597407 0.8467133 0.09743364 0.1443899
0.22751254 0.49738666 0.9506699 0.33155715 0.5127846 0.70579743 0.31769893 0.31877166
0.6404332 0.09178842 0.52622306 0.8499501 0.38235003 0.34445 0.14883924 0.22388354
0.36267915 0.07507812 0.13783349 0.9758617 0.76624286 0.48364764 0.9086587 0.41024816
0.5701094 0.91285956 0.1961365 0.40069714 0.37884346 0.67875993 0.91283303 0.720719
0.49998102 0.85804397 0.77048224 0.5291764 0.35684502 0.3543898 0.28862062 0.11278218
0.11913048 0.8703893 0.15743297 0.53116375 -0.030346554 0.26535347 0.7155472 0.27550063
0.12319904 0.63515323 0.46771392 0.03494135 0.24281749 0.102696195 0.8566128 0.47289124
0.53467864 0.4106226 0.7977022 1.171145 0.021988131 0.15491751 0.28706267 0.42373532
0.20319091 0.5425175 1.1422633 0.9641609 0.10107373 0.5961019 0.13401568 0.2584345
0.39535025 0.5649651 0.89671767 0.87519956 0.7464558 0.024799269 0.79552114 0.8261948
0.5994255 0.6624366 0.6591338 0.38021383 0.84068114 0.4562161 0.78967977 0.21315855
0.020744028 0.12430685 0.9518612 0.9165868 0.576804 0.050295588 0.14319728 0.3946723

gatr.geometric_attention.q.weights f4 [48, 12, 9]
00000000: b967 383f d4e9 6f3e e276 583f e6e9 2d3f
00000010: eee1 9a3e c837 063e c271 213f a232 363f
00000020: 99f2 263f 3668 883f f475 3bbe 594b 6e3f
00000030: 64e4 433e 4413 c13e d4d1 583d 48ee 073f
00000040: c190 303f f4e5 1b3d cfca 053f 16da bd3e
00000050: a6ca a53d 9878 883f 9360 643f fbcf 413e
00000060: 0a2f 083f 151b 863f fa27 853d 0daf 033f
00000070: 9d95 ad3e e7d9 df3e 008f af3e f7b2 4c3f
00000080: ecde 763e fc00 803f 6da8 863f 9fad 9a3e
00000090: f77d e83e 0171 6e3f 320c 653f e644 2c3f
000000a0: d687 553f e820 753f 049e 443f 3432 423f
000000b0: 433b 733f df96 693e 8906 d73d 2122 863f
000000c0: 4168 b83e c3c1 f33e 34b6 2d3f 897c df3e
000000d0: d13d 1d3f ed1f 563d 05a9 073f 6317 153e
000000e0: f776 673f f017 df3e 066a 403f 7da3 183f
000000f0: 828d 363f 869f 3a3f 4874 ff3d 840f 0a3f
00000100: 7513 3a3e ae75 033f 6faf 873f eae9 613f
00000110: c4c2 d63e 2402 ff3e 485c ef3e c91a 503f
00000120: d1c8 423e c9e9 12be 982f 1c3f 59bb 0b3f
00000130: 43ae 813e 31bc e33e b000 863f d133 e93e
00000140: 3412 933e 9e4f 943e d269 acbe 399c 373f
00000150: f3d3 0b3f 5fce 7e3f 8619 773e 80bf 843f
00000160: ad9f 753f 53fd 963d 5f6f 7f3f 9b1e dc3d
00000170: 4e52 853f 8733 403f 4c97 263f d1bd fe3d
00000180: f628 8c3f a407 f63e f1a6 1d3f 0434 333f
00000190: df19 2a3e aac9 5c3f 4102 063f c46b 933e
000001a0: 2ff7 d83e ec40 7d3f f231 703f 1280 b63e
000001b0: 7c56 d23e 1af6 2fbe 8518 523e 1c52 443f
000001c0: b759 2b3f 3acf 103f 17f4 553f ba54 883f
000001d0: 88a0 e93e 3b18 bc3e b9df 25be 8de3 0c3e
000001e0: 21e2 663f 23d5 793f 19c6 9a3e fc84 923f
000001f0: 8358 e53d 2975 9f3e fab5 c43e db92 9ebd
00000200: 3089 733f ef9d 883f 9d23 053f c234 a13e
00000210: 5d17 1a3f 521b 133f 155a 733e c8dd 8a3e
00000220: 70e8 8e3e ee74 1c3f 8360 2e3f e65e 433f
00000230: 744e 763f 6e03 073f df48 923e 90db 083f
00000240: bc2c eb3e 13c4 233f a883 763f e05b fa3e
00000250: 407e e23e 1b5d f03c a8d1 753f 6213 a33e
00000260: 2dae 913e 2e4d 843f cd1d 473e f041 223e
00000270: c65e 4d3f 9d7b 613e 6dc0 423e a6fc 2e3f
00000280: d040 963e 2a88 cf3e f163 7c3f 5948 e53e
00000290: 197e 143f dd09 7b3f b66b b13e 034d 293e
000002a0: 92b5 013f 32fa 8b3f 1dba 253f 041f f23e
000002b0: b6eb 3d3e 8bb5 7a3f 43e9 773f 812e 4a3d
000002c0: 67a4 de3e c508 2d3f b0e5 e23e 55d7 203e
000002d0: 8e3d 633f 26bc 86bd 162a f33e 97ae 913e
000002e0: fef1 333f f37c a23e 19ab 533f bbe4 093e
000002f0: 8669 283f a23a 4c3f f501 213f eb16 3e3f
00000300: 6b4a ce3e c19c 113f 7fa4 b03d cd00 853f
00000310: 5704 753f 5497 763d 40e3 2f3f b9ba 8f3e
00000320: 399b 353f 4cd9 c73d c228 443f ab4f a53e
00000330: d24c 323f 8f5c 723e 7053 1a3f 58d2 5b3f
00000340: 8a46 9dbe d508 213f a621 e73e b817 c23e
00000350: 0aa0 513e e822 5b3f 7265 f53e 1f0f 533f
00000360: f051 8c3e 965d 1f3e b1b8 553f e06e 6c3f
00000370: f0d5 4a3f 3483 e939 5bb2 543f 2e18 7d3f
00000380: ff42 113f 1bd0 173e a5db 30bd 20a4 8f3f
00000390: a059 703f e804 1e3d 325f a23e be40 9f3f
000003a0: 7416 373e 94be ed3b 2158 d83e 7779 803e
000003b0: 6b1a d43e 2543 513f 98f7 4c3f e6f2 563a
000003c0: 42ff 2e3f 1a7c 8b3f 7e07 113f fdfb 193f
000003d0: c925 153d 271d 333f bf37 ab3e 78be d43e
000003e0: caa9 f93e d4b0 0c3f b0a6 7d3f 60fd 243f
000003f0: 2b74 573f 17ac 543f 9e18 583f 7bff 463f
0.7203327 0.23429042 0.845564 0.67935026 0.30250496 0.13107216 0.63064206 0.7117101
0.65213925 1.0656803 -0.18306714 0.9308372 0.19130093 0.3771001 0.052934483 0.53097963
0.68970877 0.038061097 0.52262586 0.3708045 0.08095293 1.0661802 0.8920986 0.18926995
0.53196776 1.0477015 0.065017655 0.5143898 0.33903208 0.43720934 0.34288788 0.7996058
0.24108475 1.00003 1.052015 0.30210587 0.45408604 0.9314118 0.89471734 0.6729263
0.83410394 0.95753336 0.7680361 0.75857854 0.950123 0.22811459 0.10499293 1.0479165
0.3601704 0.47608766 0.67856145 0.436497 0.6142245 0.05227654 0.5299228 0.14559703
0.904159 0.4357295 0.7516178 0.59624463 0.71309674 0.72899663 0.12473351 0.53929925
0.18171485 0.5135144 1.0600413 0.8824755 0.4194547 0.4980632 0.46750093 0.8129087
0.19021918 -0.14346994 0.6101012 0.54582745 0.25328264 0.44479516 1.046896 0.45547345
0.28724825 0.28966993 -0.33674484 0.7172275 0.54620284 0.9953365 0.2413083 1.0370941
0.9594677 0.073725365 0.99779314 0.10748025 1.0415742 0.75078624 0.6507461 0.12438548
1.095 0.48052704 0.6158286 0.70001245 0.16611432 0.86245215 0.5234719 0.28793156
0.42376086 0.9892719 0.9382621 0.35644585 0.41081607 -0.17183724 0.20517166 0.7668779
0.6693377 0.565662 0.83575577 1.0650856 0.45630288 0.36737236 -0.16198625 0.13758679
0.90188795 0.97590846 0.30229262 1.1446834 0.11198523 0.31144074 0.38420087 -0.07742854
0.95131207 1.0673198 0.52007467 0.31485564 0.601919 0.5746356 0.23764832 0.2712233
0.2791171 0.6111592 0.68116015 0.7631668 0.9621346 0.5273961 0.2857122 0.53460026
0.45932567 0.6397106 0.9629464 0.4889822 0.44236946 0.029341271 0.96023035 0.31850725
0.28453198 1.0336053 0.19444962 0.15845466 0.8022274 0.22019811 0.19018717 0.6835426
0.29346323 0.40533572 0.9859 0.4478176 0.5800491 0.98061925 0.3465249 0.16533284
0.5066768 1.0935729 0.6473711 0.47289288 0.18546948 0.9793326 0.96840304 0.049360756
0.43484804 0.67591506 0.44315863 0.15707143 0.887658 -0.06578855 0.47493047 0.28453514
0.70291126 0.31735954 0.8268295 0.1346616 0.65786016 0.79776967 0.6289361 0.7425372
0.4029115 0.5687981 0.08625125 1.0390869 0.9570975 0.06020291 0.6870613 0.28072146
0.70939976 0.09758243 0.7662469 0.32287344 0.6964847 0.23668121 0.60283566 0.85867834
-0.3071788 0.629041 0.4514286 0.3790872 0.20471206 0.8560014 0.4792896 0.8244495
0.27406263 0.15563044 0.8348494 0.9235668 0.7923269 0.00044538977 0.8308465 0.9886502
0.5674285 0.1482548 -0.04317822 1.1221962 0.93886757 0.038578898 0.31713253 1.2441633
0.17879659 0.0072553847 0.42254737 0.2509267 0.41426405 0.8174308 0.800653 0.0008199647
0.6835824 1.0897248 0.5665206 0.6015013 0.036412988 0.6996636 0.33440968 0.41551566
0.4876235 0.5495732 0.9908247 0.6444912 0.84161633 0.8307509 0.8441256 0.7773358

gatr.geometric_attention.k.weights f4 [12, 12, 9]
00000000: 68d7 fc3e be61 823f 9903 673f e25c 9a3e
00000010: 57b6 7c3f 92a9 683f 7395 483e c162 8c3f
00000020: 52b7 573e 1498 7a3f f2a3 443f 7b48 f93e
00000030: 6f22 7f3f a3c9 123f a960 f03e ac65 3c3f
00000040: b475 8a3e 1ffd 383e 43ca 8f3e 7c27 643f
00000050: 91b8 4c3f 237a 623f b3aa 523d 33fa 5a3f
00000060: 4332 0d3f 6277 4b3e 3817 e73d 12e5 603e
00000070: e5e7 e23e c444 473f a4ed 2b3e f4a2 813e
00000080: 87e4 633f 97b6 4f3f 1acb ea3d 4d3e 6e3f
00000090: 770e e93e 5935 323e ebf8 1a3f eae0 823f
000000a0: ddd0 4c3f 35dd f53e 4c27 573f df1e 5b3f
000000b0: be63 643f 95fc a93d 56d6 8e3f 0c50 543f
000000c0: df23 6e3f 0c7a 243f 88de 4f3f 48a4 2c3f
000000d0: f689 063f 19fa cd3e 8b03 c33e 5d4c be3e
000000e0: 2ca1 c43e cb39 863f e58c f93d 6791 5d3e
000000f0: 779b 4f3f 2f22 da3e 69a3 713f f542 4f3f
00000100: 1370 d63d 92cb 4c3f c586 823f 1e0e c03e
00000110: 2405 413e b305 383d c3c1 e53e 1b2b 683f
00000120: b1da 4a3f 555a b23e b634 623f 8816 0c3e
00000130: 19bb 283f 57ec 163f b9b8 1a3f 8e2d 3e3f
00000140: 5290 1e3f fa61 203e fee0 963e d0c1 ba3e
00000150: 0c77 fc3e cf20 463e da30 ba3e ab97 d23e
00000160: c2fc 663f b182 333f 3bdc c23e d953 343f
00000170: 34d2 b43e 43e2 803e 3b48 263e 22d5 b63e
00000180: edf4 dd3e 626d 3f3f 545a 673f 6969 683e
00000190: 2bc9 0a3f 7a8e 883f 7ed8 893e a17f 143e
000001a0: 415b 543f 344a 2d3f 3475 d33e cb8d 023e
000001b0: cab1 3f3f 684a 873f 539f 8b3f 33af 643f
000001c0: 5a0a 7a3e 7850 053c c013 d23e 50a6 063e
000001d0: 20db 393f e63b 253f 7079 8f3f ba45 493f
000001e0: f278 123f 9a89 c53e 53d9 f73e 2007 393f
000001f0: 766b 453e efdc cb3e b17f 513f c2fd de3e
00000200: 4eb5 873f 780f 753f b2d1 623c 45e7 ba3e
00000210: ff06 5fbe 2613 323f e4fc 0f3f 07c3 f23e
00000220: 9ac3 3a3f 0f19 673e 6b76 873f 3578 213d
00000230: ca2e a03e 3906 dfbd 56f5 213f 1580 233d
00000240: a850 6f3f e830 803d 5c27 233f 80ab 0d3f
00000250: 7cf2 523e 43d4 353e 52b7 ecbb 52c7 fa3e
00000260: c70a 6d3e ea0b f63e 7ea3 953e bc7c a33e
00000270: dcfc e73d fea2 4a3f 542e 763f a351 fc3e
00000280: d09f 173e 0b7e 0c3f d19f 683f 36bf 863f
00000290: cd8e 643f 8688 293f d078 f43e eb7e 483f
000002a0: 25f8 49bd 2d78 603f 31f5 e23d 4369 ca3e
000002b0: 779c a63e 0d70 b73e cf63 f93e 0241 f63d
000002c0: 095b a43e fe42 d33d a3be 833f ae4e 993e
000002d0: 6992 863f ab06 453f e6ce 1c3f 4e92 f03e
000002e0: 7371 023f 226e 373f c312 313f 977d 3a3e
000002f0: 483e 183f 7b5f 6a3f 8162 893e 6fe0 823f
00000300: 0fc9 1d3f 3673 623f f370 423e 2b93 fe3e
00000310: a906 413f 37b6 bf3e a052 ea3e b433 6c3f
00000320: ea3c 003f 46e1 563e 92ce 7f3d 2235 2b3f
00000330: 1df1 8b3e bc6d 1d3f 7b91 6c3d e20a 733f
00000340: 6ad1 c83e f147 653f a825 683f 131e 753f
00000350: dff9 063f ea97 fd3e b388 843f 9fd2 2c3f
00000360: a7ea de3d e84c 493e 0a41 4a3f 8198 0d3e
00000370: b896 ef3e 2cd5 7e3e b24a 15be eb12 f53e
00000380: ca32 a03d 17ae 223f 8e73 fb3e d82c f33e
00000390: 633e 6e3f 8803 493f 06fd 033f 6e3b 6ebd
000003a0: 690e 513f fb78 383f 403d c53e 4432 a63e
000003b0: cf7c 023f efb3 523e b927 423d 5281 753f
000003c0: 5882 863d 9260 ad3e 3a9f e73e 292c 773f
000003d0: 2e8d 383f 7c96 a43e e98f 7c3f 6b35 a13e
000003e0: 6b97 173f ebd4 4d3f 87ff 893f b2ae 443e
000003f0: 536d ea3e 59b1 9c3d eaf0 663e 1ae3 8a3f
0.49383092 1.0186079 0.90239865 0.3014899 0.9871573 0.90883744 0.1958826 1.0967637
0.21066025 0.978883 0.7681266 0.4868811 0.99661916 0.57338923 0.46948746 0.7359264
0.27042925 0.18065308 0.28084 0.8912275 0.79969126 0.88467616 0.051432323 0.85538024
0.5515482 0.1986976 0.112837255 0.21962383 0.44317546 0.77839303 0.16789871 0.25319636
0.8902058 0.81137985 0.1146452 0.93063813 0.45518848 0.17403163 0.6053607 1.0224888
0.800062 0.4802033 0.8404434 0.8559398 0.89214694 0.08300129 1.115916 0.8293464
0.93023485 0.6424873 0.8119893 0.67438173 0.5255426 0.40229872 0.3808864 0.37167636
0.38404214 1.0486387 0.121850766 0.21637498 0.81096596 0.42604205 0.9438997 0.80961543
0.10470595 0.79998124 1.0197378 0.3751077 0.18849617 0.04492731 0.4487439 0.90690774
0.79239947 0.34834543 0.8836168 0.1368047 0.6591049 0.58954376 0.60438114 0.7428826
0.61938965 0.15662375 0.2946853 0.36475992 0.49309576 0.19348453 0.36365396 0.41131338
0.9022943 0.70121294 0.38058648 0.7044044 0.35316622 0.25172624 0.16238491 0.35709482
0.43350926 0.7477628 0.90372205 0.22696461 0.5421321 1.066848 0.26922983 0.14501812
0.8295174 0.6769135 0.41300356 0.12749402 0.7488066 1.0569582 1.0907997 0.8932983
0.24418011 0.008136861 0.41030693 0.1314938 0.72599983 0.6454452 1.1208935 0.7862202
0.572158 0.38581544 0.48407993 0.72276497 0.19279274 0.39816996 0.81835467 0.43552977
1.0602205 0.9572673 0.013843941 0.3650457 -0.21780013 0.6956047 0.56245255 0.4741442
0.72954714 0.22568153 1.0583013 0.03942128 0.31285697 -0.10889859 0.6326498 0.03991707
0.93482447 0.06259328 0.6373193 0.55339813 0.20600313 0.17756753 -0.007224002 0.48980194
0.23148642 0.48055965 0.29226297 0.31931102 0.11327526 0.79154956 0.9616444 0.49281034
0.14807057 0.54879826 0.9086886 1.0527103 0.89280397 0.66223943 0.47748423 0.7831866
-0.049308915 0.87683374 0.11081923 0.39533433 0.32541248 0.35827675 0.4870896 0.12024118
0.32100704 0.10315512 1.0292553 0.2994284 1.0513431 0.769633 0.612532 0.46986622
0.5095436 0.71652424 0.69169253 0.18211971 0.59470034 0.9155194 0.26832965 1.0224742
0.61634916 0.8845705 0.18988399 0.49721655 0.7540079 0.37443706 0.45766163 0.9226639
0.5009295 0.20984372 0.06245286 0.6687795 0.27332392 0.61495566 0.05775593 0.9493848
0.3922227 0.895629 0.9068246 0.95749015 0.52725023 0.49529964 1.0354217 0.6750888
0.108846 0.19658244 0.7900549 0.13827707 0.46794677 0.24886006 -0.14579275 0.47865996
0.07822187 0.6354689 0.491116 0.4749515 0.93063945 0.78521013 0.5155796 -0.058162145
0.81662613 0.720596 0.38523293 0.32460225 0.5097169 0.20576452 0.047401164 0.9590045
0.0656783 0.3386274 0.45238668 0.9655176 0.72090423 0.3214606 0.9865709 0.31486067
0.5921542 0.8040301 1.0781106 0.19207266 0.45786533 0.07651014 0.22552839 1.0850556

gatr.geometric_attention.v.weights f4 [12, 12, 9]
00000000: 6514 6c3f 398b 463f 5774 183f 71bc 743f
00000010: a105 bf3e ac3c 033f e737 283f 19b6 593f
00000020: 8aa1 6a3f 7a82 c03d 585f 7c3e 8db3 603f
00000030: bbb2 3a3e 1d88 493f b36c f43e 1c74 873e
00000040: 7451 b83e 3ba4 1b3e 01a1 713f 723b b93e
00000050: 2766 613f 482c 593f c186 cf3d 0ac9 143f
00000060: 8064 9b3e 8ec4 3b3e 39d4 1a3f df5e 733d
00000070: 8121 093f e2e5 503f ceed 673e 6cca 233f
00000080: 484c 4f3f b522 163f 7a82 0a3f 80d1 f43d
00000090: 6943 563f 14e9 fe3e ddf2 7c3f 0765 0d3f
000000a0: 593a 0a3e 7a4c 7b3e 395d a53e ace9 073f
000000b0: 28eb 5b3e dbba 1e3f 02ac 703f 1212 453f
000000c0: 9675 083f 2da8 4e3f 51e3 b83b 849c 0c3f
000000d0: f4a2 d53e f8c3 423f 8707 553e 247c bb3e
000000e0: ee96 ee3e c11a 5a3f 67dc 983e 2e4b 5e3f
000000f0: 7b3a fc3e 612e db3d c1df 3a3f b23a b13e
00000100: 9bc0 343f f548 653e 6579 f33e e0e7 a53e
00000110: e509 373f 9486 623f 4e61 483f 4018 3f3f
00000120: 6315 613f 288f ff3e 3ea9 0b3f 07b8 54bb
00000130: 2b54 cc3e da69 373f 5ead 853e 60ef 093f
00000140: 0e76 023f 3f02 113f 3065 f33e 1670 5c3f
00000150: 6662 133e 2d8d a43e eb6a 393c d901 2f3f
00000160: 5ae7 b93e c04c 4d3f 516a 313f 789c f13e
00000170: 0996 3a3e 6fdb 743f e579 e63e 80be 163f
00000180: b091 2f3e 2e91 1d3f f5bf 2f3f c6dd 043f
00000190: 42d9 873d 8a47 ff3e 5bc4 093f a4df 493d
000001a0: 69f3 bf3d c1de 893e 32ae 2d3d e95e 773f
000001b0: 4903 823e 7bea 1d3f 13bf 313e 56e6 743f
000001c0: 1510 a13e 199a e43d a7ee 5b3f 2eda c33b
000001d0: 7fa6 a63e 07eb 24bb 6c73 043f e91f 253f
000001e0: 2e86 d13e 1a23 723c ff02 163d 8390 7e3f
000001f0: 13a3 3a3f 8e8f 6f3e 5c63 a73e 987b f33d
00000200: 51d5 683f 1030 fe3e 258b 2d3f 5971 293f
00000210: 6656 823e 8500 043f f3be f43e 53b7 df3d
00000220: 59d4 183f 5c7a 8e3e d87e cb3e 1e26 6e3f
00000230: bd82 a03e 73ba af3e acb3 733f 39ba 833e
00000240: 79cc 133f 82a3 083f 045c 013f b723 5c3f
00000250: 56ef 5f3f 53d8 6d3f 0572 6f3f 7fe6 773e
00000260: ea0b 2c3f 1c19 163e c774 dd3b 69fb 063e
00000270: f5ae da3e 18ca 613f 942b 643f 2f69 573f
00000280: 6802 f43e 2a13 623f f9c9 903d 365d f43e
00000290: b645 cd3e 1bd7 633f 21ec ed3e c255 a13e
000002a0: 2483 0c3d eb56 bd3e 6a03 493f f6ca 923e
000002b0: 794e 253b 00f8 103f d56b 793f 7dfb 433f
000002c0: 8773 723f a4cd 483f 2284 4b3f 9b7b eb3e
000002d0: 1ffa 163f 4934 073f a13d 123e 83f5 243d
000002e0: 5683 ce3e ea30 a93e e8a9 f13e 6195 363f
000002f0: 0ec6 7f3f 5c22 fe3e 6052 2d3d f605 8a3e
00000300: fc3a b63e 092e 163f f03c f53e 655c 3e3e
00000310: 1c6a 5d3f 3813 7c3f 0933 ed3e 5371 3c3f
00000320: 20b1 b13e 28aa 6a3f 5ec2 493f 395f 363f
00000330: a5e8 353d 1527 d63d a38e ef3e 9182 6b3f
00000340: 716a 7e3f bde0 cc3e fe65 283f 8f4d 613f
00000350: edbf b23e c43b 053f d88b 843e 3c62 223f
00000360: 4b80 953e 0e6c 203f 5e57 7e3f c95f 123f
00000370: bbaf ad3e ecf7 153f b9d0 733f 77b3 823e
00000380: f1ef 713f d805 473e ae60 693f f0d4 b83e
00000390: 8285 123f 5bbe 983d 26ec 7c3e 43f7 263f
000003a0: cdd9 533f 6517 013f aed8 b93e 4bc2 9c3e
000003b0: f3d8 873d a85e 2e3e 2648 1a3d 136f 1f3f
000003c0: 29b4 563b 1c69 3b3f ab28 163e 9f15 423f
000003d0: 601f 703f 6330 4f3f 374e b93e 0b41 653c
000003e0: 70d6 963e 6e3f 3f3e e473 0d3f 497a cb3e
000003f0: 9c09 0fbd 452b f53e aedc 343f 49c9 743f
0.9221862 0.77556187 0.5955252 0.9560004 0.37308982 0.5126445 0.657103 0.85043484
0.9165274 0.093998864 0.24645746 0.8777397 0.18232243 0.7872332 0.4773918 0.26455772
0.35999644 0.15199368 0.943863 0.36178166 0.880465 0.8483319 0.10133124 0.5811926
0.30350113 0.18336698 0.60480076 0.059416648 0.5356675 0.81600773 0.22649309 0.63980746
0.8097577 0.5864671 0.5410534 0.119540215 0.8369661 0.497872 0.9880808 0.5523228
0.1349882 0.24540892 0.32297686 0.5309093 0.21476424 0.6200387 0.94012463 0.769807
0.5330442 0.80725366 0.0056423326 0.54926324 0.41725886 0.76080275 0.20803653 0.3661815
0.46599525 0.85197073 0.29855654 0.86833465 0.49263367 0.107022054 0.7299767 0.34615093
0.7060639 0.22391112 0.47553554 0.3240347 0.7149947 0.884866 0.78273475 0.7464638
0.8792326 0.49913907 0.5455512 -0.0032458322 0.39907965 0.7164589 0.2610883 0.5388088
0.5096139 0.5664405 0.47538137 0.8610853 0.14393005 0.3213896 0.011316995 0.68362194
0.3630932 0.80195236 0.6930285 0.4718969 0.18221296 0.9564733 0.45014873 0.5888443
0.17145419 0.6154965 0.6865228 0.519009 0.066332355 0.49859267 0.5381524 0.049285546
0.09372599 0.2692776 0.042402454 0.96629196 0.2539313 0.61685914 0.17358045 0.95663965
0.31457582 0.11162204 0.8591103 0.005976937 0.325489 -0.0025164501 0.5173862 0.64501816
0.40922683 0.014778877 0.03662395 0.9943926 0.7290508 0.23394606 0.32692993 0.11888808
0.90950495 0.49646044 0.6779044 0.6618858 0.25456542 0.5156329 0.47801933 0.10923638
0.59699017 0.27827728 0.39745212 0.9302691 0.31349745 0.34321937 0.9519603 0.25728014
0.57733876 0.53374493 0.5053103 0.85991997 0.8747457 0.9290821 0.93533355 0.24209021
0.6720568 0.14658016 0.0067583057 0.13181843 0.42711607 0.88198996 0.89128995 0.8414487
0.47658086 0.8831049 0.07069773 0.47727364 0.40092248 0.890001 0.46469215 0.3151074
0.034304753 0.36980376 0.78520834 0.28670472 0.0025223775 0.5662842 0.97430164 0.76555616
0.9470753 0.7843878 0.79498494 0.4599274 0.58975405 0.52814156 0.14281322 0.0402732
0.40334576 0.3304513 0.4719994 0.71321684 0.9991158 0.4963559 0.042314887 0.26957673
0.35591877 0.58663994 0.47898054 0.18589933 0.86490035 0.98466825 0.46328 0.7361042
0.34705448 0.9166589 0.78812206 0.7123905 0.04441132 0.10456673 0.4678851 0.91996104
0.99381167 0.40015212 0.6578063 0.8800897 0.34912053 0.5204432 0.25887942 0.63431144
0.29199442 0.6266488 0.9935206 0.57177407 0.33923134 0.58581424 0.9524036 0.25527546
0.94506747 0.19435823 0.91163146 0.36099958 0.57234967 0.074581824 0.24699458 0.6522104
0.8275421 0.5042632 0.36298126 0.30616984 0.06633177 0.17028296 0.037666462 0.6227886
0.0032761192 0.7320726 0.14663951 0.7581424 0.93797874 0.8093321 0.36192486 0.013992558
0.29460478 0.1867654 0.5525496 0.39741734 -0.034921274 0.47884575 0.7064923 0.95619637

gatr.geometric_attention.output_projection.weights f4 [12, 48, 9]
00000000: 4684 073f 1b4f 343f 0687 143f 85e9 283f
00000010: c68f 4a3f a91b 953d 13e3 973e 071d 023f
00000020: 69e3 363f eaa2 0c3f c432 483e c111 ce3d
00000030: 73f4 733f 6d3a ed3e db87 b03e de26 343f
00000040: 2000 3f3e c58c 503f bc28 8f3d 8939 693d
00000050: b33c 5e3f 07d5 493f dbca 463f 4a3e 923d
00000060: d6c7 4d3f d346 003d d348 1a3f f4a3 3e3f
00000070: f6d1 7a3f cd06 343f 783e 573f 488c 4c3f
00000080: 362a 323f 47bc d53d f196 bf3c b076 0e3e
00000090: 8224 6f3f 9d86 3f3e fe2f 7d3c c2dc a73e
000000a0: 55c4 693e fb59 433f 6ab3 d63e 2df1 693e
000000b0: 7039 213f bbae 9ebc 9063 2f3e 0823 1c3e
000000c0: a5af 2a3f ce78 613f 108d 7f3f e18e ec3d
000000d0: c617 493f 9449 0a3f 9110 6e3f 64f9 313f
000000e0: 67e7 cb3e 8257 713d 61b0 083f 03ac 3a3f
000000f0: 3b42 433f dc60 4c3e a498 3c3f 5792 4e3f
00000100: 37e1 293f 4a63 513f 0f62 1f3f 25d5 033f
00000110: 5a21 043f 7543 733f 4fb8 713f d46f 563f
00000120: bf85 a73d fd8f 013f 3d55 533d 6aff c83e
00000130: d661 523e 67ed 123f acae 453f d45c f33e
00000140: abdb 073f 3ba5 993e d3a9 ab3e 9a46 443f
00000150: 765d 623f 3ad0 e73d c314 253f e43c 743f
00000160: 4ad9 7f3f 9194 523f e9b8 0c3f 2582 7b3f
00000170: 4f01 323f a9be 2a3e 8e4f 3c3e b4d5 9e3c
00000180: 5f5c fd3e a50b 1d3f 4c9d 3a3f cf41 563f
00000190: b255 7a3f b6ec 193f c8ef 183e a2bc d23e
000001a0: 76f9 473f 99af 3d3f 61d0 513f 271e 3c3f
000001b0: 2207 de3e 1eb1 1d3f 5b1d 0f3e 1e06 6f3f
000001c0: 102d 333f 9181 403e 1867 523f 90ae 0c3f
000001d0: badc a53b 170d 9a3e 025c b03e 7e9d be3e
000001e0: 62d6 ee3d dbe9 aa3e 7bd2 f63e e9ba 7f3f
000001f0: cb7a 473f 02b3 0c3f 4576 f33d 6df3 013e
00000200: 9d57 103f 2819 f63e 95a2 c53e 4e85 783f
00000210: d7a9 1f3f 765c 5e3d bea5 153f 9211 f43e
00000220: 9436 543c 9e42 3f3f d4f8 023f 4b16 583f
00000230: d36f 3c3f e95a 1a3f 6be2 753f 87a1 793f
00000240: 702d 263f 8ef9 033f d0b7 4d3f 3c29 e73e
00000250: b93b 633f 9171 043f 0c2f b03e ea06 c53e
00000260: c8ee 503f f957 fa3e 65ed 6f3e d887 203f
00000270: 5504 a83e 99b5 e43e d7ab c23e 9c17 013f
00000280: 2b1e 703f c18c 183d 61e5 613f 625b 2b3f
00000290: 047c df3e f39d e13e 7106 6f3e b93a 533f
000002a0: eb03 c13e 320f 533f f40b 7c3f 2aa5 1ebb
000002b0: a986 0b3f 27a4 ca3d 2555 c93e 1ae1 7b3d
000002c0: 2aec 3c3f 4bb1 f33e b916 083f d0d3 933c
000002d0: 178a 743e a279 803e 5485 233f e354 763f
000002e0: 341b da3e f9aa 983e 4911 7b3f 7406 263f
000002f0: 5441 8b3e 6f01 483e 8122 783f d3e3 a13e
00000300: bd50 1b3f 9bc4 a73e f53f 203f 69f1 ff3e
00000310: 5a13 123f 2068 6b3f 3b80 fc3e 7dff a33e
00000320: 51a5 453c cb53 623f dc63 933e 46a5 513f
00000330: 2a81 193f ad34 753f ba0b 5e3f 82d3 21bd
00000340: 8ecd 143f bac5 633e e734 6c3e 7ac0 233f
00000350: 47f0 3a3f 5111 c03d cd9b 2b3f 638b 7d3f
00000360: 0a1b de3d 5657 a33c 8a83 6e3e f13a f83e
00000370: 5462 f83c ad3b b43e 3452 7e3f 8923 b93e
00000380: c085 a73e 156b d43e dd93 0a3f 5584 8e3e
00000390: 2c63 393e 06b6 623f e24e 483e 7186 273e
000003a0: 2fa8 773f 7606 dc3e e35c 673f b658 6a3f
000003b0: bae7 5d3f f107 2b3f 40a2 7b3f c00d 023f
000003c0: 943b 763f b197 6d3e 8a0a 4a3f 21f5 fa3e
000003d0: 6790 263e 74d6 073f 8ecd 7c3e dd3f dd3e
000003e0: 8fcb bc3e 4d69 2f3e 64f8 763f ffca 843c
000003f0: cb6d f53d e794 173f 0d18 123e f514 433e
0.5293621 0.70433205 0.5801853 0.6598132 0.7912563 0.072806664 0.2966543 0.5082554
0.7144075 0.5493609 0.19550616 0.1006198 0.95294875 0.46333638 0.3447865 0.70371807
0.18652391 0.814648 0.06990191 0.056939635 0.8681137 0.7884068 0.7765328 0.07140787
0.8038305 0.031317543 0.6026737 0.7446892 0.97976625 0.7032288 0.84079695 0.7990155
0.6959566 0.10436302 0.023387404 0.13912463 0.9341508 0.18703695 0.015453337 0.32785612
0.22828801 0.76309174 0.41933757 0.22845908 0.6297827 -0.019370427 0.17127824 0.15247738
0.6667426 0.8807496 0.9982462 0.115506895 0.785519 0.5401852 0.9299403 0.69521165
0.39824983 0.058921345 0.5339413 0.7291872 0.76272935 0.19958824 0.7367041 0.80692047
0.66359276 0.8179213 0.62259 0.5149711 0.5161339 0.95024806 0.9442186 0.83764386
0.08179807 0.50610334 0.05159496 0.39257365 0.20545134 0.573935 0.77219653 0.4753176
0.5306956 0.30008873 0.33528003 0.7667023 0.8842386 0.11319013 0.64484805 0.9540541
0.9994093 0.82257944 0.5496965 0.9824546 0.69533247 0.16674294 0.18389723 0.019389011
0.49484536 0.61345893 0.72896266 0.83694166 0.9778701 0.6012682 0.1493522 0.4115954
0.7811502 0.74096066 0.81958586 0.7348351 0.43364817 0.61598384 0.13976042 0.9336871
0.69990635 0.18799426 0.8218856 0.5495386 0.005061713 0.30088112 0.34445196 0.37229532
0.11661984 0.33381543 0.4820746 0.9989458 0.7792174 0.54960644 0.118877925 0.12690516
0.5638369 0.48066068 0.38600603 0.97078407 0.6236853 0.054287396 0.5845603 0.47669655
0.012952466 0.74711025 0.5116093 0.84409016 0.7360813 0.6029497 0.9604861 0.97512096
0.6491308 0.51552665 0.803586 0.45148647 0.88763005 0.5173579 0.34410894 0.38481838
0.8161435 0.48895243 0.23430403 0.6270728 0.32815805 0.44669798 0.38021728 0.5042665
0.9379603 0.03724361 0.8824063 0.66936314 0.43649304 0.44065818 0.23342301 0.8251148
0.37698302 0.8244506 0.9845574 -0.0024207332 0.5450235 0.09894591 0.39322773 0.06149397
0.7379786 0.475962 0.5315967 0.018045336 0.23880802 0.25092798 0.6387532 0.96223277
0.4259888 0.29817942 0.9807325 0.64853597 0.2719828 0.19531797 0.9692765 0.3161913
0.6067007 0.32767186 0.6259759 0.4998887 0.5706078 0.9195576 0.49316582 0.3203086
0.01206334 0.8840911 0.28787124 0.8189281 0.59962714 0.957835 0.86736643 -0.03950835
0.5812615 0.22243395 0.23067056 0.6396557 0.73022884 0.09378303 0.6703461 0.9904081
0.10845001 0.019939106 0.23292366 0.4848247 0.030320324 0.3520178 0.9934418 0.36159924
0.3271923 0.41487947 0.5413187 0.27835336 0.18104237 0.88558996 0.19561341 0.16359879
0.96741 0.4297368 0.9037611 0.9154161 0.8668171 0.6680899 0.9829445 0.5080223
0.9618466 0.23202397 0.7892233 0.49015144 0.16266023 0.53061604 0.24687788 0.43212786
0.36874053 0.17130013 0.96472764 0.016210077 0.11983832 0.5921158 0.14266987 0.19050963

gatr.geometric_bilinear.geom_linear_1.weights f4 [6, 12, 9]
00000000: 1e35 033f 5954 413f c753 243f 8af6 1c3f
00000010: dbe1 053e d572 aa3c 1592 083f d88a 46bb
00000020: 62cc 3c3d e106 5e3f 24af b63e 713f 593f
00000030: b09d b53e 35ef 273e fd21 673f 1d4c c43e
00000040: 0a69 453e 00c6 3a3f 8f78 bd3e 2457 673f
00000050: 5d46 393f 3115 333f e5b4 133f cae5 8c3e
00000060: 93d7 353e 67f0 343f f998 3a3f c69a 863d
00000070: 302a 7e3e feae 663e db0e 363e 3816 333d
00000080: 87da 643d b002 5f3f 35f3 5b3f 686c 7d3f
00000090: 4701 583f 62f5 513f 91d9 5f3f 37fc 5b3f
000000a0: 714a 773f 6bdc 473f 3ed7 703f 2d1a 0e3e
000000b0: 72a9 0a3e 56fc 183f c202 d63e f8dc f13c
000000c0: ad86 973e 9235 2d3f 23f0 a23e c14b 293f
000000d0: 343d d33e adbc 9d3e 8c4d 783d add7 8a3e
000000e0: 8be7 e13e ad1f 163f d6da 723e c13d 2c3f
000000f0: b40c 273f 6fe7 663e 8958 183f 39d0 f43e
00000100: 75ca e93d 7082 723f 05ff ca3d 6690 a83e
00000110: 0595 6f3f 2b55 503f 6b2d f13d 31f3 ba3e
00000120: 488c f83e 1614 eb3e c239 743f a222 ce3c
00000130: b509 223f 1194 213e 1ae5 ad3d f8cb 703d
00000140: 29bc 9b3e 3ed9 de3d 131d 263f f728 da3e
00000150: 619a 623f 1e59 353f 3bf2 293e 4a71 2e3f
00000160: f03d 283e 2add e03e da96 3e3f feec 553e
00000170: c76a 203f 07d8 1a3f e5dd c23e 706b 873c
00000180: 81c8 ed3d a97e 083f 49fa 8d3d 2d38 4d3e
00000190: 3946 e83e 9caf 653f 4e9d 473f 72d0 573f
000001a0: 6594 d73e dcb2 c73c 9591 9c3d 2aba 2c3e
000001b0: 9cc7 393f d6a2 533e 6761 7b3f f70d c23d
000001c0: 8407 343f ca30 023e f9b8 723d 03e1 fb3c
000001d0: b7f8 3d3f 8834 623f 3879 783f 39c1 943e
000001e0: b31b 623e 855e 203f d5c4 183e 64dc 2e3f
000001f0: 50dd 413f e0b4 c03e 85a2 043f c80d 6d3f
00000200: 1d69 1f3f 9d18 2e3f 512c 6e3f 42c3 453f
00000210: 568a 693f 8a34 5c3f 6a65 973d 25ed 193e
00000220: d279 4e3f 4b64 8d3e c447 803e 94ec e43e
00000230: 7e55 ee3d 8a36 be3e 2382 573f 0857 7a3e
00000240: 3817 2d3e b0bc 7c3f ea1c 0b3f 7a60 1a3f
00000250: b084 3f3f 36c3 583f 37ca 243f b9be 523f
00000260: bc89 4a3e 4fce 153e 322c 3c3f 9e4b 563f
00000270: 2d23 db3e 7b62 d83e 0508 343f 18de 803f
00000280: e682 283f 341f 373f 5582 023e de68 bd3e
00000290: 431f ed3e e122 793f eb9b 653f e8fd e23e
000002a0: 751d 3a3e 6e5e 993e 7973 233f d40b 0b3f
000002b0: 4c88 083e 43ea 553f 48c4 f9bb 13b7 403f
000002c0: 1c23 493f e28d ab3e 7e56 e83e fe6a 0b3f
000002d0: 178f 733c ab4f 6f3f 68d9 4b3f b9db f63e
000002e0: 7f35 d43e 2d42 7b3f 4578 273f 1d37 c83d
000002f0: 102f 4b3f c7c0 603f 87e7 443f 15d1 673e
00000300: ea7d 763e beeb 2e3f 0ad9 093f 5db8 e63e
00000310: ccaa d63e 7d3f 113f 2a31 303f 3673 963e
00000320: 6b73 783f 837c ca3e 235e 0f3f 0ebe 393f
00000330: 7886 433f e263 4a3f 9b92 013f 24ca 793f
00000340: 7900 f63e 36d2 583f 2d50 463f 58db 3f3f
00000350: 85c8 413f 8d8b 363f 7cb4 213e e451 533f
00000360: cce8 0d3f e5fe 073f f338 203f 86e2 5b3f
00000370: 32d2 693f ab4c 593f 381c 263f d607 ca3e
00000380: b268 743f 9e39 213e cb8f 663e d3b2 b33e
00000390: fb32 223f 576b 333e 7fe2 663f 15f4 443f
000003a0: 367a f13e 4c39 3b3e b9a3 893e 1e02 1d3f
000003b0: 695a 923e fff5 253e 6b01 f93d a6c9 1a3e
000003c0: ba44 af3e 49cf 813d 5d88 db3e ad0e 0d3f
000003d0: c987 eb3e d605 9a3d 9dba 5e3f 163e 4e3f
000003e0: e467 be3e 918d 6f3f 833e 513f d07b 043f
000003f0: 52d0 b83d 4347 693f 0284 613f f27d 7c3f
0.51252925 0.7551933 0.64190334 0.6131369 0.13074438 0.02080671 0.53347903 -0.003029516
0.046093352 0.86729246 0.35680497 0.8486243 0.3547187 0.16399844 0.90286237 0.3833932
0.1927835 0.72958374 0.3700604 0.9036734 0.7237299 0.6995421 0.576979 0.27519065
0.17758016 0.70679325 0.7288967 0.065724894 0.24820781 0.22527692 0.17779104 0.04372236
0.055872466 0.87113476 0.8591798 0.9899354 0.8437695 0.8201505 0.87441355 0.85931724
0.96597964 0.78070706 0.94078434 0.13877173 0.13541201 0.59760034 0.4179898 0.029524311
0.29594937 0.67659867 0.31823835 0.66131216 0.41257632 0.3080801 0.06062083 0.27117673
0.44121966 0.58642083 0.23716292 0.6728173 0.6525376 0.22549222 0.59510094 0.4781511
0.11415569 0.9473028 0.09911922 0.32922667 0.9358676 0.81379956 0.11776241 0.36513665
0.48544526 0.45913762 0.9540063 0.025162999 0.6329606 0.15779139 0.08490963 0.05878827
0.30416992 0.108812794 0.64888114 0.4260938 0.88516814 0.7083911 0.1659631 0.68141615
0.16429877 0.43918735 0.7444893 0.20891187 0.6266293 0.6048588 0.38059917 0.016530722
0.11610509 0.5331827 0.06932504 0.2004096 0.45366076 0.89721084 0.779744 0.8430244
0.42105404 0.024377279 0.07644955 0.16867891 0.72570205 0.20667586 0.981955 0.0947532
0.7032397 0.12713924 0.059258435 0.030746942 0.74207634 0.88361406 0.97059965 0.29053667
0.22080879 0.62644225 0.14918835 0.6830504 0.7572832 0.37637997 0.51810485 0.92599154
0.62269765 0.68006307 0.9303637 0.77251065 0.9122671 0.8601767 0.0739239 0.1503187
0.80654633 0.2761558 0.25054753 0.44711745 0.116374 0.37150985 0.8418295 0.24447262
0.16903389 0.98725414 0.54340994 0.6030346 0.7481184 0.8467287 0.64371055 0.8232227
0.19779104 0.14629482 0.73504937 0.8370913 0.42800274 0.42262635 0.70324737 1.0067778
0.65824735 0.7153199 0.1274503 0.3699407 0.46312913 0.97318846 0.89691037 0.4433434
0.181753 0.29954857 0.6384807 0.54314923 0.13333243 0.8356058 -0.0076222755 0.7527935
0.785692 0.33506685 0.45378488 0.5446013 0.014865658 0.9348094 0.7962861 0.4821451
0.41447064 0.9814785 0.6541789 0.09776137 0.79368687 0.87794155 0.7691578 0.22638352
0.2407147 0.68328464 0.538468 0.45062533 0.41927183 0.567375 0.6882502 0.29384774
0.97051114 0.3954812 0.56003016 0.72555625 0.7637706 0.7905866 0.5061433 0.9757407
0.48047236 0.84695756 0.7746609 0.74944067 0.75696594 0.7130669 0.15791506 0.8254683
0.55433345 0.53123313 0.625869 0.8589252 0.9133636 0.8488261 0.6488681 0.39459103
0.9547225 0.15744635 0.2251579 0.3509737 0.6335904 0.17521416 0.90189356 0.7693494
0.47163552 0.18283576 0.26882723 0.61331356 0.28584602 0.16207121 0.121584736 0.15115985
0.34232122 0.06338365 0.42877474 0.5510052 0.46002033 0.07520644 0.870035 0.80563486
0.37188637 0.9357539 0.8173601 0.5175142 0.09024109 0.9112436 0.8809205 0.9862968

gatr.geometric_bilinear.geom_linear_2.weights f4 [6, 12, 9]
00000000: dded 793f 15de 2b3e a463 be3d ed1d 3e3f
00000010: fbdd 5e3f 1a25 193f 08d8 173e b8eb 543f
00000020: 1632 6f3f afa4 c63e ba0c 3f3e c83a 173e
00000030: e9b8 a93d da89 4f3f 5418 bb3e 07dd de3e
00000040: a804 143f b742 033e c6ef 3b3f 1618 e43e
00000050: 3126 8b3e f0a9 953e 198e b23e e59a 603f
00000060: 5588 643f fb2a 493f 4765 ea3e 0911 5e3e
00000070: 800a 053e 17da 543f c530 6c3c 7414 273e
00000080: fe2c 4c3f 87bb 4b3e db7a ba3d 0b1f 523f
00000090: ff8d 573f d72d 823e ff37 2c3b 210c c13e
000000a0: acfe 293e 1f58 c23d 4dfc 313f 8656 e6b9
000000b0: 5549 e93d 7a75 0c3e 896c d33e 66ad 243f
000000c0: e793 b33e 73dc 0f3f c89c bd3e a681 b33d
000000d0: 0e70 333f dd42 d23d 4b9e a13e 6441 453f
000000e0: bedd 333f da64 133e a79e 8a3e 6b94 653f
000000f0: ca54 0e3f 2a24 643f 1f4f ca3e 2bae 3c3f
00000100: 1bfb 153f 8507 643e 5e87 f63d 9ff5 ef3e
00000110: d9bf 3d3e d49b 443d 78c9 e83e 145e af3b
00000120: b3f0 223e 8c2a 003f 7191 2539 e461 f23e
00000130: c9d7 233f 1063 3b3b 0b46 f93e 4709 003f
00000140: c539 433f 208c 023f 8af3 033f e1d5 5e3f
00000150: 7cab 683f 8ebb 4a3d 8439 3d3e def0 eb3e
00000160: 7c99 563f 86dd 6f3f d638 223d d45f 103f
00000170: aac0 e93e bcb3 3a3d a32c 423f 33d4 4d3f
00000180: be12 e53e cb9e 453f 9a88 393d f6c7 173d
00000190: 4e51 bf3e a09f 213e 2448 603e 1e14 343f
000001a0: aef0 813e a420 633f c8cc a73e 5836 443f
000001b0: d961 1d3e a4f2 703f 41f8 383f 2fc4 4a3f
000001c0: dfe1 5c3f a3fb d63e 6694 403f 68cf 9e3e
000001d0: 11bb 2d3f 7773 7c3f 3868 363f 6ddb 2f3f
000001e0: 06b0 963d 3fea ca3e 9928 903e b950 093f
000001f0: 4d84 5d3f bb23 aa3e 9bd9 2c3f 87f9 613e
00000200: f385 953e 4fdd 2e3f 9cfd 643f af6f b03d
00000210: 0075 4a3f f5a5 a73d 91b0 193f 06aa cd3e
00000220: 895f 0a3f 07c1 563f aa3b ae3e 1d13 e83e
00000230: c85d 1c3f 5c1e 673f 04f4 943e c89c 483f
00000240: 2977 2d3e 1cb1 133e 8c96 833d a59e 413e
00000250: 8261 483d 97e7 073f f941 733f b4d6 a53e
00000260: b390 af3c 6ae8 ad3e 4b8e 783f fac3 3e3f
00000270: 4ce9 233e 2f38 753e 879d 023f 36b6 753f
00000280: 5028 b03e 15c8 243f eb90 dc3e 0d32 523e
00000290: 7c11 633f 5513 923c 8d17 543e 80df 413f
000002a0: beef 163f 6f4a 80bb 1c13 a13c d4da 3d3d
000002b0: 0db4 883f d8c5 1abd c0a4 3d3f b454 6a3f
000002c0: e157 563f c047 623f 2911 fe3d cdd6 bb3e
000002d0: f67e 3d3f 3ed2 803f f4b2 553f aff7 c33e
000002e0: bfe8 563e 8b53 173f 1c47 013f 1971 163f
000002f0: 0e4e 083e 0f5c 363f 4703 0b3f 1ba1 913e
00000300: ee3d 053f 833d 533d 7f39 783f c01a 383f
00000310: 6ef5 4b3f 0f92 143f 197b 883e 0dcc 0a3e
00000320: c778 083f 04f4 4f3f 518d da3e 9e4f 6d3f
00000330: 2297 373f 87a6 b13e f48e 7a3f 39c7 b93e
00000340: d908 713f 93d2 583f 7767 013f ddbc 543f
00000350: 2e9e 753d e2b3 0e3f 5c12 463f 46ef 683f
00000360: 06f4 243f 6791 843e 4a45 133e e8de 193e
00000370: eb27 2f3e 6c98 083e d87a c83d 6f2a b33e
00000380: c580 ba3e 75a7 013f f814 113e a335 283f
00000390: edba 603f 519e 4a3f f5c6 cb3e 8fbd 7c3e
000003a0: 554b 033d 81bd ad3e 839c c13d 52ca 663e
000003b0: 7fb1 4c3f ce36 c23e c023 383f 1130 063f
000003c0: b2a2 4c3e c04c 093d 3ae0 0a3e 1561 5c3d
000003d0: 4d2e 783f c2ef 313f e5c7 693f 1596 2c3f
000003e0: 7d30 403f d645 753f 05ca 343e 620a dd3e
000003f0: 55d4 a93e 8030 273e b2a6 853e 3d2c 513e
0.97628576 0.16783936 0.09296349 0.74264413 0.87057465 0.5982224 0.14828503 0.8317218
0.934358 0.3879752 0.18657199 0.14768517 0.08287222 0.8106972 0.36541998 0.43528005
0.57819605 0.12818418 0.7341274 0.44549626 0.27177575 0.29231215 0.34874037 0.8773635
0.89270526 0.7858121 0.45780393 0.21686186 0.12992287 0.8314528 0.014415924 0.16316396
0.7975615 0.19895755 0.09105464 0.8207862 0.84201044 0.25425598 0.0026278493 0.37704566
0.16601056 0.09489464 0.69525605 -0.00043933484 0.1139094 0.13716689 0.41293743 0.64327085
0.35073778 0.56195754 0.37033677 0.08764963 0.70092857 0.102666594 0.3156608 0.77052903
0.70260227 0.1439394 0.27074167 0.8967959 0.5559813 0.8911768 0.3951349 0.7370326
0.5858628 0.22268493 0.12037538 0.46867082 0.18530215 0.04800017 0.45466208 0.005351791
0.15912132 0.5006492 0.00015789807 0.4734031 0.64001137 0.0028592981 0.4868625 0.50014156
0.76260024 0.50995064 0.51543486 0.87045103 0.90886664 0.049495272 0.18478972 0.46082205
0.8382795 0.9369739 0.039604984 0.5639622 0.45654804 0.045581564 0.7584936 0.80401915
0.44740862 0.77195424 0.04529629 0.037055932 0.37366718 0.15783548 0.2190252 0.70343196
0.25378937 0.8872168 0.32773423 0.7664542 0.15369357 0.9412024 0.72253805 0.792056
0.8628215 0.4198886 0.7522644 0.31017613 0.67863566 0.98613685 0.71252775 0.6869419
0.073577926 0.3963184 0.28155974 0.536388 0.8653 0.33230385 0.6751954 0.22067843
0.29203758 0.6830644 0.8944948 0.08615052 0.7908478 0.08185951 0.60035044 0.4016878
0.54052025 0.83888286 0.34029895 0.45327082 0.610806 0.902807 0.2909242 0.7836423
0.16939987 0.1442303 0.06425199 0.18908174 0.048921116 0.53087753 0.9502254 0.32390368
0.021431303 0.3396638 0.9709212 0.74517787 0.16006964 0.23947214 0.5102162 0.95981157
0.34405756 0.643678 0.43079314 0.20526905 0.88698554 0.017831484 0.20712109 0.7573166
0.5895957 -0.003915123 0.019662432 0.04635127 1.0679947 -0.037786335 0.74079514 0.91535497
0.8372784 0.8839073 0.12405617 0.36687317 0.7402185 1.0064161 0.83476186 0.38274905
0.20987223 0.5911185 0.5049913 0.58766323 0.13311026 0.7123422 0.54301876 0.28443226
0.5204762 0.051572334 0.9696273 0.7191582 0.7967137 0.5803537 0.26656416 0.13554402
0.5330929 0.81231713 0.4268594 0.9269961 0.71714985 0.34697363 0.9787438 0.36284807
0.94154125 0.8469631 0.505485 0.8310068 0.059965305 0.5574323 0.77371764 0.909901
0.6443485 0.25892183 0.143819 0.15026438 0.17105071 0.13339394 0.097890556 0.34993312
0.36426368 0.50646144 0.14168155 0.65706843 0.87785226 0.7914782 0.3980023 0.24681686
0.032054264 0.33933643 0.0945368 0.22538117 0.7995834 0.37932438 0.7192955 0.52417094
0.19983938 0.03352046 0.13562098 0.053803522 0.9694565 0.69506466 0.9132064 0.67416507
0.7507399 0.95809686 0.1765519 0.43171984 0.3316981 0.16327095 0.2610374 0.20427032

gatr.geometric_bilinear.join_linear_1.weights f4 [6, 12, 9]
00000000: bfa3 673f fc5b c13e 6d07 113f 6b58 f83e
00000010: 8376 103f e9b8 6c3e 4133 833d c777 7c3f
00000020: 63b8 093f 7703 d73e 87c3 203f cbb7 3a3f
00000030: d10a 063f 1b1b 4e3f 0d9b 753f 9007 8d3e
00000040: 6027 663e aefa 8b3e 0e2b 203f 3f30 e43e
00000050: 5cf0 713e 8053 6a3f 29c3 2c3f 5c50 0d3e
00000060: 9aa1 2d3f a4d3 da3e 21a4 313e 9502 583f
00000070: cb3a 233f 6e18 453f e33f 183f 48f5 443f
00000080: 7e24 8d3e 58a9 b43e 3250 123f c5dd 583f
00000090: 5042 b13d 1de2 723e acaa 483f a8b1 793f
000000a0: 1cbd 153f 2b0e 7a3f f5b2 493f 08af 123f
000000b0: 98f3 823d d405 743f 440a 083e d1da eb3e
000000c0: 248e 0a3e 3d6d 663f 31a8 173f 3cee 0c3f
000000d0: 17c3 1b3f 751b 223e b05f 3e3f 4295 983e
000000e0: 7cf3 ce3e d1e7 173f d180 6a3f 837f 1f3f
000000f0: a868 843d 8ba6 783f 3a78 6f3c c151 583f
00000100: 256e 333f c908 7c3c c537 503f 506a e03e
00000110: 925e 203f b458 eb3e d9f8 373f 992c 2a3e
00000120: 3362 f53d fb5f c13e 9fd6 973e cfc4 123f
00000130: 9161 6a3f f75e 3c3f 180f ea3c 8d09 183f
00000140: c231 613d 9172 4a3f 801b 653f dd9c 673f
00000150: b924 623f 5e2d 3b3f 5e6a 023f 38bf 8e3d
00000160: 97c0 ec3e b17a ac3d 1702 363f d607 cd3e
00000170: c803 503e 7cc8 6d3f d481 5f3e ef50 773f
00000180: 78f0 603e ea9e 883e 6cb3 f33e fe00 233f
00000190: d7ed 6d3f 6066 753f 5ae1 103f 56cf 6d3b
000001a0: 24e4 f83e 15a6 1c3f 963f 4a3f 076b 073f
000001b0: 4efb c63e 8d5b 773f ac99 263f f63f 423f
000001c0: a953 743e e808 913e a963 453d c2be 473f
000001d0: f913 dd3e 7898 083f a7ae 4d3f cd95 2b3f
000001e0: 6a12 d93e aa6e e93e 9962 1c3e 272b 6e3e
000001f0: 143a 443f bfe1 b63d 5c1d 283e 154b c43e
00000200: d833 7d3f 0a34 223f c8c9 f73e c2d5 6a3f
00000210: 168d 163f bbdd ae3c 9ceb 0d3e 6510 7e3f
00000220: a546 103f 1640 c93e 3464 303f ca76 a03d
00000230: f813 913e 504e 1a3f ea8f 2b3f 2c8b 573f
00000240: f691 3e3f 580c f03e af9b 833e 08bd 773e
00000250: 1c93 b43e bf11 0f3d 7003 653f 3956 ee3d
00000260: 645a 353f 85e8 9b3e 2664 c63e b636 a43e
00000270: 8546 193f b8fa 2a3f 1bbb f83e d162 053f
00000280: 0965 d23e 5dae 183f d667 2c3f 1764 2d3f
00000290: 5755 1a3f 30a5 ad3e 076b c23e f54f db3e
000002a0: 9363 533f 166b 143f 1fc0 803b 93a8 093f
000002b0: 65e7 4d3f b6a3 2a3f 4893 803d 7bfc 1d3f
000002c0: 06eb 7c3f 2779 003f af41 5e3e ae4e aa3e
000002d0: d96c 1b3f a4b0 493f 1cb1 dc3e 90a7 0f3f
000002e0: 6c11 7c3f 683c 4d3f 57e5 273f 0099 a53e
000002f0: 2a89 5a3f de00 633f e9f9 593f 6aa0 a33e
00000300: a7c0 8e3e 5757 343f ff0a a03e 4528 6c3f
00000310: 3329 7f3f fa76 ff3e 9c84 383f 2af6 613f
00000320: 8173 233d 832b 773e da77 9e3e 8d37 553f
00000330: a63f 073e b61d 6b3f 3b96 783d b92e 2d3f
00000340: 2589 3f3f 8c83 083f 4036 433f 2d2f 103f
00000350: db0b 5e3e 518a f03e f344 b43e 10f9 533e
00000360: 5af1 6e3e 3ecb 033f 685f bf3e bf74 0a3f
00000370: f504 483e d76d d03e 1abe 6c3f 1543 3a3f
00000380: e08e 813d e0e6 903e 21b8 273e 9519 0c3e
00000390: 447e 553f e835 363e 30e3 443f 8682 623f
000003a0: 8fca 4d3f 30d8 e83e 9b40 6d3f 8e81 7b3f
000003b0: 33aa 7f3f 7d17 1d3f 3879 4d3e af61 373e
000003c0: 43c3 6b3f 6317 893e d591 de3e 44ab 6e3e
000003d0: f5c9 2f3f 8270 173f 2ac6 0d3f f7df 613f
000003e0: 06e5 c63d 421a 403f eeed 1b3f d468 273f
000003f0: 537f 7a3f df4f 103f 9c4f ab3c ce6c 703f
0.9048423 0.3776549 0.56651956 0.48504958 0.56430835 0.23117413 0.0640626 0.98620266
0.53796977 0.4199483 0.6279835 0.72936696 0.52360255 0.8051011 0.95939714 0.27544832
0.22475958 0.2733969 0.62565696 0.4456806 0.23626846 0.9153366 0.6748529 0.13800186
0.6782471 0.42739594 0.17347766 0.8437894 0.63761586 0.769904 0.59472483 0.7693677
0.27566904 0.3528545 0.5715362 0.84713393 0.08655226 0.23719068 0.78385425 0.97536707
0.58491683 0.9767787 0.7878869 0.57298326 0.06394118 0.95321393 0.13285166 0.4606538
0.13530785 0.90010434 0.59241015 0.55051017 0.6084456 0.15830787 0.7436476 0.29801375
0.4042014 0.593381 0.9160281 0.6230394 0.06465274 0.97129124 0.014616067 0.84499747
0.7008994 0.015382954 0.813351 0.4383111 0.626443 0.45966113 0.71864086 0.16618575
0.11981621 0.3776854 0.2965593 0.57331556 0.91555125 0.73582405 0.02857165 0.59389573
0.054979093 0.79081064 0.89495087 0.9047373 0.88337284 0.731161 0.50943553 0.06970066
0.46240684 0.08421839 0.7109694 0.4004504 0.20313942 0.9288404 0.21826869 0.9660787
0.21966732 0.26683742 0.47597826 0.6367339 0.9294104 0.95859337 0.5659386 0.0036286912
0.48611557 0.6119092 0.79003274 0.52897686 0.38863605 0.9662407 0.65078235 0.75878847
0.23860039 0.28327107 0.048190746 0.7802545 0.431793 0.5335765 0.80344623 0.6702545
0.4239686 0.45592242 0.15271987 0.23258649 0.7665112 0.089297764 0.1641745 0.38338533
0.9890723 0.63360655 0.48396134 0.9173242 0.5880903 0.021345964 0.13859409 0.99243766
0.56357795 0.39306706 0.689029 0.07835157 0.28335547 0.60275745 0.6701647 0.84196734
0.7444147 0.46884418 0.25704715 0.24193203 0.35268486 0.034929033 0.8945837 0.116375394
0.7084105 0.30450836 0.38748282 0.3207299 0.5987323 0.66788816 0.4858025 0.52103907
0.4109271 0.5964106 0.6734594 0.6773085 0.6028647 0.3391509 0.3797228 0.4283444
0.82573813 0.579759 0.0039291526 0.5377285 0.80431205 0.66656053 0.06278092 0.6171338
0.9879612 0.50184864 0.21704744 0.33263153 0.60712963 0.7878516 0.43103874 0.56115055
0.98464084 0.801703 0.6558432 0.32343292 0.85365546 0.886732 0.8514696 0.31958324
0.27881357 0.7044577 0.3125839 0.92248946 0.9967224 0.4989546 0.72077346 0.8826624
0.039905075 0.24137692 0.30950814 0.8328789 0.13207874 0.9184221 0.060690146 0.6764942
0.7481864 0.53325725 0.76254654 0.56321985 0.2168421 0.46980527 0.35208854 0.20700479
0.23334256 0.51482 0.37377477 0.5408439 0.19533141 0.407088 0.9247757 0.7275861
0.06326079 0.28301144 0.16378833 0.13681634 0.8339579 0.17794001 0.7690916 0.8848041
0.80387205 0.45477438 0.92676705 0.9824456 0.9986908 0.61363965 0.20065773 0.17908357
0.9209482 0.26775655 0.43470636 0.2330752 0.68667537 0.5915605 0.553805 0.8823237
0.097116515 0.75040066 0.60909927 0.6539433 0.9785053 0.56371874 0.020911984 0.9391602
