code/lightning_logs/content/lightning_logs/MetaFormer/version_2/checkpoints/MetaFormer.ckpt (torch, 53979 bytes, 27 tensors)

metaformer.encoder.feed_forward1.weight f4 [24, 24]
0	0x3d1b5b85	0.037929077
1	0x3eb3e9b4	0.3513924
2	0x3f102d24	0.5631888
3	0x3e84f6f1	0.2596965
4	0xbea79ad9	-0.32735327
5	0x3c44ad08	0.0120041445
6	0xbcfa2335	-0.030534366
7	0xbec8929b	-0.3917435
8	0x3ebb9bc8	0.3664229
9	0xbe122bb7	-0.14274488
10	0xbdf08079	-0.11743254
11	0xbe83822a	-0.25685245
12	0x3e94564a	0.28972083
13	0xbada4436	-0.0016652409
14	0xbd580330	-0.052737415
15	0x3da67d98	0.08129424
16	0x3f0262bf	0.50931925
17	0xbe903e1c	-0.28172386
18	0xbd72d7a8	-0.059287697
19	0x3e113a6f	0.14182447
20	0x3e33a5aa	0.17543665
21	0x3ec95297	0.39320824
22	0xbdc94f4c	-0.09829578
23	0xbea19515	-0.31559053
24	0xbee5c0f5	-0.44873777
25	0xbebb3919	-0.36567
26	0xbe1e9b1b	-0.15488856
27	0x3d94e936	0.07271044
28	0x3e772506	0.24135217
29	0x3e29c7fb	0.16580193
30	0x3d821291	0.063511975
31	0x3d24edd3	0.04026587
32	0xbf032cf5	-0.51240474
33	0xbed892cf	-0.42299506
34	0x3cead648	0.02866663
35	0x3ebdf207	0.37098715
36	0xbd16de3d	-0.036833037
37	0xbe9e053f	-0.30863377
38	0xbd94531c	-0.07242414
39	0xbe626432	-0.22108534
40	0xbf2e515e	-0.68092906
41	0x3df172a3	0.11789443
42	0x3c909d9b	0.017653277
43	0xbef3d055	-0.47619882
44	0xbf238e49	-0.63888985
45	0xbe83c26d	-0.25734273
46	0xbd43f37a	-0.04783962
47	0x3f1537dd	0.58288366
48	0xbdd9d254	-0.1063582
49	0xbec38d47	-0.38193724
50	0xbf0f6226	-0.5600914
51	0xbe4ba8a8	-0.19888556
52	0x3ee74add	0.45174304
53	0xbc9e4866	-0.019321632
54	0xbe8e2aa6	-0.27766913
55	0xbdbd1e6d	-0.09234319
56	0xbeddd789	-0.43328503
57	0xbead0abf	-0.3379726
58	0x3e12e372	0.14344576
59	0xbc0794bf	-0.00827521
60	0xbdd30493	-0.10303607
61	0xbc399484	-0.011326913
62	0xbcddf51a	-0.027094413
63	0x3d576d2b	0.052594345
64	0xbf055c41	-0.52093893
65	0x3e134ee9	0.1438557
66	0x3e399fd2	0.18127373
67	0xbe2bfc10	-0.16795373
68	0xbec94705	-0.39311996
69	0xbdffba38	-0.1248669
70	0x3d91a531	0.07111586
71	0x3ea20541	0.31644633
72	0xbdc858d4	-0.097825676
73	0x3c8606bd	0.016360635
74	0x3e77b01b	0.24188273
75	0xbe04157d	-0.12898822
76	0x3f120916	0.57045114
77	0x3daea85a	0.08528204
78	0x3bee8ec9	0.007280205
79	0x3e8cd11f	0.27503297
80	0xbda6ef48	-0.08151108
81	0xbe87a4c3	-0.2649289
82	0xbdc67cf1	-0.096917994
83	0x3e148a25	0.14505823
84	0xbe3fce96	-0.1873115
85	0xbd45ccd9	-0.04829106
86	0xbe15a8be	-0.14615151
87	0x3e0c3c47	0.13694869
88	0xbe855769	-0.2604325
89	0xbeaa6cc7	-0.33286116
90	0xbe1a9eaf	-0.15099595
91	0xbdf8f09e	-0.12155269
92	0xbda0fb51	-0.07860435
93	0xbeec756d	-0.4618334
94	0x3d0cfe23	0.03442205
95	0x3f27f77f	0.65612024
96	0xbe44dde0	-0.19225264
97	0xbddcc105	-0.10779003
98	0x3e2d2b9f	0.16911171
99	0xbd952cd8	-0.07283944
100	0xbe44af55	-0.19207509
101	0xbee57b6e	-0.44820732
102	0xbe25696d	-0.16153498
103	0x3f082c7b	0.5319287
104	0x3ec9f5d5	0.39445367
105	0x3eae3d43	0.34031114
106	0xbdb4e997	-0.08833616
107	0xbebaaae6	-0.3645851
108	0x3ea0c91e	0.3140344
109	0x3ddae275	0.106877245
110	0x3e2308b6	0.15921292
111	0x3e5f1a35	0.21787341
112	0x3e98bda6	0.2983219
113	0xbb5f8833	-0.003410828
114	0x3ed11847	0.40838835
115	0x3f25c112	0.64747727
116	0x3f600319	0.87504727
117	0x3f1d174f	0.6136369
118	0x3e0129d5	0.12613614
119	0xbf3006e2	-0.687605
120	0xbdada711	-0.08479131
121	0xbeede279	-0.46461847
122	0xbd924648	-0.07142311
123	0x3eae4a60	0.3404112
124	0xbc3b9998	-0.011450194
125	0xbebb075b	-0.3652905
126	0xbe2976cd	-0.16549225
127	0x3e20f39d	0.15717931
128	0x3ec23e22	0.3793803
129	0x3e38d346	0.18049344
130	0xbeb0d364	-0.34536278
131	0xbe9cca28	-0.30622983
132	0xbe99d397	-0.30044243
133	0xbe9b900c	-0.30383337
134	0xbd9dfb00	-0.0771389
135	0x3d927a66	0.07152252
136	0x3e42c875	0.19021781
137	0x3ef3cdca	0.47617942
138	0x3f1c7abb	0.6112477
139	0x3ed8cf70	0.42345762
140	0x3e6359a1	0.2220216
141	0x3e8ec008	0.27880883
142	0x3ecd3162	0.4007674
143	0xbdbb71fb	-0.091525994
144	0xbea2ea4d	-0.31819382
145	0xbeac95dc	-0.33708084
146	0xbe8350ed	-0.2564768
147	0x3d2eaa68	0.04264298
148	0x3e0a5863	0.1351028
149	0xbdbdf1ea	-0.09274657
150	0x3c032d20	0.008006364
151	0x3e13596c	0.1438958
152	0xbe9a8030	-0.30175924
153	0xbd95a597	-0.073069744
154	0xbc4b3a6c	-0.012404066
155	0x3e79e5af	0.24404024
156	0xbda1b266	-0.07895355
157	0x3dd4c5e1	0.10389305
158	0xbdd3e88b	-0.103470884
159	0x3e2eb921	0.17062809
160	0xbec02c18	-0.3753364
161	0xbe2926fc	-0.16518778
162	0x3d4f6e04	0.05064203
163	0xbe2c2435	-0.16810687
164	0xbdc3948a	-0.09549816
165	0xbd9f5052	-0.07778992
166	0x3db75529	0.0895179
167	0x3db12a2f	0.08650624
168	0xbd702193	-0.05862577
169	0xbea0672a	-0.31328708
170	0xbe86eddd	-0.2635335
171	0x3e0173cd	0.1264183
172	0xbdba74d3	-0.09104314
173	0xbde9841a	-0.114021495
174	0xbd91339a	-0.0708992
175	0x3ec00688	0.37504983
176	0x3d660819	0.056160066
177	0x3d45f3a5	0.04832806
178	0xbe4e88e0	-0.20169401
179	0xbeac7dfc	-0.33689868
180	0xbe91a0d2	-0.2844301
181	0xbdcb6826	-0.09931974
182	0xbc99b507	-0.018763078
183	0xbe6314ac	-0.22175854
184	0x3e27b6f2	0.16378382
185	0x3e973440	0.2953205
186	0x3f18a857	0.59631866
187	0x3ec7be9e	0.39012617
188	0x3e255fe2	0.16149858
189	0x3e54f2ce	0.20795748
190	0x3e8f1998	0.27949214
191	0xbe3b3e15	-0.18285401
192	0x3ee105eb	0.43949828
193	0x3ed1b78a	0.40960342
194	0xbc725164	-0.014789913
195	0x3e2ce6f6	0.1688498
196	0x3e47c31f	0.19508027
197	0x3df59604	0.11991504
198	0x3e9e7a57	0.30952713
199	0xbf3126a9	-0.69199616
200	0xbf0e7a60	-0.5565548
201	0xbf07a428	-0.5298486
202	0x3dec51d2	0.115390435
203	0x3e81aa59	0.25325277
204	0x3e233d69	0.15941395
205	0x3da2d608	0.079509795
206	0xbcacf582	-0.021113161
207	0xbde018ce	-0.10942231
208	0xbd07cf1e	-0.033156507
209	0xbe8b1d47	-0.27170774
210	0xbecdb8e4	-0.40180123
211	0xbf28b6eb	-0.6590411
212	0xbed46f94	-0.41491377
213	0xbee91b0e	-0.45528454
214	0xbe3f3c92	-0.1867545
215	0x3f4b3358	0.7937522
216	0x3d678cb0	0.056530654
217	0x3e60712a	0.21918169
218	0x3ee85ae6	0.4538185
219	0x3e6987f3	0.22805767
220	0xbea902d8	-0.33009982
221	0xbe3a678e	-0.18203565
222	0x3c7e5c8f	0.015524997
223	0xbdb664c1	-0.08905936
224	0x3e5c3aa1	0.2150674
225	0x3d4ad438	0.049518794
226	0xbe3ce184	-0.18445402
227	0xbe88e9cb	-0.2674087
228	0xbd385fd2	-0.045013256
229	0x3d8ac72e	0.06776272
230	0x3e0e775b	0.13912718
231	0x3d337fe4	0.043823138
232	0x3e83e458	0.2576015
233	0x3e37f234	0.17963487
234	0x3d286023	0.041107308
235	0x3ea2f39c	0.31826484
236	0x3e97fbcf	0.29684302
237	0x3e825552	0.2545572
238	0xbe81303c	-0.25232112
239	0xbea5d492	-0.3238874
240	0xbe52a3ca	-0.20570293
241	0xbd88131e	-0.06644271
242	0xbe9d3f64	-0.30712426
243	0x3d99e6a8	0.07514697
244	0x3f20b8f2	0.62782204
245	0x3ea77ff7	0.32714817
246	0x3e299949	0.1656238
247	0xbe879cf1	-0.26486924
248	0xbf05a205	-0.5220035
249	0xbe80d5a1	-0.25162986
250	0x3d6f5dad	0.058438946
251	0x3e482c95	0.19548257
252	0xbe3b8189	-0.18311132
253	0xbd5c58da	-0.053795673
254	0xbceb42ca	-0.028718371
255	0xbeb8dc08	-0.3610537

metaformer.encoder.feed_forward1.bias f4 [24]
0	0x3e70ed55	0.23528035
1	0xbe8887d1	-0.2666612
2	0xbf054d8c	-0.5207145
3	0x3c96a129	0.018387394
4	0x3e5931b4	0.21210366
5	0x3befd893	0.007319519
6	0xbed4a64a	-0.41533118
7	0xbe205799	-0.15658416
8	0x3d868191	0.065676816
9	0x3d6df774	0.058097318
10	0x3db2532d	0.08707271
11	0xbf4092ba	-0.75223887
12	0xbd9aafa5	-0.07553033
13	0xbe109d89	-0.14122595
14	0x3efb84fc	0.49124897
15	0xbee0f76d	-0.4393877
16	0x3e89e466	0.26932067
17	0xbede80b0	-0.43457556
18	0x3ea743af	0.32668826
19	0x3b2c813f	0.0026322154
20	0xbdc56853	-0.09639039
21	0xbdf712dd	-0.12064145
22	0xbe3b5c44	-0.18296915
23	0x3e5ddb0d	0.21665592

metaformer.encoder.feed_forward2.weight f4 [24, 24]
0	0x3e08f46b	0.13374488
1	0xbe4db7ae	-0.200896
2	0xbe5bbe36	-0.21459278
3	0x3e18b5c6	0.14913091
4	0xbf6834df	-0.90705675
5	0xbe026253	-0.1273282
6	0x3d259364	0.040423766
7	0x3d5bdf48	0.053679734
8	0x3dee0296	0.11621587
9	0xbe9afabd	-0.30269423
10	0xbe939cc9	-0.28830555
11	0x3ef571ae	0.47938293
12	0xbe36874e	-0.17825052
13	0xbec50450	-0.38479853
14	0x3e19f5c1	0.15035154
15	0xbe6bcdee	-0.23027775
16	0x3e733ccb	0.2375366
17	0x3d8c8c80	0.06862736
18	0x3ea881ca	0.3291152
19	0xbe698432	-0.22804335
20	0xbe6ead9d	-0.23308416
21	0x3e5d193d	0.21591659
22	0xbf86736e	-1.0503976
23	0xbd9b053b	-0.07569357
24	0xbea3013d	-0.31836882
25	0x3e1ca48a	0.15297142
26	0xbdf4e59f	-0.11957859
27	0xbdd32009	-0.103088446
28	0xbef82cf8	-0.48471808
29	0xbea16cb1	-0.31528237
30	0xbe1545a3	-0.14577346
31	0xbed4d63f	-0.41569707
32	0x3e2ce60e	0.16884634
33	0xbcefbe11	-0.029265435
34	0xbe6d9115	-0.23199876
35	0x3e757de7	0.23973809
36	0xbe024c00	-0.12724304
37	0xbd331aac	-0.04372661
38	0xbec3c839	-0.38238695
39	0x3e9af7ca	0.30267173
40	0x3e9b0378	0.30276084
41	0x3de8600d	0.11346445
42	0x3e157e84	0.14599043
43	0xbdfa2aa0	-0.12215161
44	0xbdd5549b	-0.10416528
45	0x3db71f0f	0.08941471
46	0xbef9db91	-0.48800328
47	0x3da56a17	0.08076876
48	0x3e48fd08	0.19627774
49	0xbe9a1f90	-0.30102205
50	0xbe77a088	-0.24182332
51	0xbe09aa9d	-0.1344399
52	0x3b1af775	0.002364603
53	0xbe65cc91	-0.22441317
54	0x3c9198ff	0.01777315
55	0xbe36c213	-0.17847471
56	0x3ddd26d5	0.10798422
57	0x3d365475	0.04451414
58	0xbe238b8d	-0.15971203
59	0x3e22b248	0.15888321
60	0xbe5c7773	-0.21529941
61	0x3e4bf654	0.19918185
62	0xbf135fc7	-0.5756802
63	0xbb9c6c9a	-0.0047736885
64	0xbe6cfdf0	-0.23143744
65	0xbd9d9850	-0.07695067
66	0x3f0073aa	0.5017649
67	0x3d908537	0.07056659
68	0x3da6865e	0.08131097
69	0x3da80c07	0.08205419
70	0xbeae2423	-0.34011945
71	0x3e819054	0.25305426
72	0x3e53280a	0.20620742
73	0xbefcde44	-0.49388325
74	0xbcae3181	-0.02126384
75	0xbebafe0b	-0.36521944
76	0x3d20e3d9	0.039279792
77	0xbf130a60	-0.57437706
78	0xbe2ea3ca	-0.17054668
79	0xbeb866ae	-0.36015838
80	0x3e0986c4	0.13430315
81	0x3e094b86	0.13407716
82	0xbe67e60e	-0.22646353
83	0x3d278d43	0.040906202
84	0xbe3b9b72	-0.18321016
85	0xbd1abb47	-0.037776258
86	0xbec1b8e7	-0.37836382
87	0xbd4f0c87	-0.050549056
88	0xbf2c5cab	-0.673289
89	0xbe602498	-0.2188896
90	0xbe233ee1	-0.15941955
91	0xbce98d23	-0.028509682
92	0xbe1b10a5	-0.15143068
93	0xbe8b5eb4	-0.2722069
94	0xbf022a1c	-0.50845504
95	0xbe8f77b3	-0.2802101
96	0xbef2b871	-0.47406343
97	0x3e423f04	0.18969351
98	0x3e8aa9d2	0.27082688
99	0x3c721002	0.014774324
100	0x3e0eb58e	0.13936445
101	0x3e9e35c4	0.30900395
102	0x3e1553f2	0.14582804
103	0x3df7b459	0.120949455
104	0xbdb4992a	-0.08818276
105	0xbe8dd647	-0.27702543
106	0x3e61c470	0.22047591
107	0xbde39e99	-0.111142345
108	0x3e02743d	0.12739654
109	0x3c40ecab	0.011775176
110	0x3ec7342d	0.38906994
111	0x3d50a63a	0.050939776
112	0x3e920c0c	0.28524816
113	0x3bedb515	0.0072542527
114	0xbe05b729	-0.13058151
115	0x3d4e958e	0.050435595
116	0x3e085dbf	0.13317011
117	0x3c31e91e	0.010858802
118	0x3d61798e	0.055047564
119	0xbdd41a17	-0.10356539
120	0x3eefe3f6	0.46853608
121	0xbf812a5c	-1.0091052
122	0xbe80869b	-0.25102696
123	0xbf17f82c	-0.59363055
124	0xbe95c8dc	-0.29254806
125	0xbe4d2d71	-0.20036866
126	0xbeac36d8	-0.33635592
127	0x3d7878d4	0.060662106
128	0xbd76b9b7	-0.060235705
129	0x3e7f4696	0.2492927
130	0xbf0a684d	-0.540654
131	0x3b5380c3	0.0032272793
132	0xbf0b5d61	-0.5443936
133	0xbe98cc82	-0.29843527
134	0x3bfc4179	0.0076982346
135	0xbecf3036	-0.4046647
136	0xbf2ec197	-0.68264145
137	0xbe9ba53d	-0.30399504
138	0xbe92102b	-0.2852796
139	0xbf1de62e	-0.6167935
140	0xbeba5db7	-0.36399624
141	0xbe9df756	-0.30852765
142	0x3c8bd14e	0.017067578
143	0xbed4fd2e	-0.4159941
144	0xbd82f5a8	-0.063945115
145	0x3d26483f	0.040596243
146	0xbe8c42c6	-0.27394694
147	0x3d197f03	0.037474643
148	0xbf50d4a7	-0.8157448
149	0x3ec00ff0	0.3751216
150	0xbe7877b3	-0.24264412
151	0x3e760511	0.2402537
152	0x3e666b77	0.22501932
153	0xbd8b5f8f	-0.06805336
154	0x3e841dab	0.25803885
155	0x3eead0b3	0.4586235
156	0x3e39c3be	0.18141076
157	0xbd8accc7	-0.067773394
158	0x3d874e73	0.0660676
159	0xbda9310f	-0.0826131
160	0x3e0639b3	0.13107948
161	0x39095bcb	0.00013099534
162	0x3ef5b485	0.47989288
163	0x3dc91792	0.09818949
164	0xbd6af620	-0.05736363
165	0x3e70f0f7	0.23529421
166	0xbf083a37	-0.5321383
167	0x3e8d0f98	0.2755096
168	0x3efc8766	0.4932205
169	0xbef40ed4	-0.47667563
170	0x3d032c09	0.032024417
171	0xbeae87ca	-0.34087974
172	0x3f2ff6d8	0.6873603
173	0x3ea124d4	0.3147341
174	0xbe59a138	-0.21252906
175	0x3ef82bd8	0.4847095
176	0xbea60895	-0.32428423
177	0x3e642cdf	0.22282742
178	0xbe5bb0b2	-0.21454123
179	0xbe1410d4	-0.14459544
180	0xbe38ce78	-0.18047512
181	0xbe9732d2	-0.2953096
182	0x3ee3f399	0.44521788
183	0xbe803002	-0.25036627
184	0xbdbf96c9	-0.09354932
185	0xbe42b0b7	-0.19012724
186	0xbe257b47	-0.16160308
187	0xbe9a8215	-0.3017737
188	0xbed8a55e	-0.42313665
189	0xbe49b60e	-0.19698355
190	0x3f363d59	0.7118736
191	0xbf01bd97	-0.50679916
192	0xbedfee93	-0.43736705
193	0x3f2b7ca2	0.6698705
194	0x3e2d2c13	0.16911344
195	0x3e9ec50c	0.3100971
196	0x3eeca87c	0.46222293
197	0x3f0a41d9	0.54006726
198	0x3ebf8972	0.3740955
199	0x3ea21ed2	0.3166414
200	0x3defcfd2	0.117095605
201	0xbead781e	-0.33880705
202	0x3ed159b1	0.40888742
203	0xbcb295fa	-0.02180003
204	0x3ea75290	0.32680178
205	0x3dfb66f0	0.12275493
206	0x3e7493d0	0.23884511
207	0x3eae0584	0.33988583
208	0x3ea783db	0.32717785
209	0xbcd356f1	-0.025798293
210	0x3d2c6dfc	0.042097077
211	0x3f002914	0.5006268
212	0x3e806cb2	0.25082928
213	0x3e97a712	0.29619652
214	0x3db12bdb	0.08650943
215	0x3e1bfebf	0.15233897
216	0xbdceb0b8	-0.100923
217	0xbecb880f	-0.39752242
218	0xbe183d30	-0.14867091
219	0xbe6c6439	-0.23085107
220	0x3e81917c	0.25306308
221	0xbe3f8ac8	-0.18705285
222	0x3bb521ec	0.0055277254
223	0xbe0a471c	-0.13503689
224	0xbd0c0e84	-0.03419353
225	0x3e458dfc	0.19292444
226	0xbf48b841	-0.7840615
227	0x3e69863e	0.22805116
228	0xbf1a088f	-0.6016931
229	0xbd8dfe62	-0.06933285
230	0xbd6a2dcf	-0.057172593
231	0xbe3a6828	-0.18203795
232	0xbe485372	-0.19563082
233	0xbe5c8838	-0.21536338
234	0xbda0cffe	-0.07852171
235	0xbebc4f7a	-0.36779386
236	0xbeb5403e	-0.35400575
237	0xbf18f564	-0.59749436
238	0x3b8a37f7	0.0042180973
239	0xbee0baa9	-0.4389241
240	0xbe136d38	-0.14397132
241	0xbf08bd48	-0.5341382
242	0xbe3ce0d2	-0.18445137
243	0x3a830b87	0.0009997942
244	0xbed9bd86	-0.42527407
245	0xbca608bd	-0.020267839
246	0xbe72165c	-0.23641342
247	0xbd8f9916	-0.07011621
248	0x3e62f4df	0.22163723
249	0xbe50f627	-0.204064
250	0xbe201d3c	-0.15636152
251	0x3e8780dc	0.264655
252	0xbe80519e	-0.2506227
253	0x3bcb6fbe	0.006208389
254	0xbebf20b9	-0.37329653
255	0x3e324c69	0.1741196

metaformer.encoder.feed_forward2.bias f4 [24]
0	0xbe2e5080	-0.17022896
1	0xbc88367b	-0.01662754
2	0x3e0ce1c3	0.13757996
3	0x3cdae46f	0.026720254
4	0x3c9a9c04	0.018873222
5	0x3de16836	0.11006205
6	0x3e2e943b	0.17048733
7	0xbde78912	-0.11305441
8	0x3e89a3ed	0.26882878
9	0xbdcb983c	-0.09941146
10	0xbe65f13d	-0.22455306
11	0x3cc3c693	0.023898399
12	0x3cd9969d	0.026561076
13	0x3e401516	0.18758044
14	0x3dcc4d53	0.09975686
15	0xbdd7a9f4	-0.10530463
16	0x3df504c7	0.11963802
17	0xbe107cbc	-0.14110082
18	0x3da634b6	0.081155226
19	0x3e5989ac	0.21243924
20	0x3a96e044	0.0011510928
21	0xbdccb9f3	-0.099964045
22	0x3d2d8016	0.04235848
23	0x3dc3f159	0.09567518

metaformer.feed_forward1.weight f4 [24, 10]
0	0xbf75f003	-0.96069354
1	0x3e2fb908	0.17160428
2	0x3f049917	0.51796097
3	0x3e2d21bb	0.16907398
4	0xbc66f0d1	-0.014095501
5	0x3e47e999	0.19522704
6	0x3f9412c6	1.1568229
7	0xbe68b053	-0.22723512
8	0x3e83fd7f	0.2577934
9	0xbd3ffcb2	-0.04687185
10	0xbe805716	-0.2506644
11	0x3c7686d7	0.015046797
12	0xbe645ee8	-0.22301829
13	0x3e9940eb	0.2993234
14	0xbe65519e	-0.22394416
15	0x3e6f5978	0.23373973
16	0x3e70bfe9	0.23510708
17	0x3e1de006	0.1541749
18	0x3e84f537	0.25968334
19	0xbe57416d	-0.21021052
20	0xbe5deacd	-0.216716
21	0x3de6bb2d	0.1126617
22	0x3e90e643	0.28300676
23	0x3da02ff6	0.07821648
24	0xbe667612	-0.22505978
25	0xbca98232	-0.020691965
26	0xbe8bdf4e	-0.27318805
27	0xbd79c384	-0.060977474
28	0x3e9e71bd	0.3094615
29	0xbc60d23e	-0.013722001
30	0x3f0cbdcd	0.54977113
31	0x3e05347a	0.130083
32	0xbf474e6a	-0.77854025
33	0x3e24b414	0.1608432
34	0xbe3de87c	-0.18545717
35	0xbd7df1f8	-0.061998338
36	0xbef10cb5	-0.47080007
37	0x3f04f2a3	0.51932734
38	0x3ec74925	0.38922992
39	0x3def2fbd	0.11679027
40	0x3e55b031	0.20867993
41	0x3e9aee2a	0.3025983
42	0x3d65789b	0.05602322
43	0xbe5ea054	-0.21740848
44	0x3d83efbc	0.0644221
45	0x3d8ac89b	0.06776544
46	0x3dc6acd9	0.09700937
47	0xbc82fa94	-0.015988626
48	0xbc1b1758	-0.009466015
49	0xbe456604	-0.19277197
50	0x3f119a83	0.5687639
51	0x3da2aa07	0.079425864
52	0x3e8bc296	0.27296895
53	0x3dab4161	0.083620794
54	0xbddf7d7f	-0.10912608
55	0xbe52d64b	-0.20589559
56	0xbf8240df	-1.0176047
57	0xbec815b7	-0.39079067
58	0x3d902c36	0.070396826
59	0xbe65268a	-0.22377983
60	0xbe869de4	-0.26292336
61	0x3e7fc7b1	0.2497852
62	0xbe24fddc	-0.16112465
63	0xbd643b31	-0.05572051
64	0x3e30ae95	0.17254098
65	0xbda0fed6	-0.07861106
66	0x3e38f158	0.18060815
67	0xbe5bba1c	-0.21457714
68	0xbd837083	-0.06417944
69	0xbd9cf3b4	-0.0766367
70	0xbfb36f21	-1.4018289
71	0x3f0c95ba	0.54915965
72	0x3ec3ff6f	0.38280818
73	0x3ddb9f69	0.107237644
74	0x3f04e51f	0.5191211
75	0x3cc41336	0.023934942
76	0x3f9f3bf5	1.2440172
77	0xbe925cf8	-0.28586555
78	0xbca58711	-0.020206006
79	0xbe1ad04c	-0.15118521
80	0xbf8d9bb0	-1.1063137
81	0xbe007e95	-0.12548287
82	0x3f29b1b4	0.6628678
83	0x3e58f1b2	0.2118595
84	0x3de51a12	0.11186613
85	0x3e6a28d9	0.22867145
86	0x3f55e4ce	0.83552253
87	0xbd87e830	-0.06636083
88	0x3b1165e6	0.002218598
89	0xbcc85c07	-0.024457945
90	0xbd216458	-0.039402336
91	0xbe5c17a0	-0.21493387
92	0xbe37cda7	-0.17949544
93	0x3dda5fd5	0.1066281
94	0x3e25c18e	0.16187117
95	0x3e817d1e	0.2529077
96	0xbe64ee8a	-0.2235662
97	0xbe52dfe5	-0.20593221
98	0xbe4fabc7	-0.20280372
99	0xbea12578	-0.314739
100	0x3ea2a08b	0.3176311
101	0x3ecd1788	0.40057015
102	0xbe2deda0	-0.16985178
103	0xbce631b6	-0.028099876
104	0x3db5fb56	0.08885829
105	0x3e45f785	0.19332702
106	0xbd80b8af	-0.062852256
107	0x3e66a9a7	0.22525655
108	0xbe21311e	-0.15741393
109	0xbd8ece07	-0.0697289
110	0x3ddf9a62	0.10918118
111	0x3dc97753	0.098372124
112	0x3cf54996	0.029942315
113	0x3b15519d	0.002278424
114	0x3d30d3f7	0.043170895
115	0xbe873626	-0.264085
116	0x3d614b3e	0.055003397
117	0x3e235d45	0.15953548
118	0x3e130a48	0.1435939
119	0xbe958540	-0.29203224
120	0x3e6aa314	0.22913772
121	0x3e9d7fc4	0.3076154
122	0xbe3df8ab	-0.1855189
123	0xbe5c8125	-0.2153364
124	0xbe631456	-0.22175726
125	0xbe48ad49	-0.19597353
126	0xbe3a2c4c	-0.1818096
127	0x3e0b7c15	0.13621552
128	0x3e27b544	0.16377741
129	0xbe9c7fa0	-0.3056612
130	0xbe3ce175	-0.1844538
131	0xbe94a74b	-0.29033884
132	0xbe8a60fb	-0.27027115
133	0x3cb95dda	0.02262776
134	0x3d88a5e8	0.06672269
135	0x3e5f84c3	0.21827988
136	0xbe516d07	-0.20451747
137	0x3e107a37	0.14109121
138	0x3da6a654	0.08137193
139	0xbe541321	-0.20710422
140	0x3e82d92d	0.25556317
141	0xbe30f4b7	-0.17280851
142	0x3e048f1a	0.12945214
143	0xbe5a2226	-0.21302089
144	0x3e5d2d71	0.21599366
145	0x3e8b4115	0.2719809
146	0x3d2d8451	0.042362515
147	0x3d0fd8ec	0.035118982
148	0x3e638084	0.22216994
149	0xbe4788c4	-0.19485766
150	0x3e353697	0.17696606
151	0x3f041430	0.51593304
152	0xbe0d8e72	-0.1382387
153	0xbdd053ff	-0.10172271
154	0x3ed75ca5	0.4206287
155	0x3ded6a37	0.115925245
156	0xbe826455	-0.25467172
157	0x3dacd10f	0.08438312
158	0x3e842f01	0.2581711
159	0xbe3743ff	-0.17897032
160	0x3d1e1fb2	0.038604446
161	0x3f02e878	0.5113597
162	0xbf5a5b1d	-0.8529528
163	0xbdaa877b	-0.08326622
164	0xbd99282a	-0.07478364
165	0xbdb6ff84	-0.089354545
166	0xbf140819	-0.57824856
167	0x3f10a522	0.5650197
168	0x3edfb5b3	0.43693313
169	0xbded824c	-0.11597118
170	0xbeaeb23f	-0.34120366
171	0x3f1107f3	0.56652755
172	0xbe0a5b8c	-0.13511485
173	0x3da1c563	0.07898977
174	0xbebb4f9b	-0.36584172
175	0x3dc47ca0	0.09594083
176	0x3e73714f	0.23773693
177	0x3dc69604	0.09696582
178	0x3cf991c9	0.030465024
179	0xbddadd49	-0.10686738
180	0xbfb5ac90	-1.4193287
181	0x3ea1bb53	0.3158823
182	0x3f5f5f25	0.87254554
183	0x3e087cc3	0.13328843
184	0x3ec533cd	0.38516083
185	0xbdd6152b	-0.10453256
186	0x3fa2d58d	1.272142
187	0xbe2ecc64	-0.17070156
188	0xbe2ca60d	-0.16860218
189	0xbda60312	-0.08106054
190	0xbe846e15	-0.25865236
191	0x3d9eb802	0.077499405
192	0x3e973a4c	0.29536664
193	0x3d1de3d0	0.038547337
194	0xbe1ec682	-0.15505412
195	0x3e983f78	0.29735923
196	0x3e3c520a	0.1839067
197	0x3dbd1961	0.09233356
198	0xbb837c51	-0.0040126224
199	0xbdd2a2e0	-0.10284972
200	0xc021fb91	-2.5309794
201	0x3ebbf02e	0.3670668
202	0x3fdb258d	1.7120835
203	0x3cb32c48	0.0218717
204	0x3e58b29b	0.21161883
205	0x3c27825e	0.010223953
206	0x3fbc086d	1.4690071
207	0xbd9a5d10	-0.075372815
208	0x3ecbfaa8	0.39839673
209	0x3e9ab70e	0.30217785
210	0xbb7cb0d1	-0.003855754
211	0x3e343d89	0.17601599
212	0xbe34a030	-0.17639232
213	0xbe9bc06f	-0.30420253
214	0x3e85ef1b	0.26158985
215	0xbe873168	-0.2640488
216	0x3cdf27a7	0.027240587
217	0x3e37c66e	0.17946789
218	0x3e41410e	0.18872473
219	0xbe9da9ab	-0.3079351
220	0x3fff7b95	1.9959589
221	0x3f03a0b9	0.5141712
222	0xbf804d40	-1.0023575
223	0x3dad9c89	0.08477122
224	0xbe2725aa	-0.16322961
225	0xbe03585f	-0.1282668
226	0xbfef8a54	-1.8714089
227	0x3e3aa1f9	0.1822585
228	0x3e0d55cf	0.13802265
229	0x3daec34d	0.085333444
230	0xbfce73a9	-1.6129047
231	0x3f11fec8	0.5702939
232	0x3ee85c51	0.45382932
233	0x3d1285a0	0.035771966
234	0x3dc489ef	0.09596621
235	0x3e1db52e	0.15401146
236	0x3fcea146	1.6142967
237	0xbe9d8705	-0.30767074
238	0x3ef0149f	0.46890733
239	0xbe02c0ed	-0.12768908

metaformer.feed_forward1.bias f4 [24]
0	0xbf01772a	-0.50572455
1	0xbe49757a	-0.1967372
2	0xbe9d9a8c	-0.30781972
3	0xbee5dc24	-0.44894516
4	0x3dd9b716	0.10630624
5	0xbe48f100	-0.19623184
6	0x3dec9de7	0.11553555
7	0xbf928921	-1.1448098
8	0xbf62e751	-0.8863421
9	0x3dd097f1	0.101852305
10	0xbe470cc6	-0.19438466
11	0xbe95375b	-0.29143795
12	0xbe8c6697	-0.2742202
13	0x3cd25aaa	0.025677998
14	0x3d985e43	0.07439854
15	0xbf0d15e1	-0.5511151
16	0xbf2d67b1	-0.67736346
17	0xbfae41a9	-1.3613788
18	0xbf88f096	-1.0698421
19	0xbe862f4b	-0.26207957
20	0xbfc1aebc	-1.513145
21	0x3ea0dda8	0.3141911
22	0x3c747882	0.014921309
23	0xbfc6f3cb	-1.554315

metaformer.feed_forward2.weight f4 [24, 24]
0	0xbdefa185	-0.11700729
1	0xbda7052f	-0.081552856
2	0x3d0464f4	0.03232284
3	0x3ec1e3ba	0.37869054
4	0x3c70e1ce	0.0147022735
5	0x3ec39450	0.3819909
6	0x3d3c5b41	0.045985464
7	0xbe1dccb5	-0.15410121
8	0xbe2b2d99	-0.16716613
9	0x3e2f9eb5	0.17150386
10	0xbe242dce	-0.16033098
11	0x3d69b074	0.057053044
12	0xbbeaaf0c	-0.0071619805
13	0x3e40fc87	0.18846332
14	0x3bd3da28	0.0064652152
15	0x3d89a6aa	0.06721242
16	0xbe787c50	-0.24266171
17	0x3d37bb11	0.044856135
18	0x3d50e733	0.05100174
19	0x3b12ef5d	0.0022420504
20	0x3dcee463	0.10102155
21	0xbe2d77bd	-0.16940208
22	0x3ec0b969	0.37641457
23	0x3e47dabd	0.19517036
24	0xbec8bb08	-0.39205194
25	0xbe06b0a2	-0.13153318
26	0x3e23e91f	0.16006897
27	0x3e404e15	0.18779786
28	0xbe275932	-0.16342619
29	0x3e93c367	0.28860018
30	0x3dd81c1d	0.10552237
31	0xbe402a3a	-0.18766108
32	0xbbf49aac	-0.0074647274
33	0x3db17a4c	0.086659044
34	0xbe79fad1	-0.24412085
35	0xbd1f1e88	-0.038847476
36	0x3d1e05f6	0.038579904
37	0xbe44a767	-0.19204484
38	0xbc2cf64e	-0.0105567705
39	0x3e522f19	0.20525779
40	0xbda73797	-0.081649
41	0xbdbe3344	-0.09287122
42	0xbddabda9	-0.10680706
43	0xbce422e0	-0.027848661
44	0xbe23ad75	-0.15984137
45	0x3caf8e86	0.021430265
46	0x3f050736	0.5196413
47	0xbe3e11e7	-0.18561517
48	0xbd1bd594	-0.03804548
49	0x3e0f71e2	0.14008287
50	0xbe4f3c42	-0.2023783
51	0x3e4e9932	0.20175627
52	0x3da66a72	0.081257716
53	0x3ecfd6d8	0.405936
54	0x3da5d17b	0.08096596
55	0xbe2b2446	-0.16713056
56	0xbe10b829	-0.14132752
57	0xbd6888ce	-0.056771092
58	0xbdbd9ed3	-0.09258809
59	0x3e4476b0	0.191859
60	0xbe21b0c0	-0.15790081
61	0x3c24b155	0.010052045
62	0xbdccd06d	-0.100006916
63	0x3e0e1de8	0.13878596
64	0x3d42ac0a	0.04752735
65	0x3e27c78e	0.16384718
66	0xbe7a31b4	-0.24433023
67	0xbd148cf9	-0.036267255
68	0x3da5de99	0.08099098
69	0x3e240f70	0.16021514
70	0x3f159209	0.58425957
71	0xbda541b1	-0.0806917
72	0xbef4801c	-0.4775399
73	0xbdc655de	-0.096843466
74	0xbe4338d2	-0.19064644
75	0xbe48cd8f	-0.19609664
76	0xbc0b90f9	-0.008518451
77	0x3e78f203	0.2431107
78	0x3e04e8de	0.12979457
79	0xbcd0ed5a	-0.025503803
80	0xbeac0f09	-0.3360522
81	0xbe504243	-0.20337777
82	0xbe581e8e	-0.21105406
83	0xbe4c2cca	-0.1993896
84	0x3cccc315	0.024995366
85	0x3e345506	0.17610559
86	0x3de2620d	0.11053858
87	0x3ebc5f25	0.3679134
88	0x3bb2d81e	0.005457892
89	0x3d2ea601	0.042638782
90	0xba133cf9	-0.00056166906
91	0xbe426b98	-0.18986356
92	0xbde4801c	-0.111572474
93	0xbbfac08e	-0.007652349
94	0x3d23fd5e	0.04003655
95	0xbe180d77	-0.14848886
96	0x3e180865	0.14846952
97	0xbdd7e8e7	-0.105424695
98	0x3c98e1b2	0.018662307
99	0xbdd21e0a	-0.10259636
100	0x3b51cf30	0.0032014363
101	0xbe144f12	-0.14483288
102	0xbde2e578	-0.11078924
103	0x3dcf043d	0.1010823
104	0x3e7cc9da	0.24686375
105	0x3e3fa513	0.18715315
106	0x3d88d90c	0.066820234
107	0xbe3ecebb	-0.18633549
108	0xbdbb509b	-0.09146234
109	0xbe4d06fe	-0.20022199
110	0xbd88988f	-0.06669723
111	0xbe5b11f1	-0.21393563
112	0xbe2ded66	-0.16985092
113	0xbeb8608e	-0.36011165
114	0xbde98b9b	-0.11403581
115	0xbdef8b67	-0.11696511
116	0x3e75491f	0.23953675
117	0xbde9864d	-0.11402569
118	0xbeb5e745	-0.35528007
119	0xbbc06170	-0.0058709905
120	0x3d98fe74	0.07470408
121	0xbe2d278e	-0.1690962
122	0xbe15fafa	-0.14646521
123	0x3e1d4723	0.15359168
124	0x3c184239	0.009293132
125	0xbedb5cfe	-0.42844385
126	0xbc5bfab1	-0.013426469
127	0xbeb93723	-0.36174878
128	0x3e1d7d08	0.15379727
129	0x3e07599f	0.13217781
130	0x3e76b5c7	0.2409278
131	0x3b6ad981	0.003583521
132	0x3cbe2f97	0.023216052
133	0x3e1390b2	0.14410666
134	0x3cdc66fa	0.026904572
135	0xbf0111ec	-0.5041797
136	0xbeade51a	-0.33963853
137	0xbf01d454	-0.5071461
138	0x3d861d36	0.0654854
139	0xbdc8f2f0	-0.09811962
140	0xbe3821d3	-0.17981653
141	0xbd49d936	-0.049279414
142	0x3eab7315	0.33486238
143	0xbea623a8	-0.3244908
144	0x3e6ee06b	0.23327796
145	0x3d9e75f3	0.07737341
146	0x3e338d6b	0.17534415
147	0x3ee339af	0.44379947
148	0x3d5140af	0.051087078
149	0xbe5f9c38	-0.21836936
150	0x3dc0c066	0.09411697
151	0xbe52aa5d	-0.20572801
152	0xbd1fd66b	-0.039022844
153	0xbc7aa582	-0.015298249
154	0x3e8963e9	0.26834038
155	0x3cb68eaf	0.022284834
156	0xbc4100f7	-0.011780015
157	0x3c95bc04	0.01827813
158	0x3e498652	0.19680145
159	0xbd798696	-0.060919367
160	0x3d33ffa6	0.043944977
161	0xbe1ed778	-0.15511882
162	0xbda1a966	-0.07893638
163	0xbeb1a69c	-0.34697425
164	0x3ea853b4	0.3287636
165	0xbe289cdf	-0.16466092
166	0x3ea6a8aa	0.32550555
167	0xbcbf3f53	-0.023345625
168	0x3e4e606b	0.20153968
169	0xbd8f3879	-0.06993193
170	0x3e4311b1	0.19049717
171	0x3dbae66d	0.091259815
172	0xbde7b105	-0.11313061
173	0xbc73d067	-0.01488123
174	0x3e2c8bd3	0.16850214
175	0x3ea183dc	0.31545913
176	0x3ee58eb2	0.4483543
177	0x3e44e384	0.19227415
178	0x3df57119	0.11984462
179	0x3de06f84	0.1095877
180	0xbc0380aa	-0.008026281
181	0xbd182910	-0.037148535
182	0x3e0c7f02	0.13720325
183	0xbe1fef7b	-0.15618698
184	0x3e42ed5d	0.1903586
185	0x3d629b4e	0.05532389
186	0x3ec9d3c1	0.39419368
187	0x3c85d836	0.016338449
188	0x3eb5515f	0.35413644
189	0x3dae5c50	0.08513701
190	0xbe12762c	-0.14302891
191	0x3e06a96c	0.13150567
192	0x3e5b8f02	0.21441272
193	0x3e4ada26	0.1980978
194	0x3d8e3a61	0.06944729
195	0x3e12a04a	0.14318958
196	0xbd957e3b	-0.07299467
197	0xbe35aa4d	-0.17740746
198	0x3d9e844a	0.07740076
199	0x3ec4ea3f	0.38459966
200	0x3dcf6032	0.1012577
201	0x3d4a1976	0.049340688
202	0xbd3ebc44	-0.046566263
203	0xbe3438c7	-0.17599784
204	0x3dfc9910	0.12333882
205	0xbe028679	-0.1274661
206	0x3d7d7414	0.06187828
207	0x3cb95b59	0.022626566
208	0x3e1aad8f	0.1510527
209	0xbc54ea2d	-0.012995285
210	0x3ef31a74	0.4748112
211	0x3e26dfea	0.16296354
212	0x3e8b82b6	0.27248162
213	0x3d614b75	0.055003602
214	0xbe2c5ec2	-0.16833022
215	0x3ef45aac	0.47725427
216	0xbbc5c0d7	-0.006034951
217	0xbe388a30	-0.18021464
218	0x3d84949e	0.06473659
219	0xbd2f63b6	-0.0428197
220	0x3e170d9b	0.14751284
221	0x3d69e18b	0.05709986
222	0xbdf79230	-0.1208843
223	0x3e7f65ea	0.24941221
224	0x3e4c3df3	0.19945507
225	0x3d70d0d0	0.05879289
226	0x3d768079	0.060181115
227	0xbd206d17	-0.039166536
228	0x3e10f1e1	0.1415477
229	0xbdc12a98	-0.09431952
230	0x3dd2beb1	0.10290278
231	0x3e38b276	0.18036827
232	0xbc4016b4	-0.011724163
233	0x3eb06f9b	0.34460148
234	0x3d455b0c	0.048182532
235	0x3e0271b4	0.12738687
236	0xbe5fda2b	-0.21860568
237	0xbe298382	-0.16554072
238	0x3e2db8c9	0.16965021
239	0x3e51d146	0.20489988
240	0xbe42437e	-0.18971059
241	0xbe46198e	-0.19345686
242	0x3c9513d1	0.018197926
243	0xbee10297	-0.43947288
244	0x3e2f377b	0.17111008
245	0x3dc1f611	0.094707616
246	0xbdbbed1a	-0.09176083
247	0x3da87eb6	0.08227293
248	0x3e328a1e	0.174355
249	0x3dab3668	0.083599865
250	0xbe6af081	-0.22943307
251	0xbd49d083	-0.049271118
252	0x3d770633	0.060308646
253	0xbd8b271f	-0.06794571
254	0x3d3202be	0.043459646
255	0x3e602db5	0.21892436

metaformer.feed_forward2.bias f4 [24]
0	0x3f60c665	0.87802726
1	0x3eee8e2c	0.46592844
2	0x3f26e0c0	0.6518669
3	0x3ed95e75	0.42454877
4	0x3ecd3be6	0.4008476
5	0x3f15eabc	0.585613
6	0x3f37e2d4	0.7183049
7	0xbee08101	-0.43848422
8	0xbf90d6ac	-1.1315513
9	0xbf164fef	-0.5871572
10	0x3e8057ca	0.25066978
11	0x3d6dd57d	0.058064926
12	0x3eb906b9	0.3613794
13	0x3dc443ac	0.0958322
14	0x3f07b10a	0.53004515
15	0xbe32dc50	-0.17466855
16	0x3ed20fda	0.4102772
17	0xbf38cb27	-0.72184986
18	0xbf50ec52	-0.81610596
19	0xbf1787ec	-0.59191775
20	0xbf6c94d8	-0.9241462
21	0xbf56d855	-0.83923846
22	0xbf2006eb	-0.62510556
23	0x3edc1152	0.42981964

metaformer.output_layer.weight f4 [1, 1200]
0	0x3ef48b34	0.47762454
1	0x3f030f64	0.5119536
2	0x3f215938	0.6302676
3	0x3dda8beb	0.106712185
4	0xbe4b11bb	-0.19830982
5	0xbccd1b64	-0.025037475
6	0x3f03cfb0	0.5148878
7	0xbf087d12	-0.5331584
8	0xbe8d3138	-0.27576613
9	0xbeafa5db	-0.34306225
10	0x3f339f1a	0.70164645
11	0x3ed4877e	0.41509622
12	0x3eaef9d3	0.34174976
13	0x3e483bc5	0.1955405
14	0x3ec2834a	0.3799079
15	0x3e386c35	0.18010028
16	0xbec1f43e	-0.37881655
17	0xbe70cadf	-0.23514889
18	0xbf1e7421	-0.6189595
19	0x3d7cfe7d	0.061766136
20	0xbe882594	-0.2659117
21	0xbe91f2a9	-0.28505448
22	0x3d877bd9	0.06615419
23	0x3db6a2ce	0.08917771
24	0xbcf43ba6	-0.029813599
25	0x3da5937a	0.080847695
26	0xba879089	-0.0010342757
27	0x3d324f94	0.043532923
28	0xbe0904bb	-0.13380711
29	0x3e3a2ff9	0.18182363
30	0xbd2d7673	-0.04234929
31	0xbe2f338d	-0.17109509
32	0xbdd4f50a	-0.103983
33	0xbd33773d	-0.043814886
34	0x3dc6cc87	0.09706979
35	0xbd9a7989	-0.07542712
36	0x3d26b051	0.040695492
37	0xbe92da07	-0.28681967
38	0xbc72fef1	-0.014831291
39	0xbd1de046	-0.038543962
40	0xbe7f71cb	-0.24945752
41	0x3e156048	0.1458751
42	0xbd131d29	-0.03591648
43	0xbe7462e4	-0.23865849
44	0xbd6aa2ca	-0.057284154
45	0xbd933138	-0.07187122
46	0x3d77d54e	0.060506158
47	0x3e3b216f	0.18274473
48	0xbca2e35d	-0.019883806
49	0xbe2d01ae	-0.16895172
50	0xbead73d6	-0.33877438
51	0xbcd308a2	-0.025760952
52	0xbd77b8c6	-0.060478948
53	0x3e7d5aa1	0.24741603
54	0xbe3c7a1f	-0.1840596
55	0xbd8a7a47	-0.06761604
56	0xbd926ff7	-0.07150262
57	0xbd0bcee8	-0.034132868
58	0x3c8a5a5b	0.016888788
59	0xbe029e1c	-0.12755626
60	0xbcf64e12	-0.030066524
61	0xbed9e5b7	-0.4255807
62	0xbcc203c5	-0.023683438
63	0xbd8fcf80	-0.07021999
64	0xbe1aee51	-0.15129973
65	0x3c87c530	0.016573519
66	0x3de0501f	0.10952782
67	0xbe7bf96e	-0.24606869
68	0x39c48f4b	0.00037490795
69	0xbdae16f8	-0.08500475
70	0x3bb63717	0.0055607664
71	0x3e00160e	0.12508413
72	0x3dd3fb16	0.10350625
73	0x3e45f6ca	0.19332424
74	0x3f051137	0.5197939
75	0x3e24857f	0.1606655
76	0xbea3d9c7	-0.32002088
77	0xbd23ffa2	-0.040038712
78	0x3ddaf1f6	0.10690682
79	0xbe9e740d	-0.30947915
80	0xbe66f66e	-0.22554943
81	0xbe148d4a	-0.14507023
82	0x3e902be1	0.28158477
83	0x3e9526c6	0.29131144
84	0x3e9ed34c	0.31020582
85	0x3e2c28d4	0.1681245
86	0x3e9a4795	0.30132738
87	0x3d582874	0.052772954
88	0xbdbd4cbb	-0.09243151
89	0xbcf540d4	-0.029938139
90	0xbe935a09	-0.2877963
91	0x3d846447	0.06464439
92	0xbdecc59e	-0.1156113
93	0xbd705864	-0.058678046
94	0xbdea9e10	-0.11455929
95	0x3d9df8d3	0.07713475
96	0xbe331260	-0.17487478
97	0xbd895c27	-0.0670703
98	0xbd8476e1	-0.06467987
99	0x3e1680f8	0.14697635
100	0xbe697456	-0.22798285
101	0x3e1314ee	0.14363453
102	0xbe0f8b3d	-0.14017959
103	0x3c9616f1	0.018321486
104	0xbce4afe1	-0.027915897
105	0x3d1fd4fd	0.03902148
106	0xbde734c3	-0.112893604
107	0xbe4bac01	-0.19889833
108	0x3e421bbf	0.18955897
109	0xbe8a5f49	-0.27025822
110	0x3cff9a4b	0.031201502
111	0xbdffd38a	-0.1249152
112	0x3bb1d393	0.005426833
113	0x3dc1681c	0.094436854
114	0x3e32a409	0.17445387
115	0xbe6d54ab	-0.2317683
116	0x3e1ca5d2	0.1529763
117	0x3d8a8517	0.06763666
118	0x3dd6e408	0.10492712
119	0x3e2977b5	0.16549571
120	0x3d07792f	0.033074554
121	0xbd23648a	-0.039890803
122	0x3e7915b4	0.24324685
123	0xbd28912a	-0.041154064
124	0xbe13e86d	-0.14444132
125	0xbdf521a0	-0.11969304
126	0x3e1e60b8	0.15466583
127	0xbe88a14f	-0.2668557
128	0xbd82b605	-0.06382374
129	0xbe95d3aa	-0.2926305
130	0x3e7792f2	0.24177149
131	0x3ebd2647	0.36943266
132	0x3d9b22b2	0.07574977
133	0x3e8e478d	0.27788964
134	0x3dd3ddb8	0.10345024
135	0x3e04dfbd	0.12975974
136	0xbe152516	-0.14564928
137	0xbe1fce0d	-0.15605946
138	0xbea4eb8a	-0.32210952
139	0x3dcf5b0a	0.10124786
140	0xbe876ff7	-0.2645261
141	0xbe63e3f5	-0.22254927
142	0x3ce7fc13	0.02831844
143	0xbc0fbd42	-0.00877315
144	0xbe2c267d	-0.16811557
145	0xbe73712e	-0.23773643
146	0xbe3468a5	-0.17618044
147	0x3cbadbe8	0.022809938
148	0xbe72c392	-0.23707417
149	0x3daa5656	0.083172485
150	0xbe80f8f1	-0.25189927
151	0x3e0df205	0.13861854
152	0xbcf419a2	-0.029797379
153	0x3d217ef3	0.03942771
154	0xbde954ae	-0.113931045
155	0xbe8516a2	-0.2599383
156	0xbc53a909	-0.012918719
157	0xbe824b40	-0.25448036
158	0xbd42798d	-0.0474792
159	0xbd93f386	-0.07224183
160	0xbc62e3bd	-0.013848242
161	0x3d8651ac	0.065585464
162	0x3e45564d	0.19271202
163	0xbd96fbca	-0.07372244
164	0x3e377c4d	0.1791851
165	0x3e184c5d	0.1487288
166	0x3dd148eb	0.10218986
167	0x3c738775	0.014863838
168	0x3dc65c90	0.09685624
169	0x3e0ec7ed	0.13943453
170	0x3e93c36e	0.2886004
171	0x3df359a2	0.118823305
172	0xbe77a45e	-0.24183795
173	0xbe1e8e99	-0.15484084
174	0x3e31cdb9	0.17363633
175	0xbe9333c2	-0.28750426
176	0xbdfd814a	-0.123781756
177	0xbe5f8e58	-0.21831644
178	0x3ec1081c	0.377015
179	0x3ea073b1	0.31338266
180	0x3e7c25c8	0.24623787
181	0x3ea54ace	0.32283634
182	0x3dbda6aa	0.09260304
183	0x3e0fb83a	0.1403512
184	0xbe1204a7	-0.14259587
185	0xbd512d5f	-0.05106866
186	0xbeb5317b	-0.35389313
187	0x3e096609	0.1341783
188	0xbe3b5e80	-0.18297768
189	0xbdf9bf85	-0.121947326
190	0x3daaa03b	0.08331343
191	0x3c926db7	0.017874582
192	0xbe8edac2	-0.27901274
193	0xbe30e630	-0.1727531
194	0x3b92d052	0.0044804
195	0x3d815a12	0.06316008
196	0xbe76ec3c	-0.24113554
197	0x3c5d3ab9	0.01350277
198	0xbe378d3a	-0.17924967
199	0xbce21839	-0.02759944
200	0x3d2cf528	0.042225987
201	0xbd191298	-0.037371248
202	0xbdaaf628	-0.08347732
203	0xbda3e142	-0.08001949
204	0x3e081a2d	0.13291235
205	0xbe22af89	-0.15887274
206	0xbc853524	-0.016260691
207	0xbd8ae64b	-0.06782206
208	0x3c9c616f	0.019089429
209	0x3d85ee51	0.06539596
210	0x3da92f2e	0.08260952
211	0x3c8d579b	0.017253688
212	0x3db1a977	0.08674901
213	0x3d43e74a	0.047827996
214	0x3dfbd9a9	0.12297375
215	0xbc9137c3	-0.017726785
216	0x3e5f9b57	0.21836601
217	0x3e53d8d0	0.20688176
218	0x3ecb8400	0.39749146
219	0x3dfaab22	0.12239672
220	0xbe780f93	-0.24224691
221	0xbe3f8058	-0.18701303
222	0x3de0e58c	0.109812826
223	0xbeadcf62	-0.33947283
224	0xbce8d3f7	-0.028421385
225	0xbe377dcf	-0.17919086
226	0x3e6b08f1	0.2295263
227	0x3e326741	0.174222
228	0x3e89686d	0.26837483
229	0x3e2b65ce	0.16738054
230	0x3e729d77	0.2369288
231	0x3d64bc9b	0.05584393
232	0xbdaa94f0	-0.08329189
233	0xbd3821b3	-0.044954013
234	0xbe1c45a7	-0.15260945
235	0x3e145d40	0.14488697
236	0xbe802cd8	-0.25034213
237	0xbdf98a5c	-0.12184593
238	0x3db999e3	0.09062555
239	0xbc8af25b	-0.016961267
240	0xbe856fac	-0.2606176
241	0xbd2f34dd	-0.042775024
242	0x3dd495ec	0.10380158
243	0x3dfd2337	0.12360232
244	0xbe6f50e8	-0.23370707
245	0xbe2ac815	-0.16677888
246	0xbdeceaab	-0.11568197
247	0xbe7f5ab4	-0.24936944
248	0x3e2e54b7	0.17024504
249	0xbdbc467b	-0.091931306
250	0xbdaa4f61	-0.083159216
251	0x3d492810	0.049110472
252	0x3da917a3	0.082564615
253	0xbcab46ed	-0.020907843
254	0xbc812eac	-0.015769325
255	0xbc9cab87	-0.01912476

exp_avg f4 [24, 24]
0	0x36ffd5d4	7.624485e-06
1	0x36d53b12	6.3547714e-06
2	0x36f028a2	7.1572877e-06
3	0xb70e0e19	-8.467142e-06
4	0x36d0b031	6.2193944e-06
5	0x36e8c6b5	6.9372713e-06
6	0x37098b09	8.198208e-06
7	0x370e6da0	8.489384e-06
8	0x370f2b57	8.533555e-06
9	0xb70f2b12	-8.533492e-06
10	0xb70c1108	-8.348616e-06
11	0xb70babff	-8.325092e-06
12	0x36dca4ff	6.575719e-06
13	0x3705bdfc	7.971652e-06
14	0x37008412	7.660145e-06
15	0x37093c19	8.179829e-06
16	0x370d14d0	8.409101e-06
17	0xb63b4981	-2.7907956e-06
18	0x353658bf	6.7929426e-07
19	0x370f31fc	8.535102e-06
20	0x370e32f1	8.47572e-06
21	0x370f2d3a	8.533994e-06
22	0x3513f6b2	5.5120756e-07
23	0xb70da9b8	-8.443771e-06
24	0xb59e867d	-1.1811059e-06
25	0x3696416c	4.4779645e-06
26	0x35a66896	1.2398402e-06
27	0x37004377	7.645102e-06
28	0xb7c26cf5	-2.317734e-05
29	0x36092d45	2.0440941e-06
30	0xb69d4077	-4.6864693e-06
31	0xb7020b6b	-7.751262e-06
32	0xb7111c8a	-8.649318e-06
33	0x3711411c	8.657833e-06
34	0x36cabc6a	6.0420034e-06
35	0x36c28e41	5.798211e-06
36	0x367404ba	3.6361585e-06
37	0xb653b4b4	-3.1546633e-06
38	0xb5c40db2	-1.4607124e-06
39	0xb69953a8	-4.569494e-06
40	0xb6df3545	-6.6521193e-06
41	0xb77b955f	-1.4995544e-05
42	0xb7b07462	-2.103503e-05
43	0xb7174d94	-9.018364e-06
44	0xb6fe481d	-7.578185e-06
45	0xb7165719	-8.960976e-06
46	0xb7b3441b	-2.1370177e-05
47	0x36ee3949	7.0996216e-06
48	0xb62692b1	-2.4821313e-06
49	0xb45eff2c	-2.0768192e-07
50	0xb5ce358b	-1.5363779e-06
51	0x36a12a05	4.8030656e-06
52	0xb71bf6b1	-9.296157e-06
53	0xb5a052bc	-1.1945008e-06
54	0xb67fc9fa	-3.8115527e-06
55	0xb6a115dc	-4.8007187e-06
56	0xb6a9634c	-5.048152e-06
57	0x36a976b8	5.050413e-06
58	0x368fe4cf	4.288369e-06
59	0x368d2432	4.206341e-06
60	0xb5154b55	-5.561645e-07
61	0xb659a65d	-3.2432356e-06
62	0xb62d4d69	-2.5824068e-06
63	0xb67ce982	-3.7686846e-06
64	0xb6967aca	-4.484643e-06
65	0xb69134fb	-4.3275045e-06
66	0xb6f36800	-7.2540715e-06
67	0xb6aca972	-5.1457255e-06
68	0xb69f48bb	-4.747036e-06
69	0xb6ac0b5e	-5.1273228e-06
70	0xb6f630c7	-7.3370497e-06
71	0x369ac10a	4.6120304e-06
72	0x339c6384	7.282418e-08
73	0x368fb173	4.28239e-06
74	0x35ff17cf	1.900591e-06
75	0x36a7fb54	5.0062463e-06
76	0xb7936c19	-1.7574102e-05
77	0x36252159	2.4606327e-06
78	0xb62b4432	-2.552068e-06
79	0xb6aa1c55	-5.069693e-06
80	0xb6c450b1	-5.850649e-06
81	0x36c490da	5.858118e-06
82	0x36741d0a	3.6375736e-06
83	0x3666a4f0	3.4368677e-06
84	0x3675bf2d	3.6619124e-06
85	0xb5bb2b96	-1.3945271e-06
86	0xb425fbc2	-1.5458411e-07
87	0xb625797a	-2.4657625e-06
88	0xb68a8696	-4.1283884e-06
89	0xb74a2871	-1.2049554e-05
90	0xb78962a5	-1.6377608e-05
91	0xb6cec7a8	-6.1625215e-06
92	0xb6a50c8b	-4.9188434e-06
93	0xb6cd3064	-6.1151095e-06
94	0xb78c64b2	-1.673619e-05
95	0x36971808	4.5029483e-06
96	0xb79909bc	-1.8243554e-05
97	0xb78a769c	-1.6506114e-05
98	0xb793a43d	-1.7600245e-05
99	0x37a287c8	1.9375133e-05
100	0xb7348b16	-1.07612195e-05
101	0xb7918d7e	-1.7351234e-05
102	0xb79f016f	-1.8954945e-05
103	0xb7a28c06	-1.9377108e-05
104	0xb7a2d7be	-1.9412368e-05
105	0x37a2d5ca	1.9411458e-05
106	0x37a0cc15	1.916852e-05
107	0x37a07cfa	1.9131683e-05
108	0xb78d130c	-1.681738e-05
109	0xb79ca3b8	-1.8672887e-05
110	0xb79990b4	-1.8306404e-05
111	0xb79ed617	-1.8934761e-05
112	0xb7a189d7	-1.9256882e-05
113	0x372f36a8	1.04435385e-05
114	0x36678990	3.4501754e-06
115	0xb7a2841f	-1.9373429e-05
116	0xb7a25513	-1.935152e-05
117	0xb7a28827	-1.9375306e-05
118	0x36630a5e	3.383167e-06
119	0x37a1f7df	1.930812e-05
120	0xb71c91d3	-9.332277e-06
121	0xb7012890	-7.698443e-06
122	0xb7115cb6	-8.664259e-06
123	0x3734b425	1.0770779e-05
124	0xb6f383d4	-7.257311e-06
125	0xb70dbb46	-8.447858e-06
126	0xb72ad053	-1.0181294e-05
127	0xb7338e30	-1.0702337e-05
128	0xb7346c06	-1.0753987e-05
129	0x373474f7	1.0756069e-05
130	0x372fc4de	1.047665e-05
131	0x372ef0dd	1.04272885e-05
132	0xb705979b	-7.962716e-06
133	0xb724c759	-9.821576e-06
134	0xb71de4d4	-9.411207e-06
135	0xb72a6b33	-1.0157749e-05
136	0xb7315cc5	-1.0571622e-05
137	0x366995df	3.4806942e-06
138	0xb4f22ba8	-4.5107777e-07
139	0xb733bae2	-1.07127435e-05
140	0xb73308e8	-1.0671305e-05
141	0xb733b17a	-1.0710553e-05
142	0xb5182ac9	-5.6686673e-07
143	0x37322107	1.0617317e-05
144	0xb6696ed5	-3.4784218e-06
145	0xb620f7f5	-2.3986188e-06
146	0xb64b80a7	-3.0324243e-06
147	0x3695a21b	4.4594176e-06
148	0xb69da333	-4.6979635e-06
149	0xb641741e	-2.882683e-06
150	0xb687f7b7	-4.0521513e-06
151	0xb6939600	-4.3984037e-06
152	0xb695f696	-4.4692524e-06
153	0x3696036b	4.4707463e-06
154	0x368e345d	4.2380257e-06
155	0x368d29d4	4.206997e-06
156	0xb62c669f	-2.568973e-06
157	0xb67fe92c	-3.8133685e-06
158	0xb66cdc01	-3.52948e-06
159	0xb68774e6	-4.0369223e-06
160	0xb690472a	-4.299819e-06
161	0xb3b0c4c1	-8.231428e-08
162	0xb60ac286	-2.067683e-06
163	0xb6964bee	-4.4791877e-06
164	0xb692c419	-4.373968e-06
165	0xb6961750	-4.4730623e-06
166	0xb60ecfd8	-2.128063e-06
167	0x36915018	4.330661e-06
168	0xb74bc9e1	-1.21467465e-05
169	0xb735991d	-1.082409e-05
170	0xb74413c5	-1.1687113e-05
171	0x375858bb	1.2895262e-05
172	0xb6fab83d	-7.4720288e-06
173	0xb74000eb	-1.14443055e-05
174	0xb7554b3c	-1.2713306e-05
175	0xb75a1ebc	-1.30009685e-05
176	0xb75a07a9	-1.2995596e-05
177	0x375a02ab	1.2994434e-05
178	0x3757e8e3	1.2869222e-05
179	0x37578700	1.2846431e-05
180	0xb739a6cd	-1.1065696e-05
181	0xb7518422	-1.2488135e-05
182	0xb74c32c2	-1.21711655e-05
183	0xb754f224	-1.2692562e-05
184	0xb75932bc	-1.294602e-05
185	0x36d957d9	6.4773308e-06
186	0x35dd79c7	1.6501225e-06
187	0xb759f578	-1.2991361e-05
188	0xb75a2ba0	-1.300397e-05
189	0xb759fe4b	-1.2993415e-05
190	0x35f0b466	1.7933896e-06
191	0x3759f18d	1.2990448e-05
192	0xb7076120	-8.069241e-06
193	0xb6ecd1d8	-7.057777e-06
194	0xb6fc37fd	-7.516703e-06
195	0x3719efef	9.1753745e-06
196	0xb6a1b357	-4.819052e-06
197	0xb7003f04	-7.6440665e-06
198	0xb70b8565	-8.316104e-06
199	0xb70c60bc	-8.367173e-06
200	0xb70ccb77	-8.392023e-06
201	0x370ceb18	8.399387e-06
202	0x370e1f74	8.471183e-06
203	0x370d6b4d	8.429238e-06
204	0xb6f1b694	-7.2036146e-06
205	0xb70a0748	-8.227136e-06
206	0xb70a4a2a	-8.242709e-06
207	0xb70bf599	-8.342228e-06
208	0xb70c0140	-8.344941e-06
209	0x3683eaca	3.9314373e-06
210	0x3593fc50	1.1025786e-06
211	0xb7090a0d	-8.1681765e-06
212	0xb70a9430	-8.259944e-06
213	0xb7090a0a	-8.168174e-06
214	0x34997f64	2.859116e-07
215	0x3709c99f	8.21278e-06
216	0x3673ed1f	3.6347844e-06
217	0x367e481b	3.789092e-06
218	0x367a714b	3.7318848e-06
219	0xb649f209	-3.0092217e-06
220	0xb4c8b829	-3.7386897e-07
221	0x367c7362	3.7618088e-06
222	0x36607163	3.34446e-06
223	0x363d75d0	2.823177e-06
224	0x36313c0f	2.6410014e-06
225	0xb63135e8	-2.6406433e-06
226	0xb65520c8	-3.1758555e-06
227	0xb65755f4	-3.2087528e-06
228	0x367df176	3.7840487e-06
229	0x366a63e1	3.4926854e-06
230	0x3673626c	3.626711e-06
231	0x36618c8e	3.3609426e-06
232	0x364c5ca0	3.0452284e-06
233	0xb66362af	-3.3883077e-06
234	0xb62a6338	-2.5389727e-06
235	0x36292464	2.5204145e-06
236	0x363e452b	2.8352467e-06
237	0x3629d488	2.5306672e-06
238	0xb62c5dfa	-2.5684699e-06
239	0xb644740b	-2.9273822e-06
240	0x36c3f9d0	5.840535e-06
241	0x3769ceda	1.3936044e-05
242	0x371ce6e1	9.35208e-06
243	0x368815ce	4.0556542e-06
244	0xb80973ee	-3.2771313e-05
245	0x37301369	1.0494937e-05
246	0x35242f06	6.116319e-07
247	0xb69243b3	-4.3590203e-06
248	0xb6c602f4	-5.9012036e-06
249	0x36c672cb	5.9142235e-06
250	0x35c9b15a	1.5027283e-06
251	0x3595ae55	1.1152102e-06
252	0x375602e4	1.2756067e-05
253	0x36441461	2.9218138e-06
254	0x36b61d31	5.427421e-06
255	0x3554a3ba	7.921441e-07

exp_avg_sq f4 [24, 24]
0	0x38bf8545	9.132413e-05
1	0x38a85f1c	8.02858e-05
2	0x38c5f8e8	9.4400544e-05
3	0x38e3b365	0.00010857618
4	0x38d50d30	0.00010159088
5	0x38c8de19	9.578112e-05
6	0x38dc28c0	0.00010498008
7	0x38d633c8	0.0001021396
8	0x389a181f	7.347785e-05
9	0x38bb1ca9	8.922193e-05
10	0x38c471d0	9.3672075e-05
11	0x38ddce67	0.000105765466
12	0x38aec52a	8.333691e-05
13	0x389aebd2	7.387217e-05
14	0x38aa8ca4	8.132428e-05
15	0x3892025a	6.9622605e-05
16	0x38a256d0	7.740932e-05
17	0x38c3e2f0	9.340595e-05
18	0x38deba0f	0.00010620441
19	0x38948e9e	7.0837545e-05
20	0x387b7f83	5.9961818e-05
21	0x38aa33f2	8.115907e-05
22	0x38d7a0c8	0.00010281947
23	0x38aed9f0	8.3375606e-05
24	0x38132432	3.508124e-05
25	0x383eeb96	4.5518937e-05
26	0x3839b7fe	4.4278793e-05
27	0x385cc735	5.2637613e-05
28	0x38138a83	3.517653e-05
29	0x380d058b	3.3622182e-05
30	0x383f8626	4.5662884e-05
31	0x38848ae2	6.3201194e-05
32	0x386ff707	5.7212103e-05
33	0x380ab55b	3.3070664e-05
34	0x383257f5	4.2520423e-05
35	0x3846eae6	4.7425645e-05
36	0x38160c66	3.5774334e-05
37	0x37ea21b3	2.7910666e-05
38	0x38006386	3.0610267e-05
39	0x37eafa00	2.8011389e-05
40	0x37f7ad9d	2.952554e-05
41	0x38567e12	5.1138988e-05
42	0x386d9d59	5.6651745e-05
43	0x383676e7	4.3502918e-05
44	0x382871c6	4.016028e-05
45	0x38981eb1	7.2536415e-05
46	0x388ecab0	6.808841e-05
47	0x38329749	4.2579402e-05
48	0x37fa816e	2.9862593e-05
49	0x37f934c3	2.9707682e-05
50	0x37f83b07	2.959139e-05
51	0x3816cdbd	3.5954396e-05
52	0x38092175	3.2694505e-05
53	0x3803382d	3.128515e-05
54	0x381bb899	3.71268e-05
55	0x384c7260	4.874391e-05
56	0x385e0161	5.293021e-05
57	0x3807ea78	3.2404874e-05
58	0x381babb2	3.7114783e-05
59	0x3826e8ff	3.979448e-05
60	0x37dc4e5b	2.626253e-05
61	0x37e25e2f	2.6985157e-05
62	0x37e2824c	2.7001974e-05
63	0x3827e4de	4.0029052e-05
64	0x3830bc20	4.2136875e-05
65	0x37fa377f	2.9828165e-05
66	0x3840f844	4.6007583e-05
67	0x383a0091	4.4346383e-05
68	0x385c2e72	5.2495343e-05
69	0x3880c84b	6.140823e-05
70	0x3839fa8f	4.4340788e-05
71	0x3819936f	3.661535e-05
72	0x37e2b477	2.7025335e-05
73	0x380e4b20	3.3925404e-05
74	0x380fb1df	3.4259512e-05
75	0x38338033	4.279632e-05
76	0x37d92a7c	2.58882e-05
77	0x37c491b1	2.3432864e-05
78	0x3817b726	3.6171776e-05
79	0x387352eb	5.8012938e-05
80	0x3883320c	6.255889e-05
81	0x37ad468d	2.065606e-05
82	0x3807b64f	3.2356296e-05
83	0x38480538	4.7688576e-05
84	0x37f5038a	2.9207924e-05
85	0x37d040b5	2.4825664e-05
86	0x37c8ef77	2.3953367e-05
87	0x37e09a2b	2.6774671e-05
88	0x382a9e4d	4.0678588e-05
89	0x3826c052	3.9756596e-05
90	0x38417d67	4.6131576e-05
91	0x3828cc67	4.0244686e-05
92	0x3828eae6	4.0273088e-05
93	0x38925fb0	6.979646e-05
94	0x386cfd3c	5.6502628e-05
95	0x3835c973	4.3341377e-05
96	0x3a0c0232	0.00053409033
97	0x39f75883	0.00047177458
98	0x39fa28de	0.00047714164
99	0x39cbbfab	0.0003886198
100	0x3a16c92a	0.00057520217
101	0x3a106b6d	0.0005509172
102	0x3a015879	0.0004934143
103	0x39e1e93e	0.00043089123
104	0x3973a5e5	0.00023236086
105	0x3a0df113	0.0005414646
106	0x3a04339c	0.0005043091
107	0x3a1427bf	0.00056516746
108	0x3a10c06b	0.00055218366
109	0x3a169b70	0.0005745208
110	0x3a175aa8	0.00057737017
111	0x3a1bb9f5	0.00059404905
112	0x3a0e58a2	0.00054300774
113	0x39ffbacf	0.00048776573
114	0x3a0c31ce	0.00053479976
115	0x39f81db1	0.00047324368
116	0x39b28d55	0.00034056106
117	0x394b340c	0.00019378978
118	0x39a82b08	0.00032075518
119	0x3a068721	0.000513183
120	0x38e61f97	0.00010973139
121	0x38930350	7.010123e-05
122	0x38b1425e	8.4523796e-05
123	0x38d52fe4	0.00010165552
124	0x39025418	0.00012429093
125	0x3902c584	0.00012471346
126	0x38ed6944	0.00011320648
127	0x38d6b4d4	0.00010237997
128	0x38f9ff2d	0.000119207754
129	0x38fccfb7	0.00012054986
130	0x39393298	0.00017661822
131	0x38eb65e3	0.00011224651
132	0x38dca6b7	0.000105214705
133	0x3900c221	0.0001227935
134	0x3906d3b4	0.00012858101
135	0x3942e760	0.00018587476
136	0x39012072	0.00012314486
137	0x38a5c0e8	7.903745e-05
138	0x390ca863	0.0001341417
139	0x3909edd1	0.00013153932
140	0x39115063	0.00013858224
141	0x38c44ab1	9.359921e-05
142	0x38ccf178	9.772455e-05
143	0x38f9822a	0.0001189749
144	0x376ee6f7	1.4239681e-05
145	0x37910be5	1.7290886e-05
146	0x378508be	1.5858906e-05
147	0x37a450a0	1.9587867e-05
148	0x37955d0e	1.7805516e-05
149	0x37793f9a	1.4856365e-05
150	0x3786891c	1.6037891e-05
151	0x37dd60c9	2.6390322e-05
152	0x3796d990	1.7982704e-05
153	0x374c2360	1.2167584e-05
154	0x3793b6bb	1.7608856e-05
155	0x379fae64	1.9035484e-05
156	0x37831b9b	1.5629272e-05
157	0x37756b30	1.46280945e-05
158	0x3776acf5	1.4703012e-05
159	0x378a1665	1.646131e-05
160	0x37a143c7	1.9224257e-05
161	0x37b8fb91	2.2051654e-05
162	0x3795f50d	1.7876295e-05
163	0x3783c077	1.570604e-05
164	0x375682d7	1.27858575e-05
165	0x37b5751b	2.1631413e-05
166	0x37c73523	2.3747392e-05
167	0x3783c3ae	1.5707537e-05
168	0x38520030	5.0068076e-05
169	0x3832c31a	4.262021e-05
170	0x38252482	3.9373066e-05
171	0x3811105e	3.4585937e-05
172	0x3866b44e	5.5004195e-05
173	0x38631cfd	5.4148015e-05
174	0x38504164	4.9651964e-05
175	0x3824e22e	3.9311293e-05
176	0x3843129e	4.650896e-05
177	0x385d2ba4	5.273115e-05
178	0x389ea166	7.56409e-05
179	0x3854a03b	5.0693965e-05
180	0x384b9cf4	4.8545146e-05
181	0x3872669a	5.779285e-05
182	0x3877d68a	5.9089194e-05
183	0x38b16056	8.457962e-05
184	0x3858442e	5.156191e-05
185	0x382da555	4.140039e-05
186	0x38777bdc	5.9004742e-05
187	0x387a77ef	5.971634e-05
188	0x3883c766	6.2837076e-05
189	0x381d2c62	3.747305e-05
190	0x381729ed	3.6040252e-05
191	0x38681d63	5.534048e-05
192	0x38d667f5	0.00010223679
193	0x38de60c5	0.0001060381
194	0x38dbea62	0.00010486391
195	0x38cf1634	9.874665e-05
196	0x38e46a04	0.00010891634
197	0x38db5e3f	0.000104602885
198	0x38dd8e8c	0.000105646526
199	0x38d9e95f	0.00010390835
200	0x381ecbb3	3.7859845e-05
201	0x38d90af1	0.00010349404
202	0x38f689ba	0.00011755848
203	0x38d4dca2	0.00010150044
204	0x38df7674	0.00010655532
205	0x38d8850a	0.00010324463
206	0x38e1d423	0.000107683496
207	0x38e0e175	0.00010723147
208	0x38857faa	6.3657135e-05
209	0x38e228ef	0.00010784144
210	0x38e341a9	0.00010836434
211	0x38850fae	6.344855e-05
212	0x38311acc	4.2225045e-05
213	0x380a670a	3.2997727e-05
214	0x38b676b7	8.700549e-05
215	0x38d86f09	0.000103203645
216	0x38493d2b	4.79791e-05
217	0x386b5b4f	5.6113404e-05
218	0x385dbcad	5.2866224e-05
219	0x3871d84a	5.7660312e-05
220	0x384bd999	4.8601625e-05
221	0x384069d5	4.587493e-05
222	0x386c71f8	5.6372926e-05
223	0x387ff2ec	6.1022976e-05
224	0x3808813e	3.2545293e-05
225	0x382f5dc9	4.1810596e-05
226	0x38518000	4.9948692e-05
227	0x3889a919	6.564166e-05
228	0x3840446e	4.5840097e-05
229	0x38204db1	3.821933e-05
230	0x38343a93	4.2969896e-05
231	0x37e1eea7	2.6933221e-05
232	0x380a9ea5	3.3049513e-05
233	0x38510d97	4.984214e-05
234	0x388d0e52	6.726071e-05
235	0x37ec3210	2.8156705e-05
236	0x37c21017	2.3134095e-05
237	0x382562ae	3.9430968e-05
238	0x386d15b6	5.6525423e-05
239	0x3821292e	3.8423743e-05
240	0x386c6886	5.636413e-05
241	0x38abfb5c	8.200735e-05
242	0x389165da	6.93311e-05
243	0x3896d367	7.191934e-05
244	0x387a006f	5.960505e-05
245	0x3865e411	5.4810258e-05
246	0x388be3d2	6.670471e-05
247	0x38cec81b	9.860118e-05
248	0x38767ff1	5.8770125e-05
249	0x38586b6e	5.1598465e-05
250	0x388a3dee	6.591888e-05
251	0x38af3839	8.3551226e-05
252	0x387c0d69	6.009397e-05
253	0x383be603	4.479849e-05
254	0x385bfedd	5.245103e-05
255	0x38327ca9	4.2554606e-05
