code/lightning_logs/content/lightning_logs/Baseline Transformer/version_4/checkpoints/Baseline Transformer.ckpt (torch, 62611 bytes, 45 tensors)

transformer.encoder.attention_layer.query_transformation.weight f4 [6, 6]
000000 6c 0a b3 be c6 c4 ae 3e a4 ff af 3e 8a 6d 92 bd
       -0.3496889 0.341345 0.34374726 -0.07149799
000010 82 d4 96 3e 21 e7 3c 3e 0a 27 6d 3e de a7 51 3e
       0.29459006 0.18447544 0.23159423 0.20474193
000020 a3 3c 40 3e 12 ce 5d 3e 14 fd ba bd 15 18 cf 3e
       0.18773131 0.21660641 -0.09130302 0.4044806
000030 ee b2 8d bd a0 44 9b be 02 f9 b1 3e c6 82 46 3e
       -0.06918894 -0.30325794 0.3476029 0.19385824
000040 fa 07 be be 40 3e ac 3e 28 c5 13 3e 07 8c 8c be
       -0.3711546 0.33641243 0.14430678 -0.27450582
000050 83 4d af bc 59 74 c1 be 2a de db bd 6a e7 b1 3d
       -0.021399265 -0.3778408 -0.10735734 0.08686717
000060 08 a7 89 be 5b fb bc 3e 07 a7 08 be e9 7e 5d 3e
       -0.26885247 0.3691052 -0.13344966 0.21630444
000070 30 b4 21 3e db 92 cd 3e 7d f2 ba be ee d7 ce be
       0.15791392 0.40151104 -0.3651313 -0.40399116
000080 31 6c 87 3d 0a 20 95 3e 6b cf 6d bc e9 a0 46 3e
       0.06612433 0.29126006 -0.014514784 0.1939732

transformer.encoder.attention_layer.query_transformation.bias f4 [6]
000000 5e a8 36 3e 6c 28 9b 3e 7e e2 27 be 52 a9 60 3e
       0.17837664 0.30304277 -0.16394994 0.2193959
000010 c4 4d a4 be 4d 69 2e ba
       -0.3209058 -0.0006653264

transformer.encoder.attention_layer.key_transformation.weight f4 [6, 6]
000000 4c 42 61 be bb df 85 bd 50 ba 81 be ab 54 14 3e
       -0.21997947 -0.06536814 -0.25337458 0.14485423
000010 9d c6 96 be ea 09 48 be 36 b2 c9 be a6 4a 8a be
       -0.29448405 -0.19535032 -0.39393777 -0.27010077
000020 f6 63 87 3e 1a 87 17 be d6 c1 26 be 1c eb 05 bd
       0.26443452 -0.14797631 -0.1628488 -0.03269492
000030 cf 40 17 3e 8b e9 6d 3d af 75 06 3e f5 bd 42 3e
       0.14770816 0.058084052 0.1313083 0.19017775
000040 0c 85 b5 3e 6d 07 bb be 74 65 87 be bf 49 26 3e
       0.3545307 -0.36529103 -0.2644459 0.1623907
000050 c6 02 ae be 91 4c 8b 3e cb a6 92 be 1e 14 17 3d
       -0.3398649 0.27206853 -0.28642878 0.03688442
000060 15 01 ae be d1 21 cd be a1 8d a7 be ab 28 81 3d
       -0.339852 -0.40064862 -0.32725242 0.06306585
000070 4e 57 85 3e 06 8e 9c 3e 04 18 bb 3e 10 74 5d 3e
       0.2604317 0.30577105 0.3654176 0.21626306
000080 72 07 92 3e 27 0d 1b 3e d1 3d 8b 3d 45 48 b1 be
       0.28521305 0.15141736 0.067989 -0.3462545

transformer.encoder.attention_layer.key_transformation.bias f4 [6]
000000 8e 4a b9 be 45 fa c6 be 7c b4 29 3e bd 29 96 3e
       -0.36189693 -0.38862815 0.16572756 0.2932872
000010 43 90 96 3e 91 ad 88 be
       0.29406938 -0.2669492

transformer.encoder.attention_layer.value_transformation.weight f4 [6, 6]
000000 33 8b 49 be 37 10 cb 3e d1 00 a4 be 17 f6 c2 bc
       -0.19682007 0.39660808 -0.32031873 -0.023798985
000010 43 5a 49 be 24 a7 cf be 63 ec fc bc cb 06 9d 3e
       -0.19663338 -0.40557206 -0.030874437 0.30669245
000020 35 08 a8 3c 2f 62 7f be 15 81 6e 3e f7 7e ad 3b
       0.020511726 -0.24939798 0.23291428 0.0052946764
000030 3e 2f 7f 3e 22 21 bb 3e 77 7e 20 bd 22 48 c9 bd
       0.24920365 0.36548716 -0.039183106 -0.09828211
000040 40 34 a4 3e a5 95 ce 3e 7d 63 35 3d 2c 21 bb 3e
       0.32071114 0.40348545 0.044284333 0.36548746
000050 fd b7 6f 3d f6 99 c6 be db 89 9a 3e 03 bb c5 bd
       0.058525074 -0.38789338 0.301833 -0.0965481
000060 35 1b 19 3d a9 74 fe 3d 55 c3 69 3e e1 ee 91 bd
       0.037379462 0.12424595 0.2282842 -0.07125641
000070 2a 84 97 be f2 57 b9 3c cb 77 81 3d 36 16 c0 be
       -0.2959302 0.022624943 0.06321677 -0.37516946
000080 09 68 3d be 38 cf 38 be be 65 99 3e 01 f6 3c be
       -0.18496718 -0.18047798 0.29960436 -0.18453218

transformer.encoder.attention_layer.value_transformation.bias f4 [6]
000000 6f b2 9c 3e 61 97 a4 3e cb db d1 3d 0d 6a af 3e
       0.30604884 0.32146743 0.10247 0.34260598
000010 81 5d 04 3e 13 f0 b3 3e
       0.12926294 0.351441

transformer.encoder.feed_forward1.weight f4 [24, 24]
000000 a2 96 cc be 63 2e d1 3d cc ea 95 3e 08 98 12 3e
       -0.39958674 0.10213926 0.29280698 0.14315808
000010 54 81 37 be a0 66 94 3d 53 44 83 be 77 42 74 3e
       -0.17920429 0.07246137 -0.25638065 0.2385348
000020 c6 c6 5c 3c 89 8d f9 3d 74 9c 00 3f c9 96 91 be
       0.013475126 0.12185199 0.5023873 -0.28435352
000030 49 dd a3 3d 5f 67 b9 3e 70 4d 94 3d b3 de b2 3e
       0.08001191 0.36211678 0.072413325 0.3493553
000040 3a 7d 5a bd a6 ec 8f be fd ae bc 3c bc c4 1a be
       -0.05334208 -0.28110236 0.02303266 -0.1511411
000050 f9 3b 6f 3e 71 c2 bc 3e 0e 0f 05 3e 07 4f 88 3e
       0.23362722 0.36867097 0.12994024 0.26622793
000060 a9 d8 16 3e ce 91 bf 3d d8 d5 a0 be c5 b2 fa bb
       0.14731087 0.09353982 -0.3141315 -0.0076507055
000070 9e 55 c9 3e 70 23 08 be 4c d4 2e 3e 31 60 d3 be
       0.39323133 -0.13294768 0.17073172 -0.41284326
000080 5c 8f a3 be cf 81 4c bd a5 c0 5b be 48 cf 19 3e
       -0.31945312 -0.049928483 -0.21460207 0.15020478
000090 03 c7 5f bd d3 2e a5 be b2 25 f2 3d 2e a7 41 be
       -0.05463315 -0.32262287 0.11823596 -0.1891143
0000a0 00 4d 32 bd 83 97 a3 3e 98 60 77 be c7 d7 12 be
       -0.043530464 0.31951532 -0.24157941 -0.14340125
0000b0 3b d0 33 be b2 e9 bc bd 5c 5f e4 bd f5 9a a2 be
       -0.17559902 -0.09224261 -0.11151001 -0.31758848
0000c0 5b d8 de bd 60 62 0a 3e 1d cf ca bd 52 e5 de bd
       -0.1088111 0.1351409 -0.09902785 -0.10883583
0000d0 1b d8 7f be 58 e6 fd 3c da dd 0f be 8e 7d c8 3d
       -0.24984781 0.030993626 -0.14049473 0.09789573
0000e0 18 7b 47 3e 6d 31 00 bd fc e7 6b 3e f9 31 9f bd
       0.1948055 -0.031297136 0.23037714 -0.077732034
0000f0 3c ac 17 be f2 ce 40 3e c5 1d e8 3d 8f 0d 17 3e
       -0.14811796 0.18828943 0.11333803 0.14751266
000100 0e e6 97 3d d2 42 da bd f7 37 22 3d 37 6e 03 be
       0.07416926 -0.10657276 0.039604153 -0.12835012
000110 11 4b 9d bd 9d a9 96 bb f7 e1 bf 3d 67 0e d9 3e
       -0.076803334 -0.004597856 0.09369271 0.423938
000120 bd 05 68 3e e2 d6 d5 bd e3 80 a0 bc a0 0a 08 bc
       0.22658439 -0.10441376 -0.019592708 -0.008303314
000130 29 10 f8 3e 70 f1 ba 3b 56 76 e0 3d d6 8f ef bd
       0.4844983 0.005705051 0.10960071 -0.116973564
000140 0c 51 69 be d9 12 8c be ee a0 e6 be ed f2 57 3e
       -0.22784823 -0.2735813 -0.45044655 0.21088763
000150 56 37 c1 3d 33 ff b6 3d be 57 9a bd f0 88 f5 3d
       0.094343826 0.08935394 -0.07536267 0.119890094
000160 2f 11 69 be 91 34 c4 3d f9 b3 a1 be b4 4a 6f 3e
       -0.22760461 0.09580339 -0.3158262 0.2336834
000170 9e 2d 8e be 89 06 e0 be b5 88 1d 3d b3 89 d1 be
       -0.27769178 -0.43754986 0.038460452 -0.4092537
000180 8b 88 87 3e c9 f5 37 be 39 71 89 3e 25 ac 2d be
       0.26471362 -0.17964853 0.26844195 -0.16960199
000190 e4 5f f6 3d 80 20 0c be 22 35 d1 be 4f 7b d5 bc
       0.120300084 -0.13684273 -0.4086085 -0.026059775
0001a0 d9 4f a0 bc 9d 08 e0 be 30 17 d4 bd 34 f6 15 bf
       -0.019569324 -0.4375657 -0.10355985 -0.585788
0001b0 e2 71 b9 bc fa 4e a1 be 87 f3 99 3e 54 be 08 be
       -0.022637311 -0.31505567 0.3006861 -0.13353854
0001c0 85 fa 87 3d e9 e1 6b 3d 48 ad 98 bc 7d b7 06 be
       0.0663958 0.05758849 -0.018637314 -0.13155933
0001d0 c3 68 02 be a9 3e 4a bd a8 b3 bf 3e d8 22 ea 3e
       -0.12735276 -0.049376164 0.37441754 0.4572971
0001e0 0b 08 33 3d 9b f6 72 3e 5a 91 2f be 94 2d 20 3e
       0.043708842 0.23726885 -0.17145291 0.15642387
0001f0 f8 47 60 3e 9d 69 32 3e 28 5a 0d 3e 87 fa 99 be
       0.21902454 0.17423101 0.13803923 -0.3007395
000200 fe c1 66 be a7 98 c2 be 37 a2 73 be b4 17 1e 3e
       -0.2253494 -0.3800709 -0.23792349 0.1543873
000210 be 53 54 be 10 cd 29 be 6e fd f1 bd dc 8b ba 3d
       -0.2073507 -0.16582131 -0.11815916 0.09108707
000220 b5 12 66 bd 8c 57 5e be d8 11 0a be d4 e4 8b 3e
       -0.056170184 -0.21713084 -0.1348337 0.2732302
000230 18 b9 a6 be 51 ff 03 bd 86 d4 e9 bd cd 6a c5 be
       -0.3256309 -0.03222591 -0.11417489 -0.38558045
000240 6a 9f 89 be 13 56 0e 3d c7 1d df 3e 0a e0 87 bd
       -0.26879436 0.034750056 0.43577406 -0.06634529
000250 73 58 08 be cb cf 0a 3e 69 df f1 bc 90 8f 35 3e
       -0.1331499 0.13555829 -0.029525476 0.17730546
000260 e8 1b 0b 3e 2d 0d cf bc 1c 19 f9 bd 32 12 aa be
       0.13584864 -0.025274837 -0.12162992 -0.33217007
000270 a3 82 06 be 25 31 19 be 67 82 00 bd b5 f1 8e 3e
       -0.13135771 -0.14960153 -0.03137436 0.27918783
000280 03 8c d4 bd 4e a4 e3 3d aa 15 fc 3c 64 79 e1 3d
       -0.103782676 0.11115323 0.030772049 0.110094815
000290 60 21 a2 bd 7c ec d3 3c b8 3c a3 3e c9 e0 a5 3e
       -0.07916522 0.0258696 0.31882262 0.3239806
0002a0 45 cf 1c 3d a1 09 c3 3d dc 7b 77 3d ef 9b 80 3e
       0.038283605 0.09523321 0.060420856 0.25118968
0002b0 5f 2f 65 3d 6c f8 e0 bd cd 9a 3c be 30 bf c3 bc
       0.05595338 -0.10984883 -0.18418427 -0.023894876
0002c0 34 16 02 be ac a4 d0 bd a1 54 f4 bd 9f 00 57 bd
       -0.12703782 -0.10187659 -0.11930204 -0.052490827
0002d0 77 e5 2f 3e ab c7 f8 bd cc f1 5f 3e 00 2d 5e 3e
       0.17177378 -0.12147459 0.21869582 0.21696854
0002e0 85 3e d2 3d bd 0c 7f bd 79 45 aa 3d a3 a8 6c bd
       0.10265831 -0.062268008 0.08314032 -0.057778012
0002f0 0e 33 a4 bd 2a 75 a7 bd 43 23 ac 3c 63 28 5d 3c
       -0.080175504 -0.08176644 0.021012908 0.0134983985
000300 c0 27 24 3e 0a 48 9d 3d 87 6c f0 3d 75 ac d1 3c
       0.16030788 0.07679756 0.1173945 0.02559493
000310 4a a8 43 3d 86 88 f8 bd f0 1e 55 be 47 6d e5 bd
       0.047767915 -0.12135415 -0.20812583 -0.112024836
000320 64 dd a7 bd 7c 55 26 3e ed a8 b8 3d 40 27 99 be
       -0.08196524 0.16243547 0.09016595 -0.29912758
000330 9d e1 6b 3e ad 08 d7 bd cd 6d 80 bd 6c 56 e0 bd
       0.23035283 -0.10499702 -0.06270943 -0.10953984
000340 34 af 21 be 8e 76 ea bc b0 79 ab bc f4 a0 b0 3d
       -0.15789491 -0.028620984 -0.020932049 0.08624449
000350 66 51 43 be 9f 55 df 3c c8 ab b9 be e3 f0 48 3e
       -0.1907402 0.027262507 -0.3626387 0.19623141
000360 36 b2 8e 3e 73 b1 ae 3c 3e 74 7e bd 82 2d 50 3e
       0.2787034 0.021324849 -0.062122576 0.2032986
000370 c8 fe e6 3b 8f a6 62 be 24 0a 17 be d6 bb c5 bd
       0.0070494153 -0.2213385 -0.14749962 -0.096549675
000380 0d 18 35 be 4b af 58 be f7 48 07 3e ef 75 98 3e
       -0.17684956 -0.21160619 0.13211428 0.29777476
000390 6d 26 e7 bd ab d7 8f 3c f4 7d 86 be dd 38 57 3e
       -0.11286626 0.017558893 -0.2626797 0.21017785
0003a0 3c 83 9d 3e 9d 21 56 3e 2d aa 78 be cd 45 45 3e
       0.30764186 0.2091126 -0.24283667 0.19264908
0003b0 8f d3 42 bc ae 21 85 3d e5 bb 15 3e 60 c3 bf bd
       -0.01189126 0.065005645 0.14622457 -0.09363437
0003c0 f3 e3 fe 3d 5f 68 3a be 6e 36 88 be 4a dd 37 bd
       0.124458216 -0.18203877 -0.26604027 -0.044888772
0003d0 4f ca f6 3e 7a 0f 16 be 9f 09 06 3c 28 3e d7 be
       0.48201224 -0.14654341 0.008181005 -0.4203961
0003e0 ae 96 b1 be c7 97 e2 bd d5 6e d7 be 09 bd 1a 3f
       -0.34685272 -0.110641055 -0.42076746 0.60444695
0003f0 4a c3 06 3e 91 10 e7 be 91 f8 04 3e 21 bf 96 bd
       0.13160434 -0.45129827 0.12985446 -0.07360674

transformer.encoder.feed_forward1.bias f4 [24]
000000 3d 12 40 be b8 ba 81 3c 99 dc 39 3d 99 97 52 3d
       -0.18756957 0.015836105 0.045376394 0.051414106
000010 df e0 b7 bd d1 e4 19 3e 8a 58 55 3e 99 e1 ce be
       -0.08978438 0.15028693 0.20834556 -0.40406492
000020 5b bd 1f bf 3b e7 0f 3d b1 8f 67 3d ee c3 20 3d
       -0.6239831 0.035132628 0.05653352 0.039249353
000030 a5 ee c6 bd 7a f7 ad be 34 25 27 bf 4b 8b c1 be
       -0.097134866 -0.33977872 -0.6529114 -0.37801585
000040 5a 2e 92 be c0 1d 95 bd d8 de ac be 22 71 e4 be
       -0.28550988 -0.07281065 -0.33763766 -0.44617563
000050 3c fd 9d be 1b 11 a8 3d cb 51 e1 be 0f dd 33 3e
       -0.30857265 0.082063876 -0.44007716 0.17564796

transformer.encoder.feed_forward2.weight f4 [24, 24]
000000 e2 3e 02 bf bb 75 c0 3d cc 6d 5f be a5 f0 aa be
       -0.508772 0.09397455 -0.21819228 -0.33386722
000010 38 b7 02 3e 80 ca 0f 3e 27 ce 55 be 40 ad 12 3e
       0.12765205 0.14042091 -0.20879422 0.14323902
000020 0d 34 82 bd 67 bd f3 bd 1f b7 32 bd f8 1e a9 3d
       -0.06357584 -0.1190136 -0.04363167 0.0825786
000030 00 e1 0c 3e ee 89 b6 bc 34 25 cc be de 9f ed bd
       0.13757706 -0.022282567 -0.39872134 -0.11602758
000040 fe d4 6c be 24 36 33 bd bd b6 8a bd f9 c9 f4 bd
       -0.23128125 -0.043752804 -0.06773136 -0.11952586
000050 3b 71 89 3c 56 d5 0b bf 13 4e 54 bf 76 33 6d be
       0.016777625 -0.546224 -0.8293163 -0.23164162
000060 e1 1a bf 3e 4c 3c 4a bc 2c 7a 7a 3e 68 5b ee bd
       0.37325194 -0.012343477 0.24460667 -0.11638528
000070 35 0b 02 3e 71 29 0d 3e c0 29 22 3f b6 d4 68 3c
       0.12699588 0.1378534 0.63344955 0.0142108705
000080 e1 f2 58 3e 06 3a 69 3c 63 ca fc be 16 c6 e6 3e
       0.21186401 0.014235025 -0.4937316 0.45073003
000090 81 55 14 3e 77 57 9c 3e f5 c5 b4 bc a9 32 3c 3e
       0.14485742 0.3053548 -0.02206705 0.183787
0000a0 76 fc 1f 3e 2a d2 97 3e 5b 24 86 3d 1b f2 ee 3d
       0.1562365 0.2965253 0.06549903 0.11667272
0000b0 9e 72 25 be 0e 5a 8e 3d c5 04 be 3e 33 4a eb be
       -0.16157004 0.0695077 0.37113014 -0.45955047
0000c0 14 51 e2 3d 65 aa e4 3b d8 4c 5d 3e 36 47 87 bd
       0.11050621 0.0069783204 0.21611345 -0.06605379
0000d0 27 fb fb 3e fa b3 cf 3c 83 7c 27 3e c3 41 26 bd
       0.49215052 0.025354374 0.16356091 -0.04059006
0000e0 e3 4a bd bd b5 fa dc bd e5 0a da be de a4 01 3f
       -0.09242799 -0.10790006 -0.42586437 0.5064219
0000f0 4f dc 97 bd 9e 1c 7d 3d 12 09 59 3e c6 12 ec bd
       -0.074150674 0.06179487 0.21194866 -0.11527018
000100 e4 68 1c bd e8 39 a3 be 4c ce d2 3c f9 58 f7 3c
       -0.03818597 -0.31880116 0.025733136 0.030193793
000110 b4 51 42 3e 80 39 a3 bd b9 89 db bd 40 45 7c be
       0.1897648 -0.07969952 -0.10719628 -0.24635792
000120 82 1d f2 be 62 59 a5 bc da ce 18 3c d7 8b 96 be
       -0.47288138 -0.020184223 0.009326661 -0.29403564
000130 3e cb 22 3e a6 b6 e8 be 27 df bc bd e1 69 21 3e
       0.15897843 -0.4545185 -0.092222504 0.15763046
000140 e0 3e 68 be 35 c2 32 bd 63 2f 83 be 2e 8e 3a 3e
       -0.22680235 -0.04364224 -0.2562209 0.182183
000150 a7 50 24 be 34 ff 0d be 6a 93 4d be 7c e7 66 be
       -0.16046391 -0.13866884 -0.20075765 -0.22549242
000160 5e c5 73 be 68 ba ac be 14 62 7a be 28 eb ba be
       -0.23805758 -0.33735967 -0.24451476 -0.36507535
000170 65 6c 11 be 7a 55 3a bf 13 92 db be e7 bd 7a be
       -0.14201505 -0.72786677 -0.42884883 -0.24486504
000180 09 bc 02 bf 06 8c c6 bc 6b a7 c5 bd 98 62 2b 3d
       -0.5106817 -0.02423669 -0.09651073 0.041842073
000190 fb cb c1 3c 98 5d ad bc 85 d3 9e 3d c4 d1 3c 3e
       0.023656836 -0.021162793 0.07755188 0.18439394
0001a0 43 8a a7 bd ce 0f 5d 3e 64 c8 94 3e 96 44 95 3e
       -0.08180668 0.2158806 0.29059136 0.2915389
0001b0 50 55 f5 bd f6 19 5a bd 8f e1 04 be 1b f8 91 be
       -0.11979163 -0.053247415 -0.12976669 -0.28509602
0001c0 96 3a 7f be 46 b9 dd 3d 04 d4 58 3e 8b 3e a9 bd
       -0.24924693 0.10826354 0.21174628 -0.08263882
0001d0 db d1 0f 3e 07 b9 f9 be d9 b7 90 be 82 8a df 3d
       0.14044897 -0.48773977 -0.28265265 0.1091509
0001e0 16 1a c2 bd 78 34 af be 85 4b 5c bd 7d 57 2c bf
       -0.09477632 -0.34219718 -0.05378296 -0.67320997
0001f0 88 e8 90 3c a0 42 46 bd ab f2 75 3e 91 86 8f be
       0.017689005 -0.048403382 0.24018352 -0.28032354
000200 81 67 f2 bd 7c ff 61 be 42 7e 1e bf f9 19 a7 bd
       -0.11836148 -0.22070116 -0.61911404 -0.08159251
000210 cc a1 b0 3d d9 c9 be 3c e3 a9 4a bc 9f 4f 4f be
       0.0862461 0.023289608 -0.012369606 -0.20245217
000220 3c de 79 bd dd 83 b4 be f4 35 84 3d b6 1a aa bb
       -0.061002955 -0.35256854 0.06455603 -0.0051911725
000230 e6 4b 79 bd 82 cf d2 3d f5 88 f2 be 91 12 31 bf
       -0.060863398 0.10293485 -0.47370115 -0.69168955
000240 b2 48 d5 3d 3d 48 3a 3e a3 7c dc bd 2b ec 6b 3e
       0.10414256 0.18191619 -0.1076596 0.2303931
000250 4d f0 5b be 17 d3 94 3e c5 fe f4 bd 52 32 fd bc
       -0.21478386 0.290673 -0.11962656 -0.030907784
000260 c2 27 34 3d 2f ca 5f 3d f5 8d a3 3e d1 64 62 bd
       0.04398323 0.054636177 0.31944242 -0.055271927
000270 47 03 81 be 7e fb 5f be 99 cb 67 bd b3 12 3d 3d
       -0.25197813 -0.2187328 -0.05659065 0.04616041
000280 4b fa 36 3d 36 37 fd 3e 81 92 7a bd fb 36 5a 3d
       0.04467229 0.49456185 -0.061174873 0.05327509
000290 80 46 60 bd c6 fe 0e 3e 01 2b bf 3d 64 7e 48 3e
       -0.054754734 0.13964376 0.09334374 0.19579464
0002a0 08 47 6b 3e 79 58 c9 be ad d6 1f 3e cd 30 09 bf
       0.22976315 -0.39325312 0.15609236 -0.5359009
0002b0 2c a1 68 bf 87 e3 76 bc b4 34 9a 3e e0 43 2b bf
       -0.9087093 -0.015068895 0.30118334 -0.66900444
0002c0 7a 47 4a 3e 0d 9f e1 be bf 23 99 bd 86 28 f7 be
       0.19753829 -0.4406666 -0.07477521 -0.48273104
0002d0 6c 96 e3 3e 51 27 31 3e 61 bf 88 bd 9b bb 1f 3d
       0.444507 0.17300154 -0.06677128 0.038997274
0002e0 2d 7a 33 3e 3c 9c f4 3d 2b 0e d2 bd 97 43 fb bd
       0.17527075 0.11943862 -0.102566086 -0.12268751
0002f0 f7 a1 53 bf 8a 47 a9 3d c1 6a 0e be 8c 0d f1 bd
       -0.82669014 0.08265598 -0.13907911 -0.11770162
000300 48 11 de bc bb 5e eb be 61 e9 82 3c 28 d6 cb bd
       -0.02710785 -0.4597071 0.015980424 -0.099529564
000310 3d aa 4e bf 9f dd 77 3e 65 57 21 be 55 1b 09 bf
       -0.80728513 0.24205635 -0.15755995 -0.5355733
000320 e0 0a 12 be 34 c8 0d bf 10 e7 f3 bd 31 2f 0c bf
       -0.14261961 -0.5538361 -0.11909306 -0.5475951
000330 d3 51 74 bd 4c 29 78 3d 3d b1 a0 be 5b 03 2b 3e
       -0.059648346 0.06058626 -0.31385222 0.16700499
000340 b0 1b 6c bd 93 ba 58 3e 49 99 be 3e 4d ef d4 bd
       -0.057643592 0.21164922 0.37226322 -0.103972055
000350 24 39 33 bf d9 fe 19 3e 2b 85 40 3e 4a 22 67 be
       -0.70009065 0.15038623 0.188008 -0.22571674
000360 2c 1f 10 3f 06 ec 5c 3e 23 46 a8 3e 23 00 72 3e
       0.56297565 0.21574411 0.3286601 0.23632865
000370 24 5e 71 be 2c d3 89 3e 7c 44 b9 3e 53 de c1 bd
       -0.23571068 0.26918924 0.36185062 -0.09466233
000380 5e 65 b2 3b 27 5c 67 3e ea 97 73 bd f8 bc 73 bd
       0.005444213 0.22593747 -0.05947105 -0.059506387
000390 12 65 92 3e 03 63 53 3e c0 62 20 bf 33 ea 1b 3e
       0.28592736 0.20643239 -0.6265068 0.15226059
0003a0 49 69 dc 3d 49 56 c5 be 4a cf be 3e 4f bb bd 3d
       0.10762269 -0.38542393 0.37267524 0.09264242
0003b0 0c 26 bd bd 0f 08 bf 3e 30 0d b7 3d 7d 4d 16 3e
       -0.092357725 0.37310836 0.08938062 0.14677997
0003c0 59 ec 1f 3f 1f 09 df 3d a6 15 0b 39 e8 0d 91 3e
       0.6247001 0.108904116 0.00013264138 0.28330922
0003d0 b7 7b e3 bd 76 3d 8d 3e 1d ec 9e 3d ce 58 df 3d
       -0.11107581 0.27585953 0.07759879 0.1090561
0003e0 f0 e4 e4 3b 6c a9 de bc ea 39 c2 bc 7e c4 fd bd
       0.0069852993 -0.027180396 -0.023709256 -0.123909935
0003f0 5d 30 cc 3c b8 82 fe bc 63 f3 9c 3e 76 da 6d 3d
       0.024925405 -0.031068191 0.3065444 0.05806967

transformer.encoder.feed_forward2.bias f4 [24]
000000 83 2c 5b bd 9f c7 a7 bd bc 7d 0a be 9f c9 bc 3c
       -0.053509247 -0.081923716 -0.13524526 0.02304536
000010 0b f7 84 3d d3 6d 84 bd 25 d6 18 bd 5f 41 8c 3e
       0.06492432 -0.0646626 -0.0373136 0.27393624
000020 0f 90 1e be 3f dc 9a 3d f6 17 89 bd 50 f0 24 bd
       -0.15484641 0.0756154 -0.06694023 -0.040268242
000030 29 0c cf bd cb 18 58 3d 0e 54 d5 3c 8f 72 cf 3d
       -0.10109741 0.05275802 0.026041057 0.10129272
000040 bc 70 c3 bd 07 82 96 3d 5b 33 35 be bd db e9 3d
       -0.09542987 0.073490195 -0.17695372 0.11418865
000050 87 a2 87 3d bf 5c 81 3d 02 33 07 3e a3 9a a1 3d
       0.066227965 0.06316518 0.13203052 0.07890823

transformer.feed_forward1.weight f4 [24, 10]
000000 c1 65 0a be 0b 47 0c 3e e5 5d ba 3d 2a 26 e8 3d
       -0.13515379 0.13698976 0.0909994 0.11335404
000010 e8 c0 5c 3e 1c 9f 34 be 20 c0 ca 3c 23 0d a3 bd
       0.21557963 -0.1763882 0.024749815 -0.0796149
000020 15 a8 54 be 97 33 79 bd 1e a8 26 be 7d 98 9b 3e
       -0.20767243 -0.060840216 -0.16275069 0.30389777
000030 ab c8 8e 3e c2 a7 db bd 3a 23 81 3e 3d 7b 9d 3e
       0.27887473 -0.10725357 0.25222188 0.30758086
000040 b7 ce 0e 3e 12 78 62 3e f8 e6 62 be 79 b5 34 be
       0.13946043 0.22116116 -0.2215842 -0.17647351
000050 c4 5b a4 bd ba 4e 6f 3e d7 05 c6 3d fe 10 83 3e
       -0.080253154 0.23369876 0.096690826 0.25598902
000060 65 d7 88 bc b4 40 7a bd ad d9 68 be c2 cc 07 be
       -0.01670427 -0.061096862 -0.22739287 -0.13261703
000070 28 89 13 3e 06 f0 4a be 06 77 6d 3f a8 66 08 3f
       0.1440779 -0.19818124 0.9275974 0.5328164
000080 78 21 30 bf 60 67 d7 bd 75 22 26 be 12 9e da bd
       -0.6880107 -0.10517764 -0.16224082 -0.10674681
000090 58 78 ea bf 05 5c c8 bd d7 f1 0d 3f 24 43 c7 3e
       -1.8317976 -0.09783176 0.55447143 0.38918412
0000a0 2e 76 90 be de 93 8c 3e 8d 93 89 bc b6 1f 8b 3e
       -0.28215164 0.27456564 -0.01679399 0.2717263
0000b0 51 aa 05 be a0 19 8c be 44 f6 25 bd 3b 91 2e be
       -0.13053252 -0.273633 -0.04051806 -0.17047589
0000c0 75 db 25 be 73 b7 74 bd 65 34 09 be 7c 53 60 3e
       -0.16196997 -0.059745263 -0.13398893 0.21906847
0000d0 61 06 fa 3d ee 3a 33 3e 70 0b 86 be f2 e9 f1 3d
       0.12208248 0.17502949 -0.261806 0.118122
0000e0 bd 95 00 3e 2e f7 1f 3e 4a a1 2d be db 45 39 bd
       0.1255712 0.15621635 -0.16956058 -0.045232635
0000f0 c4 0f da bd e0 87 43 3d 4f 40 74 bd d3 34 8d 3d
       -0.10647538 0.047737002 -0.059631642 0.06894841
000100 c2 01 57 be 5f 47 45 3e ce db c0 3d 8f b8 69 3e
       -0.20996764 0.19265507 0.094169244 0.2282431
000110 94 91 0d bd 9b 32 95 bd 93 bd 74 3d 58 8d 26 3e
       -0.034562662 -0.07285043 0.059751105 0.16264856
000120 59 2d 39 bd 58 86 2f bd 3b ba b0 bc b5 25 12 3e
       -0.045209263 -0.04285273 -0.021573177 0.14272197
000130 cd d1 06 3e 1d 46 a6 bd 83 ab 37 3d 9c 1e 97 be
       0.1316597 -0.08118842 0.0448413 -0.2951554
000140 45 c5 8b 3d 30 47 32 3e bb f4 80 be c6 e0 83 bd
       0.068247356 0.17409968 -0.25186715 -0.064393565
000150 b9 36 8a 3e 7c 1c 32 be 13 26 51 3e c1 ca 58 be
       0.26994875 -0.17393678 0.2042468 -0.21171094
000160 09 c0 91 3e 44 c6 73 be 2f 39 00 bf b9 3c 39 be
       0.28466824 -0.23806101 -0.50087255 -0.1808957
000170 0c 95 44 3e 73 76 e3 3d 26 b2 2a be e2 a4 16 3e
       0.19197482 0.11106577 -0.1666952 0.14711335
000180 ad 64 0f 3f 3b 28 58 bd dc 9b 35 3e 51 98 a2 bd
       0.56012994 -0.05277274 0.17735237 -0.07939208
000190 66 f7 f6 bf 89 22 31 be 2b 80 6f 3f ae 28 03 3e
       -1.929425 -0.1729833 0.93554944 0.12808487
0001a0 7a dd 0e 3e aa ac 9c bd 74 ac 9f 3f 54 1e 32 be
       0.13951674 -0.076501206 1.2474504 -0.17394382
0001b0 cb c3 8e 3d ae 87 82 3e bc 94 9a be 0a f0 09 be
       0.06970938 0.2549414 -0.301916 -0.13470474
0001c0 ca 2e 0d 3e 8d 99 4d 3e 85 fc b3 bc a0 05 86 3e
       0.1378738 0.20078106 -0.021970997 0.26176167
0001d0 8d 75 10 3e ba c7 97 3e d4 49 c9 3d 5e 27 80 bb
       0.14107342 0.29644567 0.09828535 -0.003910943
0001e0 b0 6f 56 be cc d8 16 3e 45 66 66 3e 2c 9e 51 be
       -0.20941043 0.14731139 0.2249995 -0.20470494
0001f0 43 df 42 bd b9 5a 5f bc 44 08 88 3e 92 a6 8a 3d
       -0.0475762 -0.01363247 0.26568806 0.06770052
000200 2a e4 9f 3d d7 3e a9 bd ca 59 e8 3d 9a 87 ee 3d
       0.07807191 -0.08263939 0.11345251 0.11646958
000210 57 26 6e bd c4 e3 1e be 45 76 9d be 35 00 c3 bd
       -0.058142032 -0.15516573 -0.30754295 -0.09521524
000220 f2 86 e4 3d 21 1d 74 bd 6b ac d7 3d 89 ef 6a be
       0.11158551 -0.059598092 0.10530933 -0.22942938
000230 2b c2 2b 3e e3 4e cf 3d 60 d5 75 3e cf b2 84 bd
       0.16773288 0.10122468 0.24007177 -0.064794175
000240 e4 03 a0 be 1f 9b 19 3e 8c 97 dd bd 7b c8 a1 3e
       -0.31252968 0.1500058 -0.10819921 0.31598267
000250 9d 69 3d be db 8e 04 be 6e 08 10 c0 b1 39 d9 3d
       -0.1849732 -0.1294512 -2.2505145 0.10606707
000260 50 42 7e 3f 5e 2a 31 3e a3 16 4b 3e 17 63 17 be
       0.99319935 0.17301318 0.19832854 -0.14783894
000270 9d 39 ed 3f e7 03 92 3e c5 9e 5f be a9 09 b1 3e
       1.8533207 0.28518602 -0.2183791 0.34577683
000280 2c ea 13 c0 02 7a 2a bf 3c 4f 6c 3f c4 00 85 3e
       -2.3111677 -0.6659242 0.923084 0.25977147
000290 b8 9d 8b bd 21 39 b7 3c c3 a6 d2 3f 55 c7 a1 be
       -0.06817192 0.022366108 1.6457142 -0.3159739
0002a0 01 5a c5 bd 64 d5 aa 3d 27 02 a0 3e 92 ca 9f 3d
       -0.096363075 0.08341482 0.31251642 0.07802309
0002b0 d4 46 03 3e 91 22 fb 3d 7f 32 e1 3d dd c9 8d 3e
       0.12819988 0.122624524 0.109959595 0.27693072
0002c0 e2 a6 35 be 88 12 3d bd 72 f8 19 3e eb 8e ab bd
       -0.17739442 -0.04616025 0.1503618 -0.08376869
0002d0 60 27 d9 bf b2 a7 a4 be ff a7 74 3f a1 85 49 3e
       -1.6965141 -0.3215919 0.9556884 0.19679882
0002e0 03 69 a4 be 8b b7 1d 3e 98 d1 85 3f be 84 ca ba
       -0.32111368 0.15402047 1.0454588 -0.0015450937
0002f0 5d 5b 50 3e 40 0e d6 bc 5e f7 ff bf e0 1a a9 3d
       0.20347352 -0.026129842 -1.9997365 0.08257079
000300 ab 58 6a 3f f6 d0 8b 3e c1 a9 8c 3e 50 9d 97 be
       0.91541547 0.27307862 0.27473262 -0.29612207
000310 8e 02 86 3f d5 16 5f bd 81 94 4e be 3e fd 9a 3d
       1.046953 -0.054465134 -0.20173837 0.07567833
000320 61 d7 90 3e 68 c7 9c 3e ce ab 4d bd b6 35 7a 3e
       0.2828932 0.30620885 -0.050212674 0.24434552
000330 1f 4c 88 3e 89 92 77 3e ec e5 83 3e b2 1a 16 bd
       0.26620576 0.24176992 0.25761354 -0.036646552
000340 01 03 51 bb 50 00 6f be 02 af 13 3f e5 75 1b be
       -0.003189266 -0.23339963 0.57688916 -0.15181692
000350 47 11 54 be fa d5 a7 3d 6f 7e 1c be fd 51 30 be
       -0.20709716 0.0819511 -0.15282606 -0.17218776
000360 f5 44 4c bf 56 d5 36 be e6 0f 39 3e 5f 9a 15 bc
       -0.7979272 -0.17854819 0.18072471 -0.009131043
000370 ff 70 35 bd 78 da 57 3e b6 db 8f 3e 9d 09 88 be
       -0.044297215 0.21079433 0.28097314 -0.26569834
000380 7b 45 69 3d 15 3d 99 bc 38 63 06 3e 4e fe a4 bc
       0.056951027 -0.018705884 0.13123786 -0.020140793
000390 0c b5 7c be f9 da a0 be d6 d2 6a bc bb bd 1f bb
       -0.24678439 -0.31417063 -0.014332494 -0.0024374563
0003a0 7b 70 9e 3d 58 c7 95 3b d6 87 58 be e4 0c 10 3e
       0.07736298 0.004570883 -0.21145567 0.14067417
0003b0 27 a1 05 bd 71 d4 78 3d 7c 45 4d be d6 02 40 bd
       -0.03262439 0.060749475 -0.20046037 -0.046877705

transformer.feed_forward1.bias f4 [24]
000000 06 55 d4 3b 8f 5c 52 3e 00 86 69 be 90 1f 8c 3d
       0.006479862 0.20543121 -0.22805023 0.068419576
000010 0c 87 2a be 19 55 18 3e eb d7 f2 bd 80 b2 3c 3e
       -0.16653079 0.14876212 -0.11857589 0.18427467
000020 86 e9 4c be f6 43 36 3d ed c0 36 bf 2f ca 4c be
       -0.20010957 0.044498406 -0.7138813 -0.19999002
000030 94 a3 76 bd 3a 2e 47 be 9d 0c 83 3e 10 3d 05 bf
       -0.060214594 -0.19451228 0.2559556 -0.520463
000040 8c 9f 99 bf 8b 30 95 3e bf 53 42 be 86 9c 23 bf
       -1.2001815 0.29138598 -0.18977259 -0.6391071
000050 38 6b 9a 3d e3 66 9d 3d bf e1 31 bc d0 b4 46 3e
       0.075399816 0.0768564 -0.010857045 0.19404912

transformer.feed_forward2.weight f4 [24, 24]
000000 53 e3 d0 3d 0f 0d e1 bd 5f bd 44 be 22 56 da 3d
       0.10199609 -0.10988819 -0.19212864 0.1066096
000010 05 07 e8 3d f9 30 0b be 0a b9 d8 3d 1b c4 cb 3d
       0.11329464 -0.135929 0.105821684 0.099495135
000020 cf c0 c9 bd 68 96 4e 3d b0 c3 03 bd 0b 0e 73 3c
       -0.098512284 0.050436407 -0.032169044 0.014834891
000030 26 7f b5 bb 44 53 0f be 4c 93 0a be bd 4b c8 3d
       -0.005538839 -0.13996607 -0.13532752 0.09780071
000040 12 89 56 bc a7 61 37 be 08 10 46 3b 68 b2 52 3d
       -0.013094204 -0.17908345 0.0030221958 0.051439673
000050 e4 8d 09 3d 5f c7 a0 bd ab ee 03 be 62 26 42 3d
       0.033582583 -0.07850527 -0.12884013 0.047399886
000060 39 d4 d7 3c b6 1b 2d 3e bb c8 27 3e 40 cf aa be
       0.026346313 0.16905102 0.16385166 -0.33361244
000070 cf ca 33 be 81 d1 5c 3d 7a 22 e8 bd 42 44 83 3d
       -0.17557834 0.053910736 -0.11334701 0.064095035
000080 a1 62 ce 3d 5c 61 3b 3d 2c 93 1e be 2d 4a 1a be
       0.10077406 0.045747146 -0.15485829 -0.15067358
000090 bc 4a ae 3d 2b 66 d0 bd f4 f7 94 bc 02 2c c5 bc
       0.08510348 -0.10175737 -0.01818464 -0.024068836
0000a0 3a f7 d2 3c 47 85 d7 bd f0 23 fe bb f7 36 ce bd
       0.025752652 -0.105234675 -0.007755749 -0.100690775
0000b0 22 1b cf bd d3 ba 80 be b0 a5 0f 3e 3f 30 82 be
       -0.10112597 -0.25142536 0.14028049 -0.25427434
0000c0 e1 6a 38 3e 83 b1 89 3d a3 6a 6b bc 10 74 21 3f
       0.18009521 0.06723311 -0.014368686 0.6306772
0000d0 14 37 47 be 32 aa 12 3e 3a 0e 2e be 1c 56 42 3d
       -0.19454604 0.14322737 -0.16997615 0.0474454
0000e0 59 12 24 3d aa 50 d7 bd 70 33 2d 3e 8e 2f 90 3d
       0.04005656 -0.10513432 0.16914153 0.0704032
0000f0 04 83 ab 3d 39 c0 bf 3d 57 ac 2b 3b 28 d5 c1 3c
       0.083745986 0.093628354 0.0026195252 0.023661211
000100 73 54 86 be 9e df ae 3d 8a b5 80 be 0b da b1 bd
       -0.26236305 0.08538745 -0.25138503 -0.086841665
000110 e0 38 2f be 97 4e 06 3f f7 fa eb bd 20 0d 44 3d
       -0.1711154 0.5246367 -0.11522477 0.04786408
000120 fe 72 c2 3c 06 84 af bd df 83 00 3e 78 e6 7f bf
       0.023736473 -0.08570103 0.12550305 -0.9996104
000130 cd bd ec 3d dc 40 5b bd 71 8c 2e 3e e5 ed 3f 3e
       0.11559639 -0.05352865 0.17045762 0.18743093
000140 5e 01 b1 3d 59 57 07 be c0 d8 b3 be eb b9 40 be
       0.08642839 -0.13216914 -0.35126305 -0.18820922
000150 2e 4b 0a be 0d 84 61 bd 4f 26 93 3d 4c 55 56 be
       -0.13505241 -0.055057574 0.07185041 -0.20930976
000160 6a 3e 57 3c 24 ef f3 bd 71 4d aa 3d 02 9e 54 be
       0.013137439 -0.11910847 0.08315552 -0.207634
000170 74 51 0f be 1e c5 86 be 61 21 1c be d9 3f 0e 3e
       -0.13995916 -0.26322263 -0.15247108 0.13891543
000180 b6 71 b6 3d 87 a2 07 be 45 c3 65 bd 55 50 8c bb
       0.089084074 -0.13245593 -0.056094427 -0.0042820373
000190 5e 9d 44 bd 8f 24 2a be a7 ec b6 bb cf 3d 20 3e
       -0.04800164 -0.16615508 -0.0055824104 0.15648578
0001a0 35 f5 f5 3d 8a fe cc bd cb ca a7 3e 7f 29 ca 3d
       0.1200966 -0.10009487 0.32771906 0.09871196
0001b0 25 d4 2f 3e fe 3e 0f be f1 68 c1 3d c5 e0 11 3f
       0.1717077 -0.13988873 0.09443844 0.56983596
0001c0 c4 e6 8b 3e ee 9b 59 bc 72 4a a6 3e f7 4a 84 3d
       0.27324498 -0.013281805 0.32478672 0.06459611
0001d0 aa 24 30 3e 27 07 08 3d f7 90 49 be 43 7d 81 be
       0.17201486 0.033209946 -0.19684206 -0.2529088
0001e0 b7 f2 b2 bc c3 6b 4f 3e 0c 32 32 3e 3a 98 ed 3b
       -0.021844251 0.20255952 0.17401904 0.007250813
0001f0 42 c3 e4 bd 76 57 46 3e 33 37 f1 3d dd 83 80 bc
       -0.11170055 0.19369301 0.117781065 -0.015687877
000200 95 b8 a8 bd 9b 1c 83 bc 2f 82 62 be 14 e8 31 3d
       -0.08238331 -0.016004851 -0.22119974 0.043434218
000210 dc 11 77 3d e9 2b 2a be d8 32 0a be 45 37 d1 be
       0.060319766 -0.16618313 -0.13495958 -0.4086248
000220 73 2d 5e be b8 de 86 bd d9 a6 ed 3c 8c e3 94 bd
       -0.21697025 -0.06585449 0.029010223 -0.072699636
000230 d4 6b 25 3e 1a 7a 1e bb fb c7 3a bd 2c 35 5b be
       0.16154414 -0.0024181665 -0.045600872 -0.21407002
000240 58 d7 30 3e 08 7d a2 bb d8 ee 8c 3c 49 28 9a be
       0.17269647 -0.0049587525 0.017203733 -0.3010886
000250 7c d5 6f bd 70 9f 79 3d 86 85 18 3e 08 a6 36 bd
       -0.058553204 0.060943067 0.14894685 -0.044591933
000260 52 81 2b be 3b 5a 9e 3e 28 1a 4a 3e ad 09 c2 bd
       -0.1674855 0.30928215 0.1973654 -0.09474502
000270 7b b3 91 bd bb 9e 0a be ff e9 42 bd c4 ab ef 3d
       -0.07114311 -0.13537113 -0.047586437 0.117026836
000280 3c 34 ff 3e 6b 40 ba bd fe db f1 3d 85 ac 28 3e
       0.4984454 -0.09094318 0.11809538 0.16472061
000290 62 86 17 be 11 fc de be d9 89 2b 3e e6 52 6d be
       -0.14797357 -0.43551686 0.16751803 -0.23176154
0002a0 b2 c4 93 bb 62 e9 0b 3e 38 4e b2 bd 2b 0b 8b 3b
       -0.004509532 0.13663247 -0.08706325 0.0042432747
0002b0 b7 9f 60 3d cd 0e 2d be 18 dd 34 be 05 2d fc bc
       0.054839816 -0.16900177 -0.17662466 -0.030783186
0002c0 8e ed ac 3d d6 4e c8 bc d8 67 b8 bd 81 71 20 bd
       0.084437475 -0.024451654 -0.090041816 -0.039170746
0002d0 de a2 2d be 4d 4b 99 3d f0 a7 c2 3d 31 a9 e4 be
       -0.1695666 0.074850656 0.09504688 -0.44660333
0002e0 79 f1 48 be d5 9d 1e 3e 07 d6 42 be 9d f8 22 3d
       -0.19623365 0.15489896 -0.19026957 0.039787877
0002f0 b7 bf e7 3d ce c3 44 be d2 75 a3 3d db b1 1e 3c
       0.113158636 -0.19215319 0.07981457 0.009685959
000300 9a 43 a0 3d 8c 60 af 3d 6b e4 3c be 86 a6 6d 3d
       0.07825394 0.08563337 -0.1844651 0.058020137
000310 39 ff be 3d ad c5 74 bd 75 46 d3 bd 6b a1 20 be
       0.093260236 -0.05975883 -0.10316173 -0.15686576
000320 f9 09 3f 3e c9 d4 06 bd b1 ef 0c bf aa 05 d2 bd
       0.18656148 -0.03291777 -0.5505324 -0.102549866
000330 3c 2f e2 bd b1 40 60 bd 62 6b 4d 3e 53 d8 06 bf
       -0.110441655 -0.054749195 0.20060495 -0.52673835
000340 23 a6 8f be 8e 7f 5a bd 24 52 43 3d 79 0c ad 3d
       -0.2805644 -0.053344302 0.047685757 0.084496446
000350 79 89 c2 bd 4e 50 4e be b9 96 91 bc 4b 72 af 3b
       -0.09498877 -0.20147821 -0.017772065 0.005354201
000360 4a 39 07 be 7d f5 3a 3e e9 06 e6 3c 6c 61 9b bd
       -0.13205448 0.18257709 0.028079467 -0.07586941
000370 f6 ad 94 bc 14 18 eb bd 5d 46 b1 bd 2b 62 6a bd
       -0.018149357 -0.11479202 -0.08655999 -0.057222527
000380 e2 e3 9a bc 17 21 c8 3a ac 59 45 be d5 de 17 3e
       -0.018907491 0.0015268651 -0.19272488 0.14831097
000390 27 b5 47 be 7f bc b6 3d af e3 2a be 7e 03 db be
       -0.19502698 0.089226715 -0.16688417 -0.42776102
0003a0 19 e1 a8 be 6c 8a c9 bb 50 9e 47 bd 0a ec a3 bd
       -0.32984236 -0.0061505344 -0.048734963 -0.08004005
0003b0 b4 44 e3 bd 2f c2 63 3d 66 a5 ef bd 81 75 5f be
       -0.110970885 0.05560511 -0.11701469 -0.21822168
0003c0 50 dc 93 bd 64 e7 91 bd 22 b7 4a 3e 8f 32 11 be
       -0.07219756 -0.071242124 0.19796422 -0.14179443
0003d0 8a 9d f9 bd 1e 31 12 bd 6a 91 8f 3d 6c 44 16 3c
       -0.12188251 -0.035691373 0.070101574 0.0091715865
0003e0 46 d2 b7 3c 70 45 35 bd cb 1f 44 be e2 00 d6 bb
       0.022439133 -0.044255674 -0.19152753 -0.006530867
0003f0 23 db 31 be 63 4e 35 be 0d 7d 22 be cf 81 a1 be
       -0.1736875 -0.17705683 -0.15868016 -0.3154435

transformer.feed_forward2.bias f4 [24]
000000 9c e4 34 be 71 a8 34 bc 22 ed 01 3f 91 a1 17 bf
       -0.17665333 -0.011026488 0.5075246 -0.59230906
000010 50 e9 91 bc 39 42 df 3e bb 21 98 be e5 5c 32 3e
       -0.017811447 0.4360521 -0.29713234 0.17418249
000020 78 5a 1e bd 21 d2 01 3e 52 00 e2 3d be f2 ba be
       -0.038660496 0.12677814 0.11035217 -0.36513323
000030 ac 74 84 be 8e 1a e8 bd 10 08 7c bf ce d6 be 3e
       -0.25870264 -0.1133319 -0.984498 0.37273258
000040 df 05 73 3e 45 65 ba be 40 26 a7 3e db 49 d8 bd
       0.23732708 -0.36405388 0.3264637 -0.10560962
000050 74 f3 09 3e 26 62 7f 3e 34 f0 23 3f 0b fc 14 3e
       0.13471776 0.24939784 0.64038396 0.14549272

transformer.output_layer.weight f4 [1, 1200]
000000 ff 6b 89 be de 7d ab 3e 8e 63 65 3e 5e ea c8 bd
       -0.26840207 0.33494467 0.22401258 -0.09810327
000010 35 0d dd be 6a c2 ee 3e 2c a4 b1 be 29 c6 48 3e
       -0.4317414 0.466327 -0.34695566 0.19606842
000020 ad b7 2d 3e c2 eb d0 3e 77 a6 7d 3e 85 f7 94 be
       0.16964598 0.4080487 0.24770533 -0.29095092
000030 4b 7c e5 be f4 af 03 3f 0d 38 d2 be b2 78 99 3e
       -0.4482139 0.5144036 -0.41058388 0.29974896
000040 1f 2e 70 3e 32 45 a3 be a8 77 97 3e b6 c7 37 be
       0.23455094 -0.3188873 0.29583478 -0.17947277
000050 67 4f 07 3f b0 e5 cb 3e c3 fe 33 3e cc 1c 8b 3e
       0.52855533 0.39823675 0.17577653 0.27170408
000060 c6 fc e4 3d bd ff 0e bc a3 88 51 3e 44 08 2c 3e
       0.11181025 -0.008727965 0.20462279 0.16800028
000070 ad 68 aa bd f8 e2 b0 3d f4 a9 3d be da 89 eb bd
       -0.083207466 0.08637041 -0.18521863 -0.115009025
000080 1d 56 c1 3c 21 e7 4a bd 55 c4 9e bd c3 01 80 be
       0.023600632 -0.049536828 -0.07752291 -0.25001344
000090 57 fd 97 ba 34 98 8d 3d b5 28 96 bc 5f b5 9c bb
       -0.0011595887 0.06913796 -0.018329958 -0.0047823633
0000a0 f2 50 0a be f6 40 39 be 3a d0 e8 bd e0 88 92 3e
       -0.1350744 -0.18091187 -0.11367841 0.28620052
0000b0 1b 8b 9c 3d 22 0a 9b 3d 47 21 a1 3c ab 23 e2 3d
       0.0764372 0.07570292 0.019669188 0.110419594
0000c0 37 56 82 3d 04 5e 7a bd 12 7a ef 3d d6 cd 66 3e
       0.063641004 -0.061124817 0.11693205 0.22539458
0000d0 02 1d f1 3c 97 bb a3 bc 3b 7c 1e be b3 da 3e be
       0.029432777 -0.01998691 -0.15477078 -0.18638115
0000e0 cd 6c bc bd 64 26 b0 bd 01 2e 47 bd c8 0d a1 bc
       -0.092004396 -0.086010724 -0.048627857 -0.019659892
0000f0 ef 04 23 3e 1e 6d c1 bc c6 2c 85 3d 34 cc 9d bd
       0.15919851 -0.023611601 0.065026805 -0.07704964
000100 bf 1e 65 be d1 58 92 bd 0e 60 d8 bd 25 4f 99 3e
       -0.2237501 -0.07145847 -0.10565196 0.29943195
000110 08 00 a1 bc ac d1 0b be 9a 33 b4 3c 9c c0 08 be
       -0.019653335 -0.13654202 0.021997262 -0.13354725
000120 62 0f 28 be c4 2b 46 3e d6 05 af 3e 4a 3f 74 3d
       -0.16412118 0.19352633 0.3418414 0.05963067
000130 b6 97 64 be 41 2d 56 3e 61 00 b8 be d1 65 0b 3e
       -0.22323498 0.209157 -0.3593779 0.13613059
000140 72 e0 98 3d 41 e9 2b 3e b9 ff 05 3e 94 22 a2 be
       0.074646845 0.16788198 0.13085832 -0.31667006
000150 34 b4 2f be 8b a9 83 3e 52 35 37 be e8 d7 f3 3d
       -0.17158586 0.2571529 -0.17891434 0.11906415
000160 84 5b 69 3d 48 96 1e be d5 81 c4 3d c6 6a de bc
       0.05697204 -0.15487015 0.09595076 -0.027150523
000170 88 e3 8e 3e ae 42 37 3e ce f5 61 3e 45 dc c2 3e
       0.27907968 0.1789653 0.22066423 0.38058677
000180 10 09 ef 3d 6e 41 0d be 8f 1a 87 3e 33 1b 79 3c
       0.116716504 -0.1379449 0.2638745 0.015204239
000190 58 ab 94 ba 48 9e 75 bd ab f1 93 be 69 98 84 bd
       -0.0011342568 -0.059965402 -0.28895316 -0.064743824
0001a0 9f 16 72 bd fe 02 77 be a8 b6 03 be 6c d2 97 be
       -0.059103604 -0.24122235 -0.12862647 -0.29652727
0001b0 f9 86 a0 bc f7 c0 6f bd 3b 47 d9 3d 9e 7d 54 bd
       -0.01959561 -0.058533635 0.10609289 -0.05187761
0001c0 6e fe e8 bd 02 a5 01 3e 04 90 56 be ce ee 4d 3e
       -0.113766536 0.12660602 -0.20953375 0.20110628
0001d0 07 46 0a be 60 df af 3c f5 e8 26 3e 87 16 00 3e
       -0.13503276 0.021468818 0.16299804 0.12508593
0001e0 fa b9 6d be 43 16 5e 3d a6 3b ce 3d 38 a1 b4 bd
       -0.23215476 0.05422045 0.10069971 -0.088198125
0001f0 a3 bb 21 be 43 43 c5 3d 30 04 af bd 4a 9b 1a 3c
       -0.15794234 0.0963197 -0.085457206 0.009436438
000200 20 44 51 3b de e9 2d 3e 70 aa 33 3e 13 ca 84 bd
       0.0031931475 0.16983745 0.17545485 -0.06483855
000210 95 c9 b7 3c 16 ec ef 3d 8a 6c b1 bb b2 91 15 3e
       0.022434989 0.11714952 -0.00541455 0.1460636
000220 49 48 76 3d b9 65 f9 3d b3 25 47 3d ba 78 29 be
       0.06012753 0.12177605 0.048619937 -0.1654996
000230 00 b2 0c 3e 2e 34 5b 3d cc fa 04 3d 85 13 c2 3d
       0.13739777 0.05351656 0.03246574 0.09476379
000240 98 94 ad 3c c8 8a 85 bd 02 52 23 3e d0 5e 26 3e
       0.02118902 -0.06520611 0.15949252 0.16247106
000250 5f 70 df 3d 59 1d 39 be 3f 02 e1 bd 82 5d 8c be
       0.10910105 -0.18077601 -0.109867565 -0.2741509
000260 07 65 2f be 4b 2e d2 bd 6a 27 0f bd d0 df 0c bd
       -0.17128383 -0.10262736 -0.034949698 -0.03439313
000270 e6 2b 20 3e 8b 88 28 be 8d 0e 2f 3e b8 21 e3 3b
       0.15641746 -0.16458337 0.17095394 0.00693151
000280 63 c2 81 3c 86 82 bb 3d 46 e1 08 be d0 f8 38 3e
       0.015839761 0.09155755 -0.13367185 0.18063664
000290 9b e7 57 be 52 90 71 be c3 69 cd 3d ce e5 80 bb
       -0.21084444 -0.2359021 0.10029938 -0.003933645
0002a0 af 41 cf be 05 a2 4e 3e b4 7f 5f 3e 78 2f a1 be
       -0.404798 0.20178993 0.21826059 -0.31481528
0002b0 b3 5c b8 be ca d0 98 3e 0b d2 66 be bb 00 45 3e
       -0.36008224 0.29846793 -0.22541063 0.1923856
0002c0 4f d3 97 3d ce 32 7e 3e a9 59 aa 3e 66 27 96 be
       0.07413351 0.24824068 0.3327153 -0.29326934
0002d0 2b be 96 be 8d 00 8c 3e f9 09 7f be 7d 8f a1 3e
       -0.29441962 0.2734417 -0.24906148 0.31554785
0002e0 75 eb 99 3e 68 fe 19 bd b4 f4 57 3e 8d 0f be be
       0.30062452 -0.037596136 0.2108944 -0.3712124
0002f0 27 fe 87 3e f3 81 9c 3e 4c e5 0a 3e 59 b2 ae 3e
       0.2656109 0.30567893 0.13564032 0.34120443
000300 58 d3 18 3d 8c 06 f1 bd 07 7b 97 3e 66 3f 02 3e
       0.037310928 -0.11768827 0.2958605 0.12719497
000310 7f e6 0d 3d c4 08 12 be 04 45 3d be be e0 8e be
       0.034643646 -0.14261156 -0.18483359 -0.2790584
000320 5e 3c 44 be a3 b6 a2 bd 89 1b 05 bd 5a c3 26 be
       -0.19163653 -0.079449914 -0.032496963 -0.16285458
000330 8e d5 39 3e 77 de 44 be 0e f8 f3 3d 73 c3 b3 bc
       0.18147871 -0.19225489 0.11912547 -0.021943783
000340 19 49 d1 bc da 43 3f bd 0a 95 29 be f2 1f e3 3d
       -0.025547551 -0.046695568 -0.1656076 0.110900775
000350 c1 50 6b be e2 4f f3 bd 57 c9 40 3e 23 e9 39 3e
       -0.22980024 -0.11880471 0.18826805 0.18155341
000360 9c 2e 8a be 98 f0 dd 3d 30 50 18 3e 9b c5 48 be
       -0.26988685 0.10836905 0.14874339 -0.1960663
000370 22 55 80 be ad 7b d5 3d 22 3d 60 be 80 a9 92 3d
       -0.2506495 0.1042398 -0.2189832 0.07161236
000380 0b a3 02 3d a8 79 07 3e 8b 94 6a 3e d6 db c9 bd
       0.03189377 0.13230002 0.22908227 -0.098563835
000390 a6 a2 dd bd eb 5b 96 3d f1 d4 a2 bd 58 22 6d 3e
       -0.10822038 0.07341751 -0.079507716 0.23157632
0003a0 b4 60 82 3d 3b 60 f5 bd 8e 74 b3 3d a5 44 5e be
       0.06366101 -0.11981245 0.087624654 -0.21705873
0003b0 61 95 18 3e 88 c4 ea 3d 55 f2 12 bd 1a b3 d1 3d
       0.14900734 0.114632666 -0.035875637 0.10239239
0003c0 ea 7f 68 bd 6f a0 7e bd e1 85 40 3e 30 83 39 bd
       -0.056762613 -0.06216472 0.18801071 -0.045291126
0003d0 c9 38 02 bd c2 3f 3a be 03 7e 67 be 83 6c 52 be
       -0.031792436 -0.18188384 -0.22606663 -0.20549206
0003e0 0b 7c cc bd 9d 11 af bd df 43 38 3d e1 30 ce bd
       -0.09984597 -0.08548281 0.044986602 -0.10067917
0003f0 0d a8 98 bc d0 c3 6c be c1 c7 99 3d 3d 06 5e 3d
       -0.01863482 -0.23121572 0.07508803 0.054205168

exp_avg f4 [6, 6]
000000 00 00 00 00 00 00 00 00 00 00 00 00 00 00 00 00
       0.0 0.0 0.0 0.0
000010 00 00 00 00 00 00 00 00 00 00 00 00 00 00 00 00
       0.0 0.0 0.0 0.0
000020 00 00 00 00 00 00 00 00 00 00 00 00 00 00 00 00
       0.0 0.0 0.0 0.0
000030 00 00 00 00 00 00 00 00 00 00 00 00 00 00 00 00
       0.0 0.0 0.0 0.0
000040 00 00 00 00 00 00 00 00 00 00 00 00 00 00 00 00
       0.0 0.0 0.0 0.0
000050 00 00 00 00 00 00 00 00 00 00 00 00 00 00 00 00
       0.0 0.0 0.0 0.0
000060 00 00 00 00 00 00 00 00 00 00 00 00 00 00 00 00
       0.0 0.0 0.0 0.0
000070 00 00 00 00 00 00 00 00 00 00 00 00 00 00 00 00
       0.0 0.0 0.0 0.0
000080 00 00 00 00 00 00 00 00 00 00 00 00 00 00 00 00
       0.0 0.0 0.0 0.0

exp_avg_sq f4 [6, 6]
000000 00 00 00 00 00 00 00 00 00 00 00 00 00 00 00 00
       0.0 0.0 0.0 0.0
000010 00 00 00 00 00 00 00 00 00 00 00 00 00 00 00 00
       0.0 0.0 0.0 0.0
000020 00 00 00 00 00 00 00 00 00 00 00 00 00 00 00 00
       0.0 0.0 0.0 0.0
000030 00 00 00 00 00 00 00 00 00 00 00 00 00 00 00 00
       0.0 0.0 0.0 0.0
000040 00 00 00 00 00 00 00 00 00 00 00 00 00 00 00 00
       0.0 0.0 0.0 0.0
000050 00 00 00 00 00 00 00 00 00 00 00 00 00 00 00 00
       0.0 0.0 0.0 0.0
000060 00 00 00 00 00 00 00 00 00 00 00 00 00 00 00 00
       0.0 0.0 0.0 0.0
000070 00 00 00 00 00 00 00 00 00 00 00 00 00 00 00 00
       0.0 0.0 0.0 0.0
000080 00 00 00 00 00 00 00 00 00 00 00 00 00 00 00 00
       0.0 0.0 0.0 0.0

exp_avg f4 [6]
000000 00 00 00 00 00 00 00 00 00 00 00 00 00 00 00 00
       0.0 0.0 0.0 0.0
000010 00 00 00 00 00 00 00 00
       0.0 0.0

exp_avg_sq f4 [6]
000000 00 00 00 00 00 00 00 00 00 00 00 00 00 00 00 00
       0.0 0.0 0.0 0.0
000010 00 00 00 00 00 00 00 00
       0.0 0.0

exp_avg f4 [6, 6]
000000 00 00 00 00 00 00 00 00 00 00 00 00 00 00 00 00
       0.0 0.0 0.0 0.0
000010 00 00 00 00 00 00 00 00 00 00 00 00 00 00 00 00
       0.0 0.0 0.0 0.0
000020 00 00 00 00 00 00 00 00 00 00 00 00 00 00 00 00
       0.0 0.0 0.0 0.0
000030 00 00 00 00 00 00 00 00 00 00 00 00 00 00 00 00
       0.0 0.0 0.0 0.0
000040 00 00 00 00 00 00 00 00 00 00 00 00 00 00 00 00
       0.0 0.0 0.0 0.0
000050 00 00 00 00 00 00 00 00 00 00 00 00 00 00 00 00
       0.0 0.0 0.0 0.0
000060 00 00 00 00 00 00 00 00 00 00 00 00 00 00 00 00
       0.0 0.0 0.0 0.0
000070 00 00 00 00 00 00 00 00 00 00 00 00 00 00 00 00
       0.0 0.0 0.0 0.0
000080 00 00 00 00 00 00 00 00 00 00 00 00 00 00 00 00
       0.0 0.0 0.0 0.0

exp_avg_sq f4 [6, 6]
000000 00 00 00 00 00 00 00 00 00 00 00 00 00 00 00 00
       0.0 0.0 0.0 0.0
000010 00 00 00 00 00 00 00 00 00 00 00 00 00 00 00 00
       0.0 0.0 0.0 0.0
000020 00 00 00 00 00 00 00 00 00 00 00 00 00 00 00 00
       0.0 0.0 0.0 0.0
000030 00 00 00 00 00 00 00 00 00 00 00 00 00 00 00 00
       0.0 0.0 0.0 0.0
000040 00 00 00 00 00 00 00 00 00 00 00 00 00 00 00 00
       0.0 0.0 0.0 0.0
000050 00 00 00 00 00 00 00 00 00 00 00 00 00 00 00 00
       0.0 0.0 0.0 0.0
000060 00 00 00 00 00 00 00 00 00 00 00 00 00 00 00 00
       0.0 0.0 0.0 0.0
000070 00 00 00 00 00 00 00 00 00 00 00 00 00 00 00 00
       0.0 0.0 0.0 0.0
000080 00 00 00 00 00 00 00 00 00 00 00 00 00 00 00 00
       0.0 0.0 0.0 0.0

exp_avg f4 [6]
000000 00 00 00 00 00 00 00 00 00 00 00 00 00 00 00 00
       0.0 0.0 0.0 0.0
000010 00 00 00 00 00 00 00 00
       0.0 0.0

exp_avg_sq f4 [6]
000000 00 00 00 00 00 00 00 00 00 00 00 00 00 00 00 00
       0.0 0.0 0.0 0.0
000010 00 00 00 00 00 00 00 00
       0.0 0.0

exp_avg f4 [6, 6]
000000 00 00 00 00 00 00 00 00 00 00 00 00 00 00 00 00
       0.0 0.0 0.0 0.0
000010 00 00 00 00 00 00 00 00 00 00 00 00 00 00 00 00
       0.0 0.0 0.0 0.0
000020 00 00 00 00 00 00 00 00 00 00 00 00 00 00 00 00
       0.0 0.0 0.0 0.0
000030 00 00 00 00 00 00 00 00 00 00 00 00 00 00 00 00
       0.0 0.0 0.0 0.0
000040 00 00 00 00 00 00 00 00 00 00 00 00 00 00 00 00
       0.0 0.0 0.0 0.0
000050 00 00 00 00 00 00 00 00 00 00 00 00 00 00 00 00
       0.0 0.0 0.0 0.0
000060 00 00 00 00 00 00 00 00 00 00 00 00 00 00 00 00
       0.0 0.0 0.0 0.0
000070 00 00 00 00 00 00 00 00 00 00 00 00 00 00 00 00
       0.0 0.0 0.0 0.0
000080 00 00 00 00 00 00 00 00 00 00 00 00 00 00 00 00
       0.0 0.0 0.0 0.0

exp_avg_sq f4 [6, 6]
000000 00 00 00 00 00 00 00 00 00 00 00 00 00 00 00 00
       0.0 0.0 0.0 0.0
000010 00 00 00 00 00 00 00 00 00 00 00 00 00 00 00 00
       0.0 0.0 0.0 0.0
000020 00 00 00 00 00 00 00 00 00 00 00 00 00 00 00 00
       0.0 0.0 0.0 0.0
000030 00 00 00 00 00 00 00 00 00 00 00 00 00 00 00 00
       0.0 0.0 0.0 0.0
000040 00 00 00 00 00 00 00 00 00 00 00 00 00 00 00 00
       0.0 0.0 0.0 0.0
000050 00 00 00 00 00 00 00 00 00 00 00 00 00 00 00 00
       0.0 0.0 0.0 0.0
000060 00 00 00 00 00 00 00 00 00 00 00 00 00 00 00 00
       0.0 0.0 0.0 0.0
000070 00 00 00 00 00 00 00 00 00 00 00 00 00 00 00 00
       0.0 0.0 0.0 0.0
000080 00 00 00 00 00 00 00 00 00 00 00 00 00 00 00 00
       0.0 0.0 0.0 0.0

exp_avg f4 [6]
000000 00 00 00 00 00 00 00 00 00 00 00 00 00 00 00 00
       0.0 0.0 0.0 0.0
000010 00 00 00 00 00 00 00 00
       0.0 0.0

exp_avg_sq f4 [6]
000000 00 00 00 00 00 00 00 00 00 00 00 00 00 00 00 00
       0.0 0.0 0.0 0.0
000010 00 00 00 00 00 00 00 00
       0.0 0.0
